Source/PPO/PPO_Tactile+FT/logs/ppo-ur5-ComGrasp/ppo-ur5-ComGrasp_s0/pyt_save/model.pt (torch_old, 14536 bytes, 30 tensors)

pi.mu_net.0.weight f4 [16, 4]
0.05704658 0.333311 -0.46063527 -0.1716331 -0.14178295 0.04889708 -0.008192665 0.4311231
0.016564202 0.17135692 -0.20022045 0.06826175 -0.49239248 -0.4301336 -0.112416044 -0.031396564
0.27811217 0.41548038 -0.41976365 -0.01487904 0.30861697 0.43661758 -0.26183888 0.2861412
0.05526792 0.11961217 0.4264047 -0.45558155 -0.400516 -0.22389066 -0.06911536 0.39426282
-0.33170125 -0.3026997 -0.24124841 -0.5795341 -0.32163522 0.3865425 0.19120857 0.43864313
-0.07542442 -0.29206923 0.16681586 -0.66962934 -0.2996722 -0.33368635 0.25184748 -0.08112718
-0.10285074 -0.084851205 0.09765588 0.21534432 0.13809118 0.18359879 0.38113317 -0.18469298
0.10955943 -0.32923096 -0.3601292 -0.008950461 0.2058737 0.3159423 -0.2772426 0.49290672
00000000: ada9 693d bda7 aa3e 63d8 ebbe 96c0 2fbe
00000010: 8d2f 11be 4e48 483d 873a 06bc 2bbc dc3e
00000020: a6b1 873c 3078 2f3e 9706 4dbe d1cc 8b3d
00000030: de1a fcbe 793a dcbe 623a e6bd af99 00bd
00000040: b864 8e3e d8b9 d43e 43eb d6be 38c7 73bc
00000050: 0b03 9e3e 578c df3e bf0f 86be 1981 923e
00000060: 9d60 623d 3af7 f43d b851 da3e fc41 e9be
00000070: 6f10 cdbe 9843 65be 5b8c 8dbd d1dc c93e
00000080: bfd4 a9be 75fb 9abe d309 77be 595c 14bf
00000090: 5fad a4be e6e8 c53e 2ecc 433e d595 e03e
000000a0: 1e78 9abd 198a 95be c7d1 2a3e d46c 2bbf
000000b0: a26e 99be f0d8 aabe 27f2 803e 0226 a6bd
000000c0: 69a3 d2bd 78c6 adbd ceff c73d 3983 5c3e
000000d0: c667 0d3e 5201 3c3e e323 c33e 2820 3dbe
000000e0: b260 e03d f690 a8be db62 b8be f4a4 12bc
000000f0: 8ed0 523e 30c3 a13e bef2 8dbe 455e fc3e

pi.mu_net.0.bias f4 [16]
0.26938966 -0.11826978 -0.0062379735 0.041275315 0.36411706 0.41320455 -0.3540357 -0.22304891
0.16522121 0.3695207 0.46538404 0.38181037 0.018788401 -0.2942058 0.04481625 -0.22778565
00000000: 71ed 893e 6d37 f2bd ea67 ccbb 4e10 293d
00000010: 8d6d ba3e 8c8f d33e 2b44 b5be ef66 64be
00000020: c02f 293e d131 bd3e d146 ee3e a67c c33e
00000030: 22ea 993c 25a2 96be 3f91 373d a440 69be

pi.mu_net.2.weight f4 [16, 16]
-0.08274599 0.23955287 0.33172634 -0.2603161 0.16426551 0.01581641 -0.15829964 -0.12884362
0.14042513 -0.19970883 0.0031728302 0.072263725 0.10908991 0.024406333 -0.1128594 -0.07774727
0.20916666 0.14262815 -0.13930804 -0.075557 0.21174267 0.08603625 -0.13516615 0.02042752
-0.16174197 0.018059542 -0.16667739 -0.17538337 0.003374821 -0.03160521 -0.075053506 0.1199888
-0.12787068 0.20164368 0.15264648 -0.19457105 -0.101778895 -0.04734394 0.08781226 0.07441939
0.12498839 0.029197892 -0.047720455 0.12923792 -0.23469856 -0.14508323 -0.08317443 -0.19226775
-0.045024507 -0.24214363 -0.0522013 0.065719835 -0.20155524 -0.072823584 0.23065105 -0.015825916
0.043502945 -0.014674596 0.12824023 0.15679468 0.22951013 0.15773416 0.23030406 -0.08247856
-0.20445378 -0.11721486 0.22010738 -0.02966329 -0.057539377 -0.1284012 -0.2922464 -0.24174803
-0.0707025 0.10082135 0.048066486 -0.27113366 0.11717938 -0.19559589 0.0028160952 -0.016565481
-0.019722285 -0.050534867 -0.23354137 -0.18307365 -0.086626135 -0.05019543 -0.08316472 0.12354457
-0.18400814 0.03091466 0.3118504 -0.06284546 0.25175583 0.060714416 -0.25367412 0.073976174
-0.02241259 -0.115634404 0.21440668 -0.23026167 0.09722478 0.032724485 0.10987676 0.03080962
0.08910306 0.08472727 -0.10598708 -0.054068413 -0.2215064 0.1235035 0.23043314 0.23369804
-0.15461044 0.0040792422 -0.16753976 -0.12517808 -0.18130045 0.04005435 -0.11813805 0.011600666
0.021826735 0.1786587 -0.13261011 -0.15608498 -0.14032462 0.16528645 -0.09896737 0.1596445
0.058250315 0.07647952 -0.00209838 -0.052890953 0.0545729 -0.015420273 -0.047489546 0.029366601
-0.21427234 -0.13480687 0.14497167 -0.196586 0.0006566862 0.23625061 0.0912036 0.057627503
-0.24145693 0.14615497 -0.16219652 -0.08032798 -0.055537995 -0.0002518672 -0.016670315 0.1974373
0.013087986 0.19967015 0.07776017 -0.17014752 0.09660091 -0.15493988 -0.08256449 0.13935333
0.09787693 0.17950779 -0.035019625 -0.03128427 0.19619073 -0.17902482 0.13466425 -0.24188165
-0.021409279 -0.084876604 -0.21967272 -0.0016169291 0.16238898 -0.06231999 -0.091085196 -0.0047761714
-0.21629441 0.08829547 -0.100455076 -0.15290244 -0.19590959 0.066911034 0.19810893 0.2147068
0.12767008 -0.10056719 -0.029695095 0.052779734 0.17951623 0.07957964 -0.11730239 -0.15315479
-0.26159635 0.09121105 -0.18469276 -0.16234182 0.13379058 -0.23344553 0.017908122 0.13417797
0.053526927 -0.10647251 -0.11375196 0.25677258 0.09809394 0.18366407 -0.14782497 -0.023207236
-0.058090046 -0.0051686503 -0.19588858 0.12239484 0.015726034 -0.068715796 -0.0155870635 -0.118178844
0.21111812 -0.13670808 0.2037307 -0.043288104 -0.0765713 0.02345908 -0.1840027 -0.039913014
0.038421948 -0.18100102 -0.0025429104 0.13575089 0.034255534 -0.090378635 -0.15827529 -0.0072572394
0.111884445 -0.04729487 0.18684007 0.20153664 -0.08789477 -0.008586911 0.048170026 -0.06968263
0.03263076 0.026028931 -0.15928157 -0.012879144 0.24216843 0.29651856 0.08815562 -0.0026758725
0.085646905 -0.15265661 -0.2848615 -0.24073249 0.21443191 0.16368142 -0.12396077 0.18047765
00000000: bb76 a9bd 594d 753e 09d8 a93e 2748 85be
00000010: 3835 283e 6a91 813c 4d19 22be 95ef 03be
00000020: 9bcb 0f3e 7980 4cbe 42ef 4f3b 01ff 933d
00000030: 886a df3d caef c73c d422 e7bd f639 9fbd
00000040: c92f 563e 1d0d 123e c4a6 0ebe a1bd 9abd
00000050: 12d3 583e c633 b03d ff68 0abe 9d57 a73c
00000060: b09f 25be 9bf1 933c 7aad 2abe b397 33be
00000070: 1a2c 5d3b 7774 01bd a7b5 99bd b0bc f53d
00000080: 88f0 02be ae7b 4e3e 5c4f 1c3e a23d 47be
00000090: 7471 d0bd b8eb 41bd ead6 b33d 3169 983d
000000a0: eaf9 ff3d 6b30 ef3c 8676 43bd f256 043e
000000b0: d254 70be b390 14be 5b57 aabd d6e1 44be
000000c0: 9e6b 38bd 80f4 77be 08d1 55bd 1f98 863d
000000d0: 7f64 4ebe 8824 95bd ca2f 6c3e 5aa5 81bc
000000e0: 2530 323d b76d 70bc 6851 033e c98e 203e
000000f0: b404 6b3e 1085 213e d4d4 6b3e 85ea a8bd
00000100: 555c 51be 580e f0bd d463 613e 6e00 f3bc
00000110: 69ae 6bbd 9b7b 03be 52a1 95be cc8c 77be
00000120: 79cc 90bd 6d7b ce3d 5de1 443d 08d2 8abe
00000130: befb ef3d 4a4a 48be 3d8e 383b 55b4 87bc
00000140: a190 a1bc a6fd 4ebd 7825 6fbe a977 3bbe
00000150: 0b69 b1bd b999 4dbd 4452 aabd ef04 fd3d
00000160: a16c 3cbe be40 fd3c dbaa 9f3e 1fb5 80bd
00000170: 24e6 803e aeaf 783d 93e1 81be d280 973d
00000180: 9c9a b7bc bbd1 ecbd 6d8d 5b3e b7c9 6bbe
00000190: c91d c73d 1c0a 063d 1107 e13d 7564 fc3c
000001a0: aa7b b63d 7e85 ad3d c10f d9bd d776 5dbd
000001b0: 93d2 62be 67ef fc3d aaf6 6b3e 8a4e 6f3e
000001c0: 3352 1ebe 2aab 853b 8b8f 2bbe af2e 00be
000001d0: d3a6 39be 0810 243d 5df2 f1bd b810 3e3c
000001e0: fbcd b23c 4ef2 363e f2ca 07be bed4 1fbe
000001f0: 42b1 0fbe da40 293e 68af cabd d979 233e
00000200: e297 6e3d 4ba1 9c3d f984 09bb 2fa4 58bd
00000210: d587 5f3d 50a5 7cbc 6684 42bd 3a92 f03c
00000220: 356a 5bbe d00a 0abe 7473 143e d74d 49be
00000230: 7725 2c3a aeeb 713e f4c8 ba3d d10a 6c3d
00000240: 7c40 77be a6a9 153e d816 26be ff82 a4bd
00000250: cf7b 63bd 0b0d 84b9 2f90 88bc 012d 4a3e
00000260: fe6e 563c 5576 4c3e b940 9f3d 273b 2ebe
00000270: b3d6 c53d 8fa8 1ebe 9217 a9bd a4b2 0e3e
00000280: b373 c83d e4d0 373e bd70 0fbd ef23 00bd
00000290: 39e6 483e 4852 37be 6de5 093e d3af 77be
000002a0: 8362 afbc c9d3 adbd e3f1 60be 23ef d3ba
000002b0: 4c49 263e 3f43 7fbd e08a babd 6e81 9cbb
000002c0: 487c 5dbe 41d4 b43d 64bb cdbd 7592 1cbe
000002d0: 869c 48be a708 893d 11dd 4a3e 19dc 5b3e
000002e0: f2bb 023e 2cf6 cdbd 2143 f3bc 902f 583d
000002f0: 1ad3 373e a6fa a23d 3c3c f0bd 9cd4 1cbe
00000300: f5ef 85be dccc ba3d 1920 3dbe ef3c 26be
00000310: 6600 093e 580c 6fbe 0eb4 923c f365 093e
00000320: 0d3f 5b3d 420e dabd caf6 e8bd b277 833e
00000330: 7ae5 c83d 6f12 3c3e 6e5f 17be 1a1d bebc
00000340: d4ef 6dbd c85d a9bb 0497 48be 25aa fa3d
00000350: e2d3 803c deba 8cbd e260 7fbc c007 f2bd
00000360: 592f 583e 34fd 0bbe c89e 503e de4e 31bd
00000370: 6ad1 9cbd 422d c03c 346b 3cbe d47b 23bd
00000380: 5560 1d3d 5558 39be f5a6 26bb 4802 0b3e
00000390: 884f 0c3d 6f18 b9bd eb12 22be 23ce edbb
000003a0: ac23 e53d 44b8 41bd 0153 3f3e 9f5f 4e3e
000003b0: 2c02 b4bd 1db0 0cbc ef4d 453d c4b5 8ebd
000003c0: d5a7 053d a03a d53c b51a 23be 0c03 53bc
000003d0: 00fb 773e 48d1 973e ef8a b43d b15d 2fbb
000003e0: a567 af3d 0452 1cbe 5ed9 91be 9482 76be
000003f0: 0a94 5b3e 1a9c 273e 25df fdbd 22cf 383e

pi.mu_net.2.bias f4 [16]
0.14192767 0.25016454 0.24257323 0.21843125 -0.097683854 -0.030738084 0.2052927 0.17051458
-0.17148775 0.18949203 0.07861523 0.12904905 -0.102423586 0.123989835 -0.042733353 0.16470844
00000000: 7d55 113e 9115 803e 1e65 783e 71ac 5f3e
00000010: 790e c8bd 6fce fbbc 4038 523e 609b 2e3e
00000020: 7c9a 2fbe 330a 423e 0601 a13d 6f25 043e
00000030: 75c3 d1bd 62ee fd3d 2b09 2fbd 54a9 283e

pi.mu_net.4.weight f4 [1, 16]
0.014494469 0.02221328 0.0767029 0.16122301 -0.04409788 0.09130998 -0.17206521 0.0011205333
-0.17911658 -0.14865987 -0.087185696 0.21451448 0.06149981 0.24877943 0.14397743 -0.27013734
00000000: 367a 6d3c a0f8 b53c 6916 9d3d a517 253e
00000010: fb9f 34bd ba00 bb3d dd31 30be dcde 923a
00000020: 566a 37be 4b3a 18be 6a8e b2bd afa9 5b3e
00000030: 3ae7 7b3d 09c0 7e3e d26e 133e 714f 8abe

v.v_net.0.weight f4 [16, 4]
0.8426541 0.22592543 0.278239 -0.6660353 -0.8883961 -0.9872785 -0.031255502 0.8143212
0.87251437 1.0487067 0.37183228 0.15937623 0.91070336 0.70021456 0.29600307 -0.035405498
-0.6576662 -0.351737 0.6287016 0.27971795 0.84725857 0.74289286 -0.22814044 -0.6345791
-0.823755 -1.0157092 0.43104848 0.7104155 -0.7752832 -0.8884917 0.4998354 0.6911679
-0.7461278 -0.82601166 0.5703908 0.5761899 0.87728953 1.2423601 0.2784956 -0.36705095
0.8197673 0.30820477 -0.2611107 0.04137925 -0.8744972 -0.82007414 0.13800715 0.27663404
0.88306844 0.5153141 0.08101088 -0.27392173 0.7442841 0.6941201 0.23181936 0.10682822
0.6474747 0.63694876 -0.42833737 -0.5126453 0.91863877 0.54678243 -0.04050951 -0.010732561
00000000: 2eb8 573f ff58 673e 5875 8e3e 4a81 2abf
00000010: ed6d 63bf 49be 7cbf c505 00bd 5b77 503f
00000020: 1a5d 5f3f 053c 863f cd60 be3e 8633 233e
00000030: db23 693f 4341 333f b78d 973e 5b05 11bd
00000040: d05c 28bf df16 b4be 97f2 203f 3137 8f3e
00000050: f0e5 583f 3a2e 3e3f a69d 69be c773 22bf
00000060: 9ce1 52bf c202 82bf 63b2 dc3e cadd 353f
00000070: f678 46bf 3174 63bf 6dea ff3e 61f0 303f
00000080: 3b02 3fbf 8075 53bf 2205 123f 2e81 133f
00000090: 0c96 603f a805 9f3f fa96 8e3e 1aee bbbe
000000a0: 45dc 513f 04cd 9d3e 4db0 85be 4a7d 293d
000000b0: 0cdf 5fbf 61f0 51bf bf51 0d3e faa2 8d3e
000000c0: c610 623f a0eb 033f 08e9 a53d 783f 8cbe
000000d0: 6789 3e3f dbb1 313f 0e62 6d3e c1c8 da3d
000000e0: e7c0 253f 130f 233f 094f dbbe b93c 03bf
000000f0: e92b 6b3f eff9 0b3f 4ded 25bd a0d7 2fbc

v.v_net.0.bias f4 [16]
0.45354196 -0.70306706 0.38115445 0.4647363 -0.86645156 0.7876502 -0.9530437 -0.95165485
-0.9591043 0.526524 0.7989913 -0.8262226 0.76048994 0.3499035 0.76161385 0.7019843
00000000: a736 e83e 34fc 33bf ad26 c33e ebf1 ed3e
00000010: c5cf 5dbf 72a3 493f acfa 73bf a79f 73bf
00000020: dc87 75bf 47ca 063f b28a 4c3f 5383 53bf
00000030: 78af 423f 8d26 b33e 20f9 423f 3eb5 333f

v.v_net.2.weight f4 [16, 16]
0.3826532 -1.0956295 0.7382193 0.6147082 -1.1764143 2.481952 -1.6317621 -1.5641106
-1.3853036 0.41937196 1.531644 -1.2371116 0.3886344 0.41740307 1.3732516 1.8961076
0.75624627 -1.0928547 0.48098534 0.20891887 -1.2738467 2.8537896 -1.4273729 -1.2760003
-1.3356638 0.875963 1.4978188 -1.1776005 0.6401504 0.3821389 1.9396824 1.6875404
0.45199934 -1.4580694 0.8021419 0.33969516 -0.95211786 2.914839 -1.6671259 -1.5007737
-1.5154327 0.52777106 1.6150905 -0.8039863 0.22179998 0.5537162 1.5074795 1.687982
0.4756457 -1.1007553 0.84450686 0.19754796 -1.0135776 2.8728611 -1.6551063 -1.3198966
-1.579242 0.7592097 1.7353208 -1.1202718 0.63703 0.36280507 1.7514381 1.6429521
-0.6695003 1.3603257 -0.45001647 -0.56500053 1.2236334 -2.5425856 1.7032655 1.5457357
1.319863 -0.63685995 -1.7757115 0.9176996 -0.7302361 -0.20039675 -1.6190319 -1.8032376
-0.6014022 1.3831996 -0.28636298 -0.5167541 0.8914841 -2.9068706 1.7307298 1.4037436
1.2138132 -0.6969804 -1.5688812 0.86509436 -0.40752098 -0.45645237 -1.859172 -1.7066007
0.7366739 -1.4164356 0.56754124 0.2707408 -0.90900844 2.5356145 -2.0346484 -1.2843188
-1.5985712 0.6716206 1.6228012 -1.0900292 0.46694866 0.54740036 1.7284868 1.5003605
-0.5483146 0.60978544 -0.43543655 -0.43601397 0.96764594 -2.2011766 1.4510199 1.306965
1.1658791 -0.23979947 -1.0921259 0.573466 -0.5328277 -0.34822783 -1.016186 -1.7242317
0.34787977 -1.2408452 0.82722694 0.3926422 -1.3174366 2.590363 -1.7476553 -1.5400993
-1.5395161 0.75381684 1.7885908 -0.92797786 0.8293616 0.4148225 1.3842688 1.4598911
0.85640806 -1.1618006 0.8248953 0.16660531 -0.94935244 2.901118 -1.5794023 -1.7163897
-1.5457346 0.3845968 1.7685189 -0.99002874 0.2704745 0.47276685 1.3119143 1.8776811
-0.5230051 1.142256 -0.8016251 -0.28265104 0.87178826 -2.5804648 1.8838949 1.4834973
1.2908953 -0.5180756 -1.5673441 0.99132574 -0.44450402 -0.39653298 -1.6330428 -1.7687609
-0.7054918 1.4414643 -0.574312 -0.48865455 1.273768 -2.4870083 1.8143725 1.6029855
1.4604484 -0.41700405 -1.6392674 0.8503164 -0.64191216 -0.48287755 -1.4300992 -1.832447
-0.55121326 1.2815709 -0.58681613 -0.496261 1.406352 -2.814967 1.8823166 1.2518648
1.294509 -0.59345216 -1.6990311 1.146377 -0.5952373 -0.70010215 -2.0237038 -1.592257
0.7520357 -1.3342537 0.7861456 0.26363012 -1.0885031 2.852863 -1.9667114 -1.4359871
-1.1609087 0.43483898 1.7269402 -0.95637935 0.5834007 0.039552115 1.3122464 1.7914981
-0.42891404 1.1743447 -0.37037158 -0.4600778 0.9223911 -2.5089827 1.6040565 1.5772932
1.0848713 -0.6569995 -1.7076533 1.245482 -0.55542374 -0.47547936 -1.7370994 -1.6348857
0.6318647 -1.0667151 0.5296931 0.51098645 -0.84555507 2.777643 -1.9687167 -1.2599783
-1.5428655 0.6404748 1.676803 -1.0879017 0.52133304 0.14840934 1.5502243 1.9041212
00000000: 1feb c33e 963d 8cbf f1fb 3c3f 845d 1d3f
00000010: be94 96bf 4dd8 1e40 95dd d0bf c734 c8bf
00000020: a151 b1bf ecb7 d63e e90c c43f ac59 9ebf
00000030: 17fb c63e dbb5 d53e b5c6 af3f a7b3 f23f
00000040: 5b99 413f aae2 8bbf b643 f63e d4ee 553e
00000050: 690d a3bf 7da4 3640 28b4 b6bf fa53 a3bf
00000060: 08f7 aabf 1c3f 603f 87b8 bf3f 9dbb 96bf
00000070: e6e0 233f b6a7 c33e 8347 f83f 5301 d83f
00000080: 756c e73e 05a2 babf 2c59 4d3f 86ec ad3e
00000090: ffbd 73bf b98c 3a40 6264 d5bf 5a19 c0bf
000000a0: b3f9 c1bf 011c 073f 49bb ce3f 0cd2 4dbf
000000b0: 891f 633e 58c0 0d3f 17f5 c03f cb0f d83f
000000c0: d587 f33e 8de5 8cbf 9a31 583f 034a 4a3e
000000d0: e9bc 81bf f5dc 3740 86da d3bf 5ff2 a8bf
000000e0: 9a24 cabf 915b 423f fe1e de3f 1165 8fbf
000000f0: 6614 233f 96c1 b93e 202f e03f 414c d23f
00000100: 5f64 2bbf 271f ae3f 8f68 e6be e0a3 10bf
00000110: 05a0 9c3f b9b9 22c0 9b04 da3f abda c53f
00000120: 45f1 a83f 4109 23bf 844a e3bf 5cee 6a3f
00000130: c1f0 3abf ce34 4dbe 703c cfbf 7dd0 e6bf
00000140: 7ff5 19bf af0c b13f 2b9e 92be ff49 04bf
00000150: 4d38 643f 2b0a 3ac0 8e88 dd3f dfad b33f
00000160: 3b5e 9b3f 4f6d 32bf 19d1 c8bf d376 5d3f
00000170: 97a6 d0be 20b4 e9be 59f9 edbf e471 dabf
00000180: a996 3c3f c34d b5bf 624a 113f 8a9e 8a3e
00000190: c7b4 68bf 8247 2240 ae37 02c0 8f64 a4bf
000001a0: fb9d ccbf 54ef 2b3f f3b7 cf3f 1486 8bbf
000001b0: e513 ef3e 6e22 0c3f 0e3f dd3f d00b c03f
000001c0: 585e 0cbf e61a 1c3f 8af1 debe 393d dfbe
000001d0: a5b7 773f 14e0 0cc0 05bb b93f a14a a73f
000001e0: 873b 953f fe8d 75be c8ca 8bbf abce 123f
000001f0: 6567 08bf eb4a b2be 6212 82bf a0b3 dcbf
00000200: 4c1d b23e 04d4 9ebf 25c5 533f 6608 c93e
00000210: c3a1 a8bf 82c8 2540 2bb3 dfbf f921 c5bf
00000220: dd0e c5bf 24fa 403f 8bf0 e43f f58f 6dbf
00000230: 0b51 543f 9d63 d43e b82f b13f b6dd ba3f
00000240: 8f3d 5b3f e2b5 94bf 572c 533f 959a 2a3e
00000250: c308 73bf ebab 3940 db29 cabf a8b2 dbbf
00000260: a2da c5bf dfe9 c43e d45e e23f 8672 7dbf
00000270: a27b 8a3e 7f0e f23e cfec a73f db57 f03f
00000280: aae3 05bf 7235 923f 4d37 4dbf a3b7 90be
00000290: 842d 5f3f 5626 25c0 7823 f13f 3de3 bd3f
000002a0: 0f3c a53f 9aa0 04bf bb9e c8bf 86c7 7d3f
000002b0: 0896 e3be 5f06 cbbe 8c07 d1bf c266 e2bf
000002c0: 1c9b 34bf e781 b83f 1c06 13bf ee30 fabe
000002d0: d40a a33f 252b 1fc0 5c3d e83f a12e cd3f
000002e0: f9ef ba3f 8e81 d5be 84d3 d1bf 56ae 593f
000002f0: 5b54 24bf ba3b f7be 7e0d b7bf a08d eabf
00000300: 501c 0dbf 840a a43f 9539 16bf ec15 febe
00000310: 5803 b43f 6b28 34c0 c0ef f03f 1b3d a03f
00000320: 79b2 a53f 7bec 17bf da79 d9bf 7bbc 923f
00000330: 7961 18bf e539 33bf 5d84 01c0 14cf cbbf
00000340: 6985 403f d3c8 aabf d740 493f 87fa 863e
00000350: 1254 8bbf 4f95 3640 33bd fbbf 6dce b7bf
00000360: a898 94bf 37a3 de3e 600c dd3f 47d5 74bf
00000370: c059 153f 6601 223d b1f7 a73f cf4f e53f
00000380: 9f9a dbbe ed50 963f 58a1 bdbe 518f ebbe
00000390: d321 6c3f 2c93 20c0 b951 cd3f bee4 c93f
000003a0: 10dd 8a3f 1f31 28bf 6294 dabf f46b 9f3f
000003b0: 4030 0ebf 0872 f3be 4659 debf ef43 d1bf
000003c0: e3c1 213f 1f8a 88bf f899 073f 02d0 023f
000003d0: 4c76 58bf e7c4 3140 e9fe fbbf f846 a1bf
000003e0: 9e7c c5bf 28f6 233f 7ba1 d63f 5d40 8bbf
000003f0: 1576 053f 9ef8 173e c06d c63f 3eba f33f

v.v_net.2.bias f4 [16]
0.2740114 0.20034432 0.33622137 0.19886373 -0.1999233 -0.25519332 0.21242173 -0.37704483
0.16246663 0.3453373 -0.26800287 -0.24794382 -0.18158866 0.2819507 -0.14979637 0.2412227
00000000: 394b 8c3e 1027 4d3e 3525 ac3e efa2 4b3e
00000010: b2b8 4cbe b3a8 82be 1585 593e 050c c1be
00000020: a75d 263e 0dd0 b03e ac37 89be fce4 7dbe
00000030: 61f2 39be d85b 903e 3864 19be 1503 773e

v.v_net.4.weight f4 [1, 16]
-7.8331323 -7.6812778 -7.7625995 -7.714403 7.6793656 7.859086 -7.8119597 7.649483
-7.6943884 -7.6122003 7.762781 7.6024265 7.558183 -7.682803 7.814057 -7.5649204
00000000: 05a9 fac0 07cd f5c0 3767 f8c0 64dc f6c0
00000010: 5dbd f540 a27d fb40 93fb f9c0 91c8 f440
00000020: 6e38 f6c0 2597 f3c0 b468 f840 1447 f340
00000030: a3dc f140 86d9 f5c0 c10c fa40 d413 f2c0

exp_avg f4 [16, 4]
-0.0041117575 0.00026947222 -0.008525547 0.00041842612 -0.0048170746 0.0003571232 -0.005972585 0.0009914027
-0.0025223051 0.00036463738 -0.0089976955 0.00078441494 -0.0006945848 -0.00044161014 0.0011504572 -0.001285811
0.00946184 0.0007719411 -0.012996049 0.0012037464 0.011712195 0.0005236272 -0.004720781 0.0010359026
0.0049635894 -4.1209645e-05 0.003841118 -2.7545208e-05 -0.0047900854 -0.00019025132 0.0015979125 -0.00034795786
0.009611656 -0.0006925626 0.0084085185 -0.0019824293 -0.010380432 0.00021927778 -0.005937247 0.00062807143
0.01177577 -0.000939731 0.017002182 -0.0023958697 0.045058664 -0.0012259812 0.02602713 -0.0034468772
-0.0024373578 3.6115278e-05 0.0013788954 0.00029072838 -0.0025498548 0.00012566173 -3.209026e-05 0.00045700418
-0.0037783044 0.0003425142 -0.008826701 0.0006773746 -0.024065105 0.0011131549 -0.022073615 0.0027824666
00000000: ecbb 86bb f347 8d39 bcae 0bbc 3460 db39
00000010: 8dd8 9dbb 443c bb39 adb5 c3bb f4f1 813a
00000020: 424d 25bb cd2c bf39 126b 13bc 32a1 4d3a
00000030: cc14 36ba e987 e7b9 f0ca 963a a888 a8ba
00000040: d505 1b3c 175c 4a3a 61ed 54bc 07c7 9d3a
00000050: 82e4 3f3c 0744 093a c8b0 9abb 20c7 873a
00000060: 9ba5 a23b 85d8 2cb8 44bb 7b3b e210 e7b7
00000070: 26f6 9cbb 337e 47b9 0c71 d13a 1d6e b6b9
00000080: 357a 1d3c 178d 35ba e2c3 093c a5eb 01bb
00000090: b012 2abc eeed 6539 3d8d c2bb 29a5 243a
000000a0: 29ef 403c 4858 76ba 2948 8b3c 0604 1dbb
000000b0: 6f8f 383d 1ab1 a0ba d936 d53c 01e5 61bb
000000c0: 14bc 1fbb 7c7a 1738 0dbc b43a e76c 9839
000000d0: 771b 27bb 10c4 0339 a898 06b8 109a ef39
000000e0: 6e9d 77bb 7a93 b339 de9d 10bc d791 313a
000000f0: 2f24 c5bc 48e7 913a bad3 b4bc 0b5a 363b

exp_avg_sq f4 [16, 4]
0.0014738465 6.7013144e-07 0.0003399958 2.8776625e-05 0.0002623909 8.207921e-08 7.521471e-05 2.8321656e-06
0.0016400885 6.919082e-07 0.000505819 2.9096745e-05 0.00032631666 2.4827796e-07 0.0002273077 7.3601955e-06
0.0032933461 1.7266774e-06 0.0009583897 6.302005e-05 0.0013585149 7.052768e-07 0.0007163506 2.5967125e-05
0.00029900245 1.0523882e-07 6.285795e-05 5.1769393e-06 0.00046079746 2.895947e-07 0.00021926935 9.874763e-06
0.0010381006 6.0727893e-07 0.00045383177 1.6862514e-05 0.00019072945 6.024103e-08 1.9858737e-05 2.3188006e-06
0.0026539525 1.1785443e-06 0.00071991474 4.404883e-05 0.004587614 2.1550886e-06 0.00057798444 5.9030306e-05
6.221774e-05 3.4547405e-08 1.2248653e-05 1.4237195e-06 0.00026189932 1.003286e-07 7.594608e-05 4.9123764e-06
0.0012310953 5.688653e-07 0.000291332 2.1258282e-05 0.003697871 1.7856349e-06 0.000697695 5.485271e-05
00000000: 152e c13a 15e3 3335 7741 b239 5565 f137
00000010: 8391 8939 8643 b033 97bc 9d38 3c10 3e36
00000020: 3df8 d63a 92bb 3935 f098 043a c914 f437
00000030: 7b15 ab39 104b 8534 7259 6e39 99f7 f636
00000040: 2ed5 573b 2fc0 e735 723c 7b3a a229 8438
00000050: 3210 b23a 4152 3d35 7ac9 3b3a fad3 d937
00000060: 6ec3 9c39 a7ff e133 9bd2 8338 92b5 ad36
00000070: 3097 f139 9879 9b34 abeb 6539 c9ab 2537
00000080: e010 883a e403 2335 45f0 ed39 f973 8d37
00000090: 8cfe 4739 db5d 8133 5096 a637 b19c 1b36
000000a0: efed 2d3b 792e 9e35 a9b8 3c3a 12c1 3838
000000b0: b253 963b 24a0 1036 e183 173a 4f97 7738
000000c0: e57a 8238 4661 1433 907f 4d37 a116 bf35
000000d0: 884f 8939 3b74 d733 3e45 9f38 fed4 a436
000000e0: b45c a13a 20b4 1835 ebbd 9839 d053 b237
000000f0: fb57 723b f3a9 ef35 85e5 363a a611 6638

exp_avg f4 [16]
-0.00441403 0.0011745716 -0.00400289 -0.010062105 0.00033709937 0.0029741167 0.003144649 -0.0022349434
-0.008062125 -0.0002780779 -0.0025755507 -0.0070982524 0.0026596405 0.0033396347 -0.0031213118 0.0037844866
00000000: 91a3 90bb 15f4 993a ad2a 83bb 87db 24bc
00000010: b6bc b039 66e9 423b 7516 4e3b 2178 12bb
00000020: 0117 04bc fcca 91b9 92ca 28bb 7598 e8bb
00000030: 5d4d 2e3b c6dd 5a3b ec8e 4cbb 2605 783b

exp_avg_sq f4 [16]
0.0010870458 0.00012524103 0.0011351788 0.00035778736 0.0026551958 0.0011004462 0.00018628659 0.00043488754
0.000922887 0.00010162709 0.0018510426 0.0032511016 5.5061395e-05 0.00017535583 0.00090957526 0.0027216964
00000000: 347b 8e3a 2253 0339 48ca 943a 6895 bb39
00000010: cb02 2e3b d93c 903a ed55 4339 9e01 e439
00000020: e6ed 713a a120 d538 af9e f23a 6f10 553b
00000030: b9f1 6638 b9df 3739 9070 6e3a 7d5e 323b

exp_avg f4 [16, 16]
-0.00048589765 -0.00012446336 -0.00028987316 -3.982945e-05 -0.0005195475 -0.00047152347 0.0004845274 0.0002424172
-0.00023419272 -0.00021273275 0.00044866785 0.00012019018 8.059579e-05 0.0004970783 -0.00044315812 -0.00043670944
-0.000680307 -7.483922e-05 -0.00039981728 0.00021714863 -0.0008618323 -0.0008077199 0.00059372804 0.0005733365
-0.00011962537 -0.00012991104 0.0006579352 0.0003134426 0.00017884708 0.00056961545 -0.0006638923 -0.00071062375
-0.0030228763 -0.0016223708 -0.0017526258 -0.0031102858 -0.0018361983 -0.0013712079 0.0038625952 -0.00098794
-0.0037066562 -0.0030120155 0.0019859853 -0.0009534515 -0.00017471559 0.004344227 -0.0021479346 -0.00133681
-0.0069514783 -0.0027974166 -0.004000788 -0.004852227 -0.0051785903 -0.004018976 0.008042808 -0.0006498626
-0.0068428866 -0.004835831 0.004848675 -0.0005656403 0.00027647286 0.008798606 -0.0053490913 -0.0039630076
0.0016608014 0.0007352702 0.0010194749 0.0010351264 0.0013210301 0.0010811532 -0.0018889342 -3.099948e-05
0.0015076449 0.0011813994 -0.0014665136 3.7474674e-06 -8.635419e-05 -0.0020810636 0.001384486 0.0011825658
-0.0037796223 -0.0012976498 -0.0022727498 -0.0016143114 -0.0032809698 -0.0026638436 0.0040063225 0.0005035306
-0.002911641 -0.0018819463 0.0032576635 0.0005183894 0.00043267405 0.0043114023 -0.0032361918 -0.0028687594
0.007072182 0.0010439054 0.0034318424 0.00066144706 0.007741903 0.007388533 -0.007627232 -0.0035830373
0.0035064565 0.004315868 -0.0032046402 0.00031540927 -0.00077468716 -0.00742793 0.0053506135 0.0041197576
-7.190542e-05 -2.966307e-05 -4.6735302e-05 -3.1927437e-05 -6.187508e-05 -5.0024108e-05 7.579524e-05 9.656112e-06
-5.5926328e-05 -3.6765345e-05 7.610806e-05 1.5813004e-05 8.760711e-06 8.308702e-05 -6.564937e-05 -6.342583e-05
0.006804423 0.0047147325 0.0037662522 0.010357436 0.002687024 0.0017399772 -0.009966845 0.0047536474
0.010869047 0.009762242 -0.0030970047 0.0048793545 0.0014159514 -0.011466103 0.0039410316 0.0010769991
0.0059621483 0.0028206587 0.0034163077 0.005125655 0.004111915 0.0032527058 -0.007343367 0.0011087963
0.0065345895 0.005331776 -0.003945202 0.0013807524 0.000115283765 -0.008119601 0.0043713227 0.00295706
0.0032570367 0.0013493873 0.0019193584 0.0019077274 0.0026964156 0.002304871 -0.0037575518 -0.00023236859
0.0028449302 0.0024811549 -0.0025755463 0.00020541268 -0.00013383376 -0.004074277 0.0026265492 0.002153523
-0.008563166 -0.003281917 -0.005302316 -0.0046604658 -0.006881157 -0.005240503 0.009088989 0.00015965267
-0.0074647972 -0.0042243656 0.007791776 0.0012004428 0.0009369381 0.010036375 -0.0073616076 -0.0064730654
-0.0018446324 -0.00083707814 -0.0013288368 -0.0007595552 -0.0015692305 -0.0011714048 0.0017609488 0.00026780937
-0.0013966893 -0.00058462523 0.0025262393 0.00082422304 0.0003317265 0.0020278026 -0.0018888076 -0.0020226075
-0.009361332 -0.0044623436 -0.005582335 -0.0072725723 -0.0068132533 -0.0054856357 0.011209602 -0.000978151
-0.009610105 -0.007860364 0.0072951154 -0.0013069168 4.9115566e-05 0.012427745 -0.0073083905 -0.0055960366
-0.005338098 -0.0028388915 -0.0030679419 -0.005126674 -0.0035138673 -0.0028652756 0.0068432074 -0.0012037763
-0.0061857533 -0.005640403 0.0035169376 -0.0018050381 -0.00034230936 0.007628477 -0.0038181818 -0.0024561142
0.012143552 0.0023624124 0.0054178815 0.004131467 0.012019635 0.011547657 -0.014382417 -0.0037927555
0.008322769 0.010244729 -0.0029304372 0.0036297315 -0.0003229773 -0.014251466 0.007963728 0.0044633793
00000000: 14c0 feb9 6182 02b9 1efa 97b9 8c0e 27b8
00000010: 3e32 08ba cf36 f7b9 2b08 fe39 5f31 7e39
00000020: a191 75b9 0311 5fb9 2e3b eb39 9d0e fc38
00000030: 8905 a938 5c4e 023a ad57 e8b9 26f6 e4b9
00000040: a156 32ba 00f3 9cb8 919e d1b9 64b2 6339
00000050: 96ec 61ba 2abd 53ba 6aa4 1b3a f64b 163a
00000060: 62df fab8 bb38 08b9 4979 2c3a 8e55 a439
00000070: e688 3b39 3f52 153a 0f09 2eba 2749 3aba
00000080: 731b 46bb bba5 d4ba 5db8 e5ba f0d5 4bbb
00000090: 97ac f0ba 1aba b3ba 9823 7d3b c47d 81ba
000000a0: 5feb 72bb 3c65 45bb 4e27 023b 0cf1 79ba
000000b0: dc33 37b9 045a 8e3b 5dc4 0cbb e637 afba
000000c0: 3ac9 e3bb dd54 37bb 0b19 83bb 6eff 9ebb
000000d0: 2ab1 a9bb 9db1 83bb fbc5 033c 8a5b 2aba
000000e0: 4b3a e0bb e475 9ebb a2e1 9e3b 7a47 14ba
000000f0: 8ff3 9039 0728 103c 6e47 afbb 1edc 81bb
00000100: 3faf d93a 26bf 403a e79f 853a 14ad 873a
00000110: 6a26 ad3a 7bb5 8d3a 1d96 f7ba 7005 02b8
00000120: 2b9c c53a 30d9 9a3a 0838 c0ba 007d 7b36
00000130: 0e19 b5b8 7462 08bb a477 b53a 5300 9b3a
00000140: 8ab3 77bb e715 aaba 6af2 14bb 4d97 d3ba
00000150: 8a05 57bb e193 2ebb 7847 833b 5eff 033a
00000160: 3bd1 3ebb a4ab f6ba 867e 553b 86e4 073a
00000170: 87d8 e239 aa46 8d3b 4a16 54bb cc01 3cbb
00000180: c3bd e73b a7d3 883a c3e8 603b f664 2d3a
00000190: caaf fd3b 821b f23b dced f9bb 64d1 6abb
000001a0: 94cc 653b 206c 8d3b f104 52bb 845d a539
000001b0: 6014 4bba fe65 f3bb 3354 af3b 08ff 863b
000001c0: eecb 96b8 f5d4 f8b7 a605 44b8 d3e9 05b8
000001d0: eec2 81b8 fad0 51b8 42f4 9e38 af00 2237
000001e0: 7092 6ab8 7d34 1ab8 349c 9f38 2ba6 8437
000001f0: f8fa 1237 013f ae38 3dad 89b8 7c03 85b8
00000200: a3f7 de3b 0b7e 9a3b 3ad3 763b 3cb2 293c
00000210: c818 303b f20f e43a fa4b 23bc 7cc4 9b3b
00000220: 1614 323c d0f1 1f3c 1ef7 4abb fee2 9f3b
00000230: 7297 b93a 52dc 3bbc c523 813b 182a 8d3a
00000240: 205e c33b cdda 383b 22e4 5f3b 1cf5 a73b
00000250: 3ebd 863b 592b 553b a1a0 f0bb 0855 913a
00000260: 1c20 d63b 2eb6 ae3b c146 81bb 5dfa b43a
00000270: 80c4 f138 1308 05bc 503d 8f3b 3ccb 413b
00000280: 0274 553b eddd b03a fb92 fb3a b60c fa3a
00000290: 59b6 303b 520d 173b 4241 76bb f8a7 73b9
000002a0: 0272 3a3b df9a 223b 7fca 28bb 0c64 5739
000002b0: ba55 0cb9 8381 85bb 2f22 2c3b 1f22 0d3b
000002c0: 854c 0cbc 6e15 57bb 0dbf adbb d2b6 98bb
000002d0: 547b e1bb 86b8 abbb fce9 143c 7068 2739
000002e0: 429b f4bb 8c6c 8abb 2852 ff3b 2d58 9d3a
000002f0: da9c 753a 9c6f 243c a439 f1bb 021c d4bb
00000300: 98c7 f1ba 5d6f 5bba 5d2c aeba e31c 47ba
00000310: a3ae cdba d389 99ba a3cf e63a c468 8c39
00000320: 1e11 b7ba 8941 19ba 438f 253b ac10 583a
00000330: 94eb ad39 e2e4 043b de91 f7ba b98d 04bb
00000340: 4660 19bc da38 92bb 05ec b6bb c24e eebb
00000350: b641 dfbb d9c0 b3bb 7aa8 373c 4d35 80ba
00000360: b473 1dbc c2c8 00bc dd0b ef3b da4c abba
00000370: 7001 4e38 be9d 4b3c 397b efbb f55e b7bb
00000380: 36eb aebb b20c 3abb 860f 49bb a9fd a7bb
00000390: e948 66bb 59c7 3bbb fc3c e03b 08c8 9dba
000003a0: dcb1 cabb 21d3 b8bb 6c7c 663b 0797 ecba
000003b0: fc77 b3b9 4ef8 f93b 763a 7abb c2f6 20bb
000003c0: c0f5 463c b4d2 1a3b 7c88 b13b 4261 873b
000003d0: 01ee 443c 6232 3d3c 3ba4 6bbc e18f 78bb
000003e0: 395c 083c 82d9 273c 940c 40bb cae0 6d3b
000003f0: 4855 a9b9 fb7e 69bc 4c7a 023c 8a41 923b

exp_avg_sq f4 [16, 16]
1.3769702e-06 4.4007635e-07 3.9468117e-07 3.9615293e-06 2.7960837e-06 2.410978e-06 1.1860442e-06 2.530033e-06
2.0477517e-06 4.898209e-06 2.7856167e-06 4.7041945e-06 1.2160915e-06 1.0606179e-06 1.4965398e-06 2.775965e-06
3.3459116e-06 9.684302e-07 9.19022e-07 9.946855e-06 6.2643294e-06 5.408582e-06 3.4863897e-06 5.7638254e-06
5.6202193e-06 1.3627114e-05 7.908674e-06 1.32726145e-05 3.1571326e-06 3.2744338e-06 3.5627925e-06 7.5216844e-06
5.8115747e-05 2.2103817e-05 1.3647024e-05 0.00015593885 0.00014045095 0.0001497795 5.2235275e-05 0.00013380285
7.569583e-05 0.00015765712 0.00011776146 0.00014732314 3.0920302e-05 3.5509795e-05 4.9718903e-05 8.6948945e-05
0.0001927081 8.989734e-05 3.700366e-05 0.0006233566 0.0005193357 0.0005949078 0.0002049146 0.00054126873
0.00031264414 0.0005577621 0.0004326371 0.0005098602 9.811914e-05 0.00014336802 0.00014486864 0.00028710807
3.614629e-05 1.13191645e-05 9.997975e-06 8.749956e-05 7.803172e-05 7.782158e-05 3.0438181e-05 7.012975e-05
4.353946e-05 0.00010641396 7.54245e-05 0.00010116375 2.205845e-05 2.1878635e-05 3.5023506e-05 6.06156e-05
0.000101531405 3.8248414e-05 2.4536292e-05 0.00028485552 0.00024075562 0.0002497281 9.368892e-05 0.00022803133
0.00014065206 0.00030778244 0.00021792566 0.00028808013 5.8060847e-05 6.864862e-05 9.109822e-05 0.00016902365
0.00030387778 9.149327e-05 8.09504e-05 0.000751573 0.00064013514 0.0006344855 0.00027609913 0.00057200703
0.00038327824 0.0009475834 0.00065387913 0.0009001496 0.00018545722 0.0002081556 0.00028857135 0.0005296684
4.2240813e-06 1.2406175e-06 1.196491e-06 9.5187e-06 8.170862e-06 7.671153e-06 3.53307e-06 6.8990425e-06
5.0012263e-06 1.3163906e-05 9.036527e-06 1.2483881e-05 2.5128322e-06 2.7560357e-06 4.090622e-06 7.388027e-06
0.00027732083 0.00010690288 6.41987e-05 0.0007272686 0.00067625527 0.0007303975 0.00024332062 0.0006487021
0.00035079478 0.0006969361 0.0005370215 0.0006496381 0.00014143185 0.00015836263 0.00023121935 0.000386629
0.00020728075 7.4404976e-05 5.1842497e-05 0.0005589693 0.00048027834 0.00050084473 0.00018597879 0.00045655604
0.00028115924 0.0005949278 0.00043145608 0.0005628118 0.00012089859 0.00013357984 0.00018691472 0.0003337766
0.0001263238 3.839393e-05 3.5519137e-05 0.00030849618 0.0002663453 0.00026353417 0.00010896883 0.00024083567
0.0001579383 0.00038497814 0.0002695376 0.0003688169 8.272688e-05 8.02632e-05 0.00012489875 0.00022002017
0.00037253957 0.00015746037 8.030727e-05 0.0011844643 0.0009399873 0.0010420006 0.00039850263 0.0009584982
0.0006091626 0.0012061725 0.0008839385 0.0011189855 0.00021367025 0.00029717214 0.00030854373 0.00063311233
5.7961173e-05 1.7296961e-05 1.7022408e-05 0.00014726807 0.00011836229 0.00011318851 5.0523617e-05 0.00010611291
7.7304394e-05 0.00019535437 0.00013151512 0.00018693067 3.9814415e-05 4.0259067e-05 6.00065e-05 0.000110858266
0.0006201257 0.00021621217 0.00015568727 0.0015973469 0.0014135004 0.0014495975 0.0005399486 0.0013108718
0.0007867883 0.0017492723 0.0012520273 0.0016478318 0.00035226907 0.00038412667 0.00056090986 0.000979157
0.00024342882 7.646834e-05 6.626567e-05 0.0005791827 0.00052804704 0.00052500673 0.00019997999 0.00047232155
0.00028353327 0.0006835863 0.000484626 0.0006515596 0.0001464625 0.00014027483 0.00023308353 0.0003927575
0.00068295567 0.00021929177 0.0001737113 0.0017070485 0.0014897191 0.0015133407 0.00062156486 0.001356744
0.00085505116 0.0020387874 0.0014366941 0.0019252569 0.0004013373 0.0004551251 0.0006233075 0.0011283724
00000000: 56d0 b835 a243 ec34 91e4 d334 47ed 8436
00000010: 5aa4 3b36 49cc 2136 2b30 9f35 a3c9 2936
00000020: 1b6c 0936 4c5b a436 88f0 3a36 b9d8 9d36
00000030: 9638 a335 8e5a 8e35 b7dc c835 b74a 3a36
00000040: 538a 6036 02fb 8135 b6b2 7635 6be1 2637
00000050: 2e32 d236 5e7b b536 b8f7 6936 e266 c136
00000060: 5195 bc36 02a0 6437 7faf 0437 72ad 5e37
00000070: 20df 5336 58be 5b36 4f18 6f36 c762 fc36
00000080: 4fc1 7338 966b b937 86f5 6437 8483 2339
00000090: 0446 1339 210e 1d39 3317 5b38 6e4d 0c39
000000a0: e4be 9e38 c350 2539 b4f6 f638 c17a 1a39
000000b0: 6cb0 0138 5af0 1438 4489 5038 5c58 b638
000000c0: b011 4a39 4487 bc38 6134 1b38 c168 233a
000000d0: 0724 083a 96f3 1b3a 58de 5639 eee3 0d3a
000000e0: 63ea a339 c836 123a 92d3 e239 24a8 053a
000000f0: 50c5 cd38 0f55 1639 e1e7 1739 fe86 9639
00000100: c99b 1738 71e7 3d37 fabc 2737 f87f b738
00000110: f6a4 a338 2534 a338 7f55 ff37 9f12 9338
00000120: 249e 3638 8f2a df38 382d 9e38 e027 d438
00000130: 290a b937 0388 b737 34e6 1238 813d 7e38
00000140: 42ed d438 ec6c 2038 49d3 cd37 a958 9539
00000150: 5873 7c39 f0ed 8239 db7a c438 b21b 6f39
00000160: 007c 1339 dc5d a139 f982 6439 7609 9739
00000170: 5c86 7338 72f7 8f38 fc0b bf38 f13b 3139
00000180: c951 9f39 13e0 bf38 eac3 a938 3605 453a
00000190: bece 273a 9a53 263a 66c1 9039 bef2 153a
000001a0: bcf2 c839 3f67 783a 1669 2b3a 04f8 6b3a
000001b0: 4b77 4239 5844 5a39 644b 9739 72d9 0a3a
000001c0: 95bc 8d36 4b83 a635 1e97 a035 81b2 1f37
000001d0: 9615 0937 5ab3 0037 ae19 6d36 537e e736
000001e0: 35d0 a736 8cda 5c37 979b 1737 dc71 5137
000001f0: 21a2 2836 55f4 3836 2d42 8936 abe6 f736
00000200: 5f65 9139 0c31 e038 6aa2 8638 2ba6 3e3a
00000210: b946 313a 2678 3f3a e223 7f39 a90d 2a3a
00000220: e1ea b739 97b2 363a e7c6 0c3a 7a4c 2a3a
00000230: 534d 1439 250e 2639 7973 7239 77b4 ca39
00000240: 8159 5939 de09 9c38 7571 5938 cb87 123a
00000250: decd fb39 1f4b 033a 4d03 4339 ea5d ef39
00000260: 8e68 9339 eef4 1b3a 0e35 e239 a989 133a
00000270: f08a fd38 9111 0c39 8afe 4339 bdfe ae39
00000280: c975 0439 2b09 2138 62fa 1438 a8bd a139
00000290: 43a4 8b39 f52a 8a39 3286 e438 d588 7c39
000002a0: 3d9c 2539 e4d6 c939 b950 8d39 c45d c139
000002b0: a87d ad38 fa52 a838 41f7 0239 37b5 6639
000002c0: 6a51 c339 f21b 2539 a36a a838 0740 9b3a
000002d0: 7b69 763a bd93 883a 1eee d039 ba43 7b3a
000002e0: 36b0 1f3a 6f18 9e3a 1cb8 673a ecaa 923a
000002f0: ac0c 6039 c5cd 9b39 0ac4 a139 73f7 253a
00000300: 561b 7338 f118 9137 58cb 8e37 f96b 1a39
00000310: 4539 f838 9e5f ed38 52e9 5338 ef88 de38
00000320: 7b1e a238 0ad8 4c39 52e7 0939 d202 4439
00000330: 67fe 2638 d8db 2838 7daf 7b38 947c e838
00000340: ee8f 223a 03b7 6239 fc3f 2339 115e d13a
00000350: 3445 b93a 6c00 be3a 568b 0d3a 8fd1 ab3a
00000360: 7840 4e3a d747 e53a 111b a43a 0ffc d73a
00000370: c1b0 b839 9c64 c939 060a 133a 0f57 803a
00000380: ed40 7f39 a15d a038 1cf8 8a38 4bd4 173a
00000390: a36c 0a3a 9ba0 093a b8b1 5139 eda1 f739
000003a0: 31a7 9439 b332 333a 6715 fe39 6dcd 2a3a
000003b0: ba93 1939 bd16 1339 e267 7439 05eb cd39
000003c0: 6108 333a b0f1 6539 4626 3639 0bbf df3a
000003d0: ae42 c33a 4a5b c63a 83f0 223a c6d4 b13a
000003e0: 8325 603a 2d9d 053b 744f bc3a e758 fc3a
000003f0: 956a d239 db9d ee39 7565 233a e5e5 933a

exp_avg f4 [16]
0.00036778083 0.00054328033 0.0013098158 0.0036440133 -0.0013024274 0.0029651097 0.0008029485 8.016241e-05
-0.00050320633 -0.0025073804 -0.0018968564 0.007988766 0.0032140235 0.0056965263 0.0019743608 0.005880804
00000000: b5d2 c039 ed6a 0e3a 20ae ab3a 66d0 6e3b
00000010: 36b6 aaba 4952 423b f67c 523a de1c a838
00000020: 9be9 03ba dd52 24bb f09f f8ba 50e3 023c
00000030: 5ea2 523b eda9 ba3b 4764 013b c2b3 c03b

exp_avg_sq f4 [16]
1.1994422e-05 3.4438282e-05 0.0005905823 0.0022917225 0.0003535387 0.0010483882 0.0030314475 3.9672384e-05
0.0027563898 0.0020999608 0.0012568802 0.0044404976 0.0005871221 0.0060620294 0.0022952051 0.0068417042
00000000: a63b 4937 d371 1038 4fd1 1a3a b930 163b
00000010: 295b b939 126a 893a 40ab 463b e665 2638
00000020: 8ca4 343b 7f9f 093b e7bd a43a 9881 913b
00000030: 19e9 193a fda3 c63b 276b 163b 6030 e03b

exp_avg f4 [1, 16]
-0.0037947386 -0.017348282 0.009614491 0.035814993 -0.012913484 0.03598975 -0.011054255 0.01275298
0.01908693 0.005787772 -0.0032183554 0.039364222 0.024210054 0.018692449 -0.0059331753 -0.006692097
00000000: 26b1 78bb fc1d 8ebc 1986 1d3c beb2 123d
00000010: 1493 53bc fd69 133d e81c 35bc e0f1 503c
00000020: 325c 9c3c 5aa7 bd3b 0beb 52bb 613c 213d
00000030: 2a54 c63c e820 993c 156b c2bb 6149 dbbb

exp_avg_sq f4 [1, 16]
0.0057160077 0.011521817 0.010017214 0.013572278 0.002819494 0.0058169337 0.012367336 0.0019981018
0.013857015 0.0078022094 0.002065816 0.013370416 0.0105604 0.005549963 0.0041946685 0.012310941
00000000: 594d bb3b 01c6 3c3c 3e1f 243c 435e 5e3c
00000010: 43c7 383b fa9b be3b 5ea0 4a3c 96f2 023b
00000020: 8908 633c ada9 ff3b a462 073b 970f 5b3c
00000030: 8705 2d3c 77dc b53b 6e73 893b d4b3 493c

exp_avg f4 [16, 4]
-631.3808 21.1002 183.47491 69.82562 1351.4259 -45.13974 -391.77264 -149.40149
-662.3061 22.13135 192.28981 73.23247 -424.96616 14.20287 123.504814 46.995853
1158.6389 -38.705864 -335.96185 -128.08656 -3002.744 100.302376 870.6603 331.9472
1895.7682 -63.321728 -549.54016 -209.57503 1567.1329 -52.34938 -454.40802 -173.24974
1477.8054 -49.36464 -428.4529 -163.37471 -642.57404 21.465378 186.314 71.03819
-1806.4547 60.33529 523.6124 199.70155 1113.5619 -37.18996 -322.6797 -123.09942
-594.2908 19.849354 172.2819 65.69627 -439.94098 14.70031 127.745 48.646824
-1749.7639 58.445152 507.12482 193.42221 -1930.1589 64.48323 560.14886 213.40834
00000000: 5fd8 1dc4 36cd a841 9479 3743 b8a6 8b42
00000010: a1ed a844 188f 34c2 e6e2 c3c3 c866 15c3
00000020: 9793 25c4 010d b141 314a 4043 0677 9242
00000030: ab7b d4c3 f53e 6341 7702 f742 c1fb 3b42
00000040: 72d4 9044 ced2 1ac2 1efb a7c3 2916 00c3
00000050: e7ab 3bc5 d19a c842 42aa 5944 3ef9 a543
00000060: 95f8 ec44 7349 7dc2 9262 09c4 3593 51c3
00000070: 41e4 c344 c465 51c2 3a34 e3c3 ef3f 2dc3
00000080: c6b9 b844 6475 45c2 f939 d6c3 ed5f 23c3
00000090: bda4 20c4 18b9 ab41 6250 3a43 8e13 8e42
000000a0: 8dce e1c4 5657 7142 32e7 0244 99b3 4743
000000b0: fb31 8b44 85c2 14c2 0057 a1c3 e732 f6c2
000000c0: 9c92 14c4 7acb 9e41 2b48 2c43 7e64 8342
000000d0: 72f8 dbc3 7834 6b41 717d ff42 5996 4242
000000e0: 72b8 dac4 d6c7 6942 fa8f fd43 166c 4143
000000f0: 1645 f1c4 6af7 8042 8709 0c44 8968 5543

exp_avg_sq f4 [16, 4]
2.8069795e+06 1430.7761 1.1450684e+06 44074.594 1.703884e+07 7993.0186 8.3496045e+06 287166.75
3.1933335e+06 1579.2893 1.2619418e+06 48000.637 967909.94 497.30005 301005.53 12337.209
1.8954398e+07 8191.5176 9.919726e+06 333073.53 9.768701e+07 44411.727 5.4177628e+07 1.7168279e+06
4.772098e+07 21075.201 2.6864836e+07 846920.25 3.387323e+07 14852.109 1.8796922e+07 599458.3
3.0900338e+07 13481.886 1.6713413e+07 543978.56 3.012613e+06 1454.1604 1.0978876e+06 43208.145
3.665217e+07 16020.847 2.1208856e+07 638421.2 1.2957301e+07 5704.224 6.77848e+06 215172.19
3.1731888e+06 1365.1825 1.24078e+06 44817.26 1.2502001e+06 607.6069 436170.06 16223.579
4.1713516e+07 18300.25 2.4022338e+07 747365.0 3.6758576e+07 17020.918 1.9987952e+07 632442.6
00000000: 0e53 2b4a d6d8 b244 63c7 8b49 982a 2c47
00000010: fcfe 814b 26c8 f945 49cf fe4a d837 8c48
00000020: d6e7 424a 4269 c544 ae0b 9a49 a380 3b47
00000030: 5f4e 6c49 68a6 f843 b1f9 9248 d6c4 4046
00000040: 4f9c 904b 24fc ff45 ee5c 174b 31a2 a248
00000050: bc52 ba4c ba7b 2d47 d7ab 4e4c df92 d149
00000060: 850a 364c 67a6 a446 62f6 cc4b 84c4 4e49
00000070: 5437 014c 7010 6846 bd68 8f4b 255a 1249
00000080: 39c0 eb4b 8ba7 5246 c506 7f4b a9ce 0449
00000090: 14e0 374a 22c5 b544 fd04 8649 25c8 2847
000000a0: 22d1 0b4c 6353 7a46 8ccf a14b 53dd 1b49
000000b0: 75b6 454b cb41 b245 e0dc ce4a 0c21 5248
000000c0: 13ad 414a d7a5 aa44 6076 9749 4311 2f47
000000d0: c19c 9849 d7e6 1744 42f9 d448 517e 7d46
000000e0: db1f 1f4c 80f8 8e46 a146 b74b 5076 3649
000000f0: 0c39 0c4c d6f9 8446 f87e 984b aa67 1a49

exp_avg f4 [16]
794.2377 -1699.2595 833.0584 534.6116 -1457.0067 3775.8218 -2383.6975 -1970.62
-1858.2527 808.02905 2271.3054 -1400.0239 747.23645 553.35175 2200.1204 2427.392
00000000: 368f 4644 4e68 d4c4 bd43 5044 24a7 0544
00000010: 3720 b6c4 26fd 6b45 29fb 14c5 d753 f6c4
00000020: 1648 e8c4 dc01 4a44 e3f4 0d45 c400 afc4
00000030: 22cf 3a44 8356 0a44 ed81 0945 46b6 1745

exp_avg_sq f4 [16]
2.5597625e+06 1.4686454e+07 2.8468215e+06 890587.1 1.5324567e+07 8.233473e+07 3.9280748e+07 2.7707842e+07
2.5166806e+07 2.648094e+06 3.0081698e+07 1.0703556e+07 2.5839898e+06 1.1031729e+06 3.4163436e+07 3.1372726e+07
00000000: 4a3c 1c4a f618 604b 96c1 2d4a b26d 5949
00000010: 97d5 694b 810a 9d4c 1bd8 154c e164 d34b
00000020: eb01 c04b 78a0 214a 5181 e54b c452 234b
00000030: d7b6 1d4a 27aa 8649 bb52 024c db5a ef4b

exp_avg f4 [16, 16]
-16.810692 3.0667999 -15.164975 -14.296541 -15.975738 2.6350052 -14.308894 -15.935337
-17.815754 -8.519453 8.91397 -8.738121 6.2318826 -13.09447 10.661753 -1.597975
-18.263662 3.3519843 -16.48162 -15.539048 -17.327364 2.841666 -15.509516 -17.276646
-19.31893 -9.273019 9.65427 -9.457622 6.7316732 -14.228897 11.558381 -1.7563154
-16.542868 3.0297174 -14.9265585 -14.072561 -15.703572 2.5802138 -14.059485 -15.660049
-17.510086 -8.393306 8.754113 -8.57818 6.1107183 -12.887312 10.476864 -1.5845212
-16.846926 3.1077871 -15.2074585 -14.338765 -15.959838 2.603836 -14.27765 -15.907856
-17.791224 -8.566365 8.881182 -8.696147 6.180484 -13.127186 10.6416 -1.6363587
16.910585 -3.1209345 15.264863 14.393114 16.017525 -2.6119108 14.328806 15.965095
17.85548 8.599527 -8.912675 8.726734 -6.2016993 13.176766 -10.67964 1.6438456
18.920776 -3.4563937 17.070808 16.093267 17.97522 -2.9617724 16.097176 17.927853
20.044163 9.593948 -10.026121 9.826185 -7.003389 14.739036 -11.995238 1.8032525
-17.893532 3.294532 -16.150322 -15.227399 -16.96044 2.7724743 -15.176037 -16.907413
-18.907946 -9.0933695 9.442642 -9.2476 6.576204 -13.9417925 11.310625 -1.7314645
19.83801 -3.3230617 17.796675 16.763666 19.263418 -3.4124033 17.40896 19.323454
21.550259 9.790739 -10.963913 10.843214 -7.9391127 15.408998 -12.934626 1.5847154
-16.791191 3.0972254 -15.15679 -14.291086 -15.907146 2.595385 -14.230772 -15.855535
-17.732655 -8.537596 8.852232 -8.667958 6.1607904 -13.08364 10.606495 -1.6305609
-15.327325 2.8219588 -13.833513 -13.043107 -14.527348 2.374188 -12.99925 -14.482278
-16.195871 -7.7882833 8.088277 -7.9218698 5.6346874 -11.942119 9.687856 -1.4832233
17.429733 -3.1705623 15.721666 14.820515 16.578289 -2.7425113 14.852839 16.539188
18.489176 8.826441 -9.256177 9.075718 -6.477395 13.57578 -11.066665 1.6476449
16.117758 -2.9785194 14.549929 13.719384 15.26028 -2.4848828 13.6496725 15.209217
17.010813 8.199154 -8.488779 8.310856 -5.904241 12.55941 -10.173558 1.5707628
16.81867 -3.1324022 15.188958 14.3237705 15.887473 -2.56642 14.198872 15.826308
17.705414 8.575416 -8.820998 8.629379 -6.115713 13.108651 -10.5847225 1.6636399
-16.11316 2.9573722 -14.540696 -13.709062 -15.286528 2.5063505 -13.682877 -15.24196
-17.04376 -8.180479 8.517151 -8.344209 5.940239 -12.553288 10.196878 -1.5499003
20.121094 -3.6422224 18.146341 17.104576 19.166992 -3.187248 17.180056 19.126888
21.378685 10.177099 -10.712905 10.507559 -7.507233 15.670613 -12.800249 1.8838524
-16.14859 2.9678664 -14.57393 -13.740676 -15.314471 2.5077858 -13.705854 -15.268396
-17.074038 -8.202037 8.52987 -8.355351 5.945295 -12.581524 10.214436 -1.5572932
00000000: 4c7c 86c1 7346 4440 bda3 72c1 a2be 64c1
00000010: 9f9c 7fc1 eda3 2840 3bf1 64c1 24f7 7ec1
00000020: aa86 8ec1 ae4f 08c1 9f9f 0e41 58cf 0bc1
00000030: 956b c740 f382 51c1 8a96 2a41 728a ccbf
00000040: fb1b 92c1 e986 5640 5cda 83c1 f19f 78c1
00000050: 719e 8ac1 dbdd 3540 fa26 78c1 9236 8ac1
00000060: 2b8d 9ac1 495e 14c1 e477 1a41 6b52 17c1
00000070: de69 d740 90a9 63c1 21ef 3841 f1ce e0bf
00000080: cb57 84c1 e4e6 4140 2fd3 6ec1 3629 61c1
00000090: d541 7bc1 3922 2540 a7f3 60c1 908f 7ac1
000000a0: a814 8cc1 fb4a 06c1 d910 0c41 3a40 09c1
000000b0: 018b c340 6e32 4ec1 3ca1 2741 97d1 cabf
000000c0: 81c6 86c1 fce5 4640 c051 73c1 956b 65c1
000000d0: 7f5b 7fc1 40a5 2640 4171 64c1 9486 7ec1
000000e0: 6d54 8ec1 d50f 09c1 5219 0e41 6b23 0bc1
000000f0: 86c6 c540 f408 52c1 fe43 2a41 3474 d1bf
00000100: e148 8741 64bd 47c0 e13c 7441 324a 6641
00000110: e423 8041 8c29 27c0 ca42 6541 0771 7f41
00000120: 06d8 8e41 aa97 0941 519a 0ec1 b4a0 0b41
00000130: 5274 c6c0 09d4 5241 cedf 2ac1 8869 d23f
00000140: c05d 9741 8e35 5dc0 0491 8841 03bf 8041
00000150: 40cd 8f41 ae8d 3dc0 04c7 8041 3e6c 8f41
00000160: 725a a041 d080 1941 fe6a 20c1 0e38 1d41
00000170: c31b e0c0 17d3 6b41 7fec 3fc1 fad0 e63f
00000180: f425 8fc1 9dd9 5240 dc33 81c1 6da3 73c1
00000190: fbae 87c1 3870 3140 0cd1 72c1 6242 87c1
000001a0: 7943 97c1 717e 11c1 1015 1741 2bf6 13c1
000001b0: 4370 d240 9511 5fc1 52f8 3441 a1a0 ddbf
000001c0: 3fb4 9e41 0bad 54c0 975f 8e41 fd1b 8641
000001d0: 7b1b 9a41 d164 5ac0 8d45 8b41 6f96 9a41
000001e0: ee66 ac41 dea6 1c41 306c 2fc1 ce7d 2d41
000001f0: 360d fec0 418b 7641 3af4 4ec1 f4d7 ca3f
00000200: 5c54 86c1 f138 4640 3682 72c1 4aa8 64c1
00000210: ac83 7ec1 ca1a 2640 3eb1 63c1 45b0 7dc1
00000220: 7adc 8dc1 fe99 08c1 bea2 0d41 f5af 0ac1
00000230: 3225 c540 9756 51c1 34b4 2941 38b6 d0bf
00000240: b93c 75c1 f99a 3440 1256 5dc1 91b0 50c1
00000250: 0470 68c1 b2f2 1740 eefc 4fc1 69b7 67c1
00000260: 2591 81c1 9e39 f9c0 9569 0141 f57f fdc0
00000270: 5c4f b440 eb12 3fc1 7501 1b41 43da bdbf
00000280: 1870 8b41 7eea 4ac0 f28b 7b41 d420 6d41
00000290: 56a0 8441 4e85 2fc0 3ba5 6d41 4250 8441
000002a0: d5e9 9341 1a39 0d41 4d19 14c1 2436 1141
000002b0: d246 cfc0 6536 5941 0f11 31c1 07e6 d23f
000002c0: 2bf1 8041 10a0 3ec0 82cc 6841 9982 5b41
000002d0: 1b2a 7441 5208 1fc0 0f65 5a41 f458 7341
000002e0: 2516 8841 bc2f 0341 0ad2 07c1 44f9 0441
000002f0: 8bef bcc0 58f3 4841 e5c6 22c1 c10e c93f
00000300: a38c 8641 4779 48c0 f905 7341 2a2e 6541
00000310: 1733 7e41 3a40 24c0 942e 6341 8f38 7d41
00000320: b0a4 8d41 e734 0941 cf22 0dc1 f011 0a41
00000330: ecb3 c3c0 09bd 5141 065b 29c1 27f2 d43f
00000340: c0e7 80c1 9645 3d40 b1a6 68c1 5158 5bc1
00000350: 9e95 74c1 0c68 2040 10ed 5ac1 11df 73c1
00000360: 9f59 88c1 3ee3 02c1 4046 0841 e181 05c1
00000370: 7016 be40 45da 48c1 6a26 2341 2263 c6bf
00000380: 00f8 a041 2c1a 69c0 b52b 9141 2cd6 8841
00000390: 0056 9941 dffb 4bc0 c170 8941 de03 9941
000003a0: 8c07 ab41 66d5 2241 0f68 2bc1 f61e 2841
000003b0: 413b f0c0 d5ba 7a41 d2cd 4cc1 1322 f13f
000003c0: 5030 81c1 86f1 3d40 d12e 69c1 cfd9 5bc1
000003d0: 1308 75c1 907f 2040 2e4b 5bc1 5a4b 74c1
000003e0: a197 88c1 8b3b 03c1 597a 0841 85af 05c1
000003f0: db3f be40 ec4d 49c1 546e 2341 6255 c7bf
