Source/TD3/TD3_FT/logs/td3-ur5-ComGrasp/td3-ur5-ComGrasp_s0/pyt_save/model.pt (torch_old, 20284 bytes, 45 tensors)

pi.pi.0.weight f4 [16, 2]
0	0xbbad7900	-0.0052939653
1	0x3ec2369e	0.37932295
2	0xbedfbec7	-0.4370024
3	0xbf8d3ac7	-1.1033562
4	0xbeb00a88	-0.34383035
5	0x3e10b51c	0.14131588
6	0xbc658a40	-0.014010012
7	0x3f0f8741	0.56065756
8	0xbd8083e0	-0.06275153
9	0x3e3f9998	0.18710935
10	0xbec0517f	-0.37562177
11	0xbe7ee282	-0.24891093
12	0xbf3889be	-0.7208518
13	0xbf4325d7	-0.76229614
14	0xbec7102d	-0.3887953
15	0x3d02796d	0.031854082
16	0x3eb5637f	0.35427472
17	0x3f306d10	0.68916416
18	0xbf09f4ff	-0.5388946
19	0xbe781e36	-0.24230275
20	0x3e925655	0.2858149
21	0x3f6a8cae	0.9162091
22	0xbe1503e8	-0.14552271
23	0x3f07757b	0.52913636
24	0xbde96b20	-0.113973856
25	0x3d993c38	0.07482189
26	0x3f23e8a1	0.6402684
27	0xbf27ed20	-0.655962
28	0xbee622fc	-0.44948566
29	0xbe12b4ac	-0.14326733
30	0xbed5591e	-0.41669554
31	0x3ef6badc	0.48189437

pi.pi.0.bias f4 [16]
0	0xbeeaaa86	-0.45833224
1	0xbf12dcc8	-0.57368135
2	0xbf16d7b0	-0.58922863
3	0xbf298920	-0.6622486
4	0xbed3562d	-0.41276684
5	0x3f10f5fa	0.5662533
6	0x3de6850a	0.11255844
7	0x3ef9ef7c	0.48815525
8	0x3da18286	0.078862235
9	0xbebe0fb8	-0.37121367
10	0x3e9ce8f0	0.30646467
11	0xbf29044d	-0.6602219
12	0xbf02cc68	-0.5109315
13	0xbebaa44c	-0.36453474
14	0x3ec0f7fe	0.37689203
15	0x3efad3da	0.48989755

pi.pi.2.weight f4 [16, 16]
0	0xbde311c8	-0.11087376
1	0x3ec2f007	0.3807375
2	0x3ed22f58	0.41051745
3	0x3e7e7f82	0.24853328
4	0x3dcb3424	0.099220544
5	0x3e20c533	0.15700226
6	0x3df279c8	0.11839634
7	0xbc936dbd	-0.017996663
8	0xbccb3ce6	-0.024809312
9	0xbb82062e	-0.003968022
10	0xbe7bcd19	-0.24589957
11	0xbe043ed2	-0.12914589
12	0x3de7aa8c	0.11311826
13	0x3dcde7f8	0.1005401
14	0x3c1c551b	0.009541775
15	0x3e47d394	0.19514304
16	0x3e0c896e	0.137243
17	0xbd013f20	-0.03155434
18	0x3c1c6440	0.009545386
19	0x3d6d4400	0.057926178
20	0x3e1ed100	0.15509415
21	0x3e6b118f	0.22955917
22	0xbe454796	-0.19265589
23	0xbdd11bd0	-0.10210383
24	0x3db3b94e	0.087755784
25	0x3e541bd0	0.20713735
26	0x3e54051f	0.20705079
27	0x3e61e222	0.22058919
28	0x3d4bca78	0.049753636
29	0xbe5e9cf8	-0.21739566
30	0x3cbc6690	0.022998124
31	0xbe2ae746	-0.16689786
32	0xbe6e948c	-0.23298854
33	0xbd8858b9	-0.066575475
34	0x3ddc4bd7	0.10756653
35	0xbe7f5dfe	-0.24938199
36	0x3d3faa08	0.046793014
37	0x3dcae576	0.099070475
38	0x3e684f21	0.22686435
39	0x3c82febf	0.015990613
40	0x3e86c0b4	0.26318896
41	0xbe387978	-0.18015087
42	0x3e846195	0.258557
43	0x3e017616	0.12642702
44	0x3e37435c	0.1789679
45	0x3dbf7148	0.093477786
46	0xbe1ac53c	-0.15114301
47	0xbcf4163e	-0.029795762
48	0x3dffa638	0.124828756
49	0xbebe93ec	-0.3722223
50	0xbe9198d5	-0.28436914
51	0xbe1368e8	-0.14395487
52	0x3e70d4f2	0.23518732
53	0x3e7e6cd0	0.24846196
54	0x3dabc418	0.08387011
55	0xbc93b84e	-0.01803222
56	0xbde2690a	-0.11055191
57	0xbd7cc74f	-0.061713513
58	0xbd7124d7	-0.058873024
59	0xbe4577a2	-0.19283918
60	0xbc61b020	-0.013774902
61	0x3d19bfa0	0.037536263
62	0xbdf70229	-0.12060959
63	0x3e4c27dd	0.19937082
64	0xbe1bc938	-0.15213478
65	0x3e45909b	0.19293444
66	0x3e1593c9	0.14607157
67	0xbe57e164	-0.21082073
68	0xbd7edb88	-0.06222108
69	0xbca35a77	-0.019940598
70	0x3b3218b1	0.0027175362
71	0x3ccda9d4	0.025105394
72	0x3dc30531	0.095224746
73	0xbc9b7da8	-0.018980816
74	0xbdfecbee	-0.1244124
75	0x3df245d4	0.11829725
76	0xbe759156	-0.23981223
77	0xbe17bba0	-0.14817667
78	0xbdc56b8c	-0.096396536
79	0xbe1fb01e	-0.15594527
80	0xbdb31d5c	-0.08745834
81	0x3dc0ec8c	0.09420118
82	0x3e261d91	0.16222216
83	0x3d5ae2f8	0.05343911
84	0xbe26c676	-0.16286644
85	0x3df073b3	0.11740818
86	0x3e13c52f	0.14430688
87	0x3de12e92	0.10995211
88	0xbdc5a931	-0.09651411
89	0x3e12f459	0.14351024
90	0xbd9981ea	-0.07495482
91	0x3e22c660	0.15895987
92	0x3e727eba	0.23681155
93	0x3e229306	0.15876397
94	0x3ecc7da7	0.39939615
95	0x3ddccd32	0.107813254
96	0xbe65f866	-0.22458038
97	0xbdf2ba40	-0.118519306
98	0x3e2e4fce	0.1702263
99	0xbad46b00	-0.0016206205
100	0xbdfe7cdc	-0.12426159
101	0xbe442d02	-0.19157794
102	0xbe6f9400	-0.23396301
103	0xbe5810ec	-0.21100205
104	0xbd4fb470	-0.050709188
105	0x3e0c6456	0.1371015
106	0x3e0a6774	0.13516027
107	0xbe76e502	-0.24110797
108	0x3e1fb02e	0.15594551
109	0xbe48528a	-0.19562736
110	0xbd587bf0	-0.05285257
111	0xbdcf9a1c	-0.10136816
112	0xbd453cf0	-0.048153818
113	0xbedf9796	-0.43670338
114	0xbea3fb30	-0.32027578
115	0xbe5d0a44	-0.21585947
116	0xbd203c28	-0.03911987
117	0x3d630208	0.05542186
118	0x3e74430a	0.23853698
119	0x3e1dd3b6	0.15412793
120	0xbe4d0557	-0.20021568
121	0xbb380c3f	-0.002808347
122	0x3e7ad4c0	0.2449522
123	0xbdd0d738	-0.101973
124	0x3e672b36	0.22575077
125	0x3db96c38	0.09053844
126	0xbe165980	-0.14682579
127	0x3e5ae10f	0.21374916
128	0xbcec53f0	-0.028848618
129	0x3e6319bd	0.22177787
130	0x3ed8e49d	0.42361918
131	0xbe4edf54	-0.2020238
132	0x3cdbc2b0	0.026826233
133	0x3d7c9093	0.061661314
134	0x3e140d4a	0.14458194
135	0x3e4dc92a	0.20096269
136	0xbcfdf1ea	-0.030999143
137	0x3e8932ba	0.26796514
138	0xbe5d910a	-0.2163736
139	0xbd575a50	-0.052576363
140	0xbe52f700	-0.20602036
141	0x3e0ab64c	0.13546103
142	0x3eb8ac62	0.36069018
143	0x3e91f2f1	0.28505662
144	0xbe3493ac	-0.17634457
145	0xbb5d575e	-0.0033773999
146	0xbe3eab27	-0.18619977
147	0xbe0cec88	-0.13762105
148	0xbe152c30	-0.14567637
149	0x3d6c5da0	0.057706475
150	0xbe31bae3	-0.17356448
151	0xbd084c52	-0.03327591
152	0x3c2c4fa0	0.010517031
153	0x3e0acf2b	0.13555591
154	0xbe4d2e52	-0.20037201
155	0xbe2fbf44	-0.17162806
156	0xbe14a63c	-0.14516538
157	0x3e332ed6	0.17498335
158	0xbded86f6	-0.115980074
159	0x3e3c2d67	0.18376695
160	0x3db924a0	0.09040189
161	0xbe23b076	-0.15985283
162	0xbd53ca00	-0.051706314
163	0xbd4a6d08	-0.049420387
164	0x3d007a40	0.031366587
165	0xbd4114a3	-0.04713882
166	0x3e3a8206	0.18213663
167	0x3ccc7f4f	0.02496305
168	0xbd3932e8	-0.045214564
169	0xbdceb2b3	-0.10092678
170	0x3eb63b27	0.35592005
171	0xbe4fc186	-0.20288667
172	0xbc930f20	-0.017951548
173	0x3e7d3ec0	0.24730968
174	0x3d86bc52	0.06578888
175	0x3bf42ba8	0.0074514933
176	0xbe5dda26	-0.21665248
177	0xbd5bbb24	-0.053645268
178	0xbe84a550	-0.25907373
179	0xbd9156a8	-0.070966065
180	0xbdabc8cc	-0.08387908
181	0xbda342c2	-0.079717174
182	0x3e03a01f	0.1285405
183	0x3e1dbf46	0.15404996
184	0x3e3ac706	0.18239984
185	0x3e695892	0.22787693
186	0x3e9d3faa	0.30712634
187	0xbe21d8c6	-0.15805349
188	0x3de5a254	0.11212602
189	0xbe34f724	-0.17672402
190	0xbe350b56	-0.17680106
191	0x3d0ac94b	0.033883374
192	0x3da90ef0	0.08254802
193	0x3e400ef2	0.18755701
194	0xbda4d228	-0.080478966
195	0x39d1d400	0.0004002154
196	0x3e03cb7a	0.12870589
197	0xbe77935a	-0.24177304
198	0x3e391542	0.18074515
199	0xbe53b130	-0.2067306
200	0x3b61d000	0.0034456253
201	0xbd2e18e0	-0.04250419
202	0xbe06d40a	-0.13166824
203	0x3d0757d8	0.03304276
204	0x3e53b0f2	0.20672968
205	0xbd95aae8	-0.073079884
206	0xbe17fc56	-0.14842352
207	0xbdbd5b84	-0.09245971
208	0xbe7dbbe6	-0.24778709
209	0x3edb7b55	0.42867532
210	0x3dcafd1c	0.09911558
211	0xbe2ad6d0	-0.16683507
212	0xbe137b62	-0.14402536
213	0x3e8c8cde	0.27451223
214	0x3dca0fdc	0.09866306
215	0x3ea8f57f	0.329998
216	0xbca84ce4	-0.020544477
217	0x3db40a32	0.08791007
218	0xbe47edbe	-0.19524285
219	0x3d974298	0.073857486
220	0x3e5270de	0.20550868
221	0x3d8b3574	0.06797305
222	0x3d3fe152	0.04684574
223	0x3c149292	0.009068148
224	0xbe720a42	-0.23636726
225	0xbe982e89	-0.29723004
226	0xbe599562	-0.21248391
227	0xbe643e50	-0.22289395
228	0x3e607afa	0.21921912
229	0xbd14a36a	-0.036288656
230	0x3e30a1d2	0.1724923
231	0x3e0c8831	0.13723828
232	0x3e2b70c4	0.16742235
233	0xbe4241d2	-0.18970421
234	0xbd1e27cb	-0.03861217
235	0x3e4c0d98	0.1992706
236	0x3d26bf30	0.040709674
237	0x3e546246	0.20740613
238	0xbdadf28e	-0.08493529
239	0x3e23c8c6	0.15994558
240	0xbd6a2a18	-0.05716905
241	0xbc362760	-0.011117786
242	0xbe1bea52	-0.15226105
243	0x3dad28ac	0.08455023
244	0x3da1e080	0.07904148
245	0xbd82cf90	-0.06387246
246	0xbd89bf8a	-0.06725986
247	0xbe60e9b9	-0.21964158
248	0x3dce7d2b	0.10082468
249	0xbe3e9294	-0.18610603
250	0x3ccc26aa	0.02492078
251	0xbdac296c	-0.08406338
252	0xbdf7060c	-0.120617
253	0x3d37f4e0	0.044911265
254	0xbe22abbc	-0.15885824
255	0xbc22952b	-0.00992326

pi.pi.2.bias f4 [16]
0	0x3ddf4168	0.10901147
1	0xbe48d4fc	-0.19612497
2	0x3e4fc818	0.20291173
3	0x3e59fe81	0.21288492
4	0x3d91b0d5	0.07113806
5	0x3c5403a3	0.01294032
6	0xbe51dd9a	-0.2049469
7	0x3b8b22bf	0.0042460854
8	0x3d81cecd	0.06338272
9	0xbdeac9c9	-0.11464269
10	0x3e47b5b0	0.19502902
11	0x3e6884a3	0.22706847
12	0xbe05abba	-0.1305379
13	0x3d04ffc3	0.032470476
14	0x3e871800	0.26385498
15	0xbd4309a7	-0.047616627

pi.pi.4.weight f4 [1, 16]
0	0x3e2edd4c	0.17076606
1	0x3caa9937	0.020825012
2	0xbebae7d2	-0.3650499
3	0xbe143178	-0.14471996
4	0x3e14888c	0.14505213
5	0x3ec311c1	0.38099483
6	0x3e1676d8	0.14693773
7	0xbd9ff4cd	-0.07810364
8	0x3e8b0d68	0.27158666
9	0xbde1b6b6	-0.110211775
10	0xbe9b39f0	-0.3031764
11	0xbe8af4cf	-0.271399
12	0x3e7f635a	0.24940243
13	0x3ea6b611	0.3256078
14	0xbeaed4cf	-0.34146735
15	0x3d6f791e	0.058465116

q1.q.0.weight f4 [16, 3]
0	0x3eb27485	0.34854522
1	0x40389bc2	2.8845067
2	0x3f02df3b	0.5112187
3	0xbe82914c	-0.25501478
4	0x3fe0a293	1.7549614
5	0x3edf88ed	0.43659154
6	0x3f9d75b8	1.230155
7	0x3e608fb6	0.21929821
8	0x3fe2daf4	1.7723069
9	0xbde99366	-0.11405067
10	0x3fdcb88b	1.7243818
11	0xbf31ef2f	-0.6950559
12	0x3d67046b	0.056400698
13	0x400277ca	2.0385613
14	0x3f1a008a	0.6015707
15	0xbfc1e8af	-1.5149134
16	0x3ee25dfb	0.44212326
17	0x3faa190a	1.3288891
18	0x3fbe29f1	1.485655
19	0x3fe217ac	1.7663474
20	0x3ffb331b	1.9624971
21	0xbff7ed25	-1.9369246
22	0xbe4d1001	-0.20025636
23	0xbfc27df9	-1.5194694
24	0xbff66475	-1.9249407
25	0x3e0dc9b7	0.1384648
26	0x3ff5f337	1.9214848
27	0x3fd2b6f1	1.6462079
28	0x401b3a65	2.4254391
29	0x3febc491	1.8419362
30	0xbf603130	-0.87575054
31	0x4005a6ae	2.0882983
32	0xbf5fa339	-0.87358433
33	0xbf5d4252	-0.8642932
34	0x4033085f	2.797386
35	0xbf101304	-0.56279016
36	0xbfd911f6	-1.6958606
37	0xc0037597	-2.054052
38	0xbfda59e9	-1.7058688
39	0x3fe2c092	1.7715018
40	0x4026ff1e	2.609321
41	0x40031e7f	2.0487363
42	0x3ec34ddf	0.38145348
43	0x40166a9e	2.3502574
44	0xbf76813f	-0.96290964
45	0x3f94b50d	1.1617752
46	0x3fe32f7b	1.7748865
47	0x3f99953e	1.199867

q1.q.0.bias f4 [16]
0	0x402538d3	2.5815933
1	0x40119ad3	2.2750747
2	0xbdbc2bb6	-0.09188025
3	0xbe9e5be4	-0.30929482
4	0x40133786	2.300264
5	0xbcf73d0d	-0.030180478
6	0xbdca36c6	-0.098737285
7	0x3e083906	0.13303003
8	0xbc51b4ee	-0.012799485
9	0xbe2dfd9b	-0.16991274
10	0x40298cc9	2.6492178
11	0x402001de	2.500114
12	0x3e09bdb8	0.13451278
13	0xbe21e04f	-0.15808223
14	0x3ffb6b72	1.9642165
15	0xbddcac4e	-0.10775052

q1.q.2.weight f4 [16, 16]
0	0x3fe53ea2	1.7909739
1	0x3fd54133	1.6660522
2	0xbfe0ed24	-1.757237
3	0x40046acd	2.0690186
4	0x3fcf3c61	1.6190301
5	0x3fc45eb1	1.5341398
6	0xc0384b67	-2.8796022
7	0xbffdef6e	-1.9838693
8	0x3fad952f	1.3561152
9	0xc056c6db	-3.3558872
10	0x3fe97371	1.8238355
11	0x4000613a	2.0059342
12	0xc027c804	-2.621583
13	0xc05ca9a3	-3.4478538
14	0x3fb8e395	1.4444453
15	0xbf8156c1	-1.01046
16	0x3fb2c5f8	1.3966665
17	0x3fa98d9a	1.3246338
18	0xbfbebc01	-1.4901124
19	0x402a5023	2.6611412
20	0x3f8fea4e	1.1243379
21	0x3f0f275f	0.5591945
22	0xc02bb737	-2.6830575
23	0xbf9b0a72	-1.2112563
24	0x3ea7ddaa	0.32786304
25	0xc044ff31	-3.0780756
26	0x3fb3b54d	1.4039704
27	0x3faf5c5d	1.3700062
28	0xc0129b2b	-2.2907207
29	0xc0446852	-3.0688672
30	0x3ffea0de	1.9892843
31	0xbf3048f7	-0.68861336
32	0xbc49d8a6	-0.012319719
33	0xbe3a07a3	-0.18166976
34	0xbde0104e	-0.1094061
35	0x3cc60833	0.024173832
36	0xbe51bca7	-0.20482121
37	0x3de504b9	0.111825414
38	0xbe686a24	-0.2269674
39	0xbe873fea	-0.2641595
40	0xbe78bec0	-0.24291515
41	0xbd4fbb68	-0.050715834
42	0x3e02f12b	0.12787311
43	0xbe8ae2dd	-0.27126208
44	0x3e207acf	0.15671848
45	0xbdcccfcc	-0.100005716
46	0x3cec0c35	0.028814415
47	0xbcee7c47	-0.029111994
48	0x3ed99457	0.42495987
49	0x3f16156e	0.5862645
50	0x400873e1	2.1320727
51	0xbeb18afb	-0.34676346
52	0x3f40efa8	0.75365686
53	0xbd64f8f5	-0.055901486
54	0x403ff4d2	2.9993176
55	0xbe80b005	-0.25134292
56	0x3e559b4d	0.20860024
57	0x402f6d74	2.7410555
58	0xbf2a3c6e	-0.6649846
59	0xbf16ae93	-0.5886013
60	0x3ebe4847	0.37164518
61	0x403ec0be	2.980514
62	0xbf06746e	-0.5252141
63	0x3fdb3ad7	1.7127331
64	0x3e801f76	0.25024003
65	0x3d818653	0.063244484
66	0x3fd46bf4	1.6595445
67	0xc023a627	-2.5570161
68	0xbbfab83d	-0.0076513574
69	0xbd99f3b2	-0.07517184
70	0x4034180e	2.8139682
71	0x3ff037bc	1.8767009
72	0xbea6813a	-0.32520467
73	0x4037754f	2.866535
74	0xbe5e4e43	-0.21709542
75	0xbe15596d	-0.14584894
76	0x401f8da0	2.493019
77	0x402537b8	2.5815258
78	0x3dd25bf5	0.10271446
79	0x3f809838	1.0046453
80	0xbe1bcb92	-0.15214375
81	0xbe6384ec	-0.22218674
82	0x3de369b2	0.11104144
83	0xbd82f22c	-0.06393847
84	0x3e33d536	0.17561802
85	0x3e0755fd	0.13216396
86	0x3da2b5f6	0.079448625
87	0xbd5be498	-0.0536848
88	0xbdd5e466	-0.10443954
89	0xbdd1cfb0	-0.10244691
90	0xbc7d9cf8	-0.015479319
91	0x3d96ae57	0.073574714
92	0xbe70ce22	-0.23516133
93	0x3e11b419	0.14228858
94	0xbd8e9eef	-0.06963908
95	0xbe7b3f50	-0.2453587
96	0xbe0ec7ec	-0.13943452
97	0xbc17ae68	-0.00925789
98	0x3fdbff21	1.7187234
99	0xc02b4094	-2.6758165
100	0x3d1ae7cb	0.03781871
101	0xbf6b1086	-0.9182209
102	0x4032cf2c	2.7938948
103	0x40151a8a	2.3297448
104	0xbfa8b015	-1.3178736
105	0x403ad482	2.9192204
106	0x3de039cd	0.109485246
107	0x3cb11a0e	0.02161887
108	0x401cf988	2.4527302
109	0x4030b3a0	2.7609634
110	0x3e9d376b	0.30706343
111	0x3f80edf7	1.0072621
112	0xbe061639	-0.13094415
113	0x3cd8cbf1	0.026464434
114	0x3d520f95	0.05128439
115	0xbdfa2610	-0.12214291
116	0xbc789f6f	-0.015174731
117	0x3ddea485	0.10871223
118	0xbd859e76	-0.06524365
119	0x3d9bd1a8	0.07608348
120	0xbdc2a962	-0.095049635
121	0x3d41a911	0.047280375
122	0xbe55aaf0	-0.20865989
123	0xbe16890e	-0.1470072
124	0xbe01f174	-0.12689763
125	0x3e40d0d2	0.18829659
126	0xbdb6308b	-0.088959776
127	0xbd1bf0c5	-0.038071413
128	0xbc8285eb	-0.015932998
129	0x3e2e7dc3	0.17040162
130	0x3fda96e2	1.7077296
131	0xc00f017b	-2.2344654
132	0xbe494413	-0.19654875
133	0xbf820fdd	-1.0161091
134	0x40261bb3	2.5954406
135	0x3ffce013	1.9755882
136	0xbf90e027	-1.1318406
137	0x402c4eed	2.6923172
138	0x3deded11	0.116174825
139	0x3c921191	0.017830642
140	0x4016dfaa	2.3574014
141	0x402e5096	2.7236686
142	0xbcbbe7ff	-0.022937773
143	0x3f8e8877	1.1135396
144	0x3e84bab7	0.25923702
145	0xbeaf55da	-0.34245187
146	0x3fcc281a	1.5949738
147	0xc01c5a4e	-2.4430118
148	0x3e4a2960	0.19742346
149	0xbf92fc46	-1.1483238
150	0x401aaff1	2.4169886
151	0x401b6c44	2.428483
152	0xbfa71814	-1.3054223
153	0x403b5a50	2.9273872
154	0xbbf74833	-0.0075464486
155	0x3d74bd74	0.05975099
156	0x40165350	2.348835
157	0x4041b17b	3.0264575
158	0x3d88ca1e	0.06679176
159	0x3f61db97	0.8822569
160	0xbe0483cb	-0.129409
161	0xbe9ebf71	-0.31005433
162	0x3fd8414e	1.689493
163	0xc0263410	-2.5969276
164	0x3dc56518	0.09638423
165	0xbf8adf49	-1.0849391
166	0x402bb767	2.683069
167	0x40199af2	2.400082
168	0xbf85c29a	-1.0450013
169	0x40485109	3.129946
170	0x3e15b49e	0.14619681
171	0x3c15e0bb	0.009147818
172	0x4013dd55	2.310384
173	0x403999a4	2.9000025
174	0x3ea23a37	0.3168504
175	0x3f842844	1.0324788
176	0xbe7f88fa	-0.24954596
177	0x3d8498ed	0.06474481
178	0x3e86af22	0.2630549
179	0xbdcaae9e	-0.09896587
180	0xbe4bad8f	-0.19890426
181	0xbe897bf4	-0.2685238
182	0x3d804e90	0.062649846
183	0xbdd5ad7a	-0.10433479
184	0xbe27f246	-0.16401014
185	0x3d4efba8	0.050532967
186	0x3ca68ad8	0.020329878
187	0x3e05c03c	0.13061613
188	0x3de2721d	0.11056922
189	0xbd1946b0	-0.03742093
190	0xbe8cd125	-0.27503315
191	0xbe8fd9bf	-0.28095815
192	0x3ff1cf97	1.8891476
193	0x3fe43123	1.7827495
194	0xbfee3810	-1.8610859
195	0x3fdeb9f0	1.7400494
196	0x3ff19702	1.8874209
197	0x3fbabac4	1.4588246
198	0xc02f7351	-2.7414134
199	0xbffeba74	-1.9900651
200	0x3f85aa0b	1.0442518
201	0xc0527a31	-3.288708
202	0x4009d8e9	2.1538641
203	0x3fdecd73	1.7406448
204	0xc02796d2	-2.6185803
205	0xc03fc6a8	-2.9965
206	0x3fbc33aa	1.4703267
207	0xbf83f0cf	-1.0307864
208	0xbf076fbd	-0.52904874
209	0xbe4082b2	-0.18799856
210	0x3d8fed4a	0.07027681
211	0xc01e9278	-2.4776897
212	0xbf1d7dc6	-0.6152004
213	0xbf3d64fd	-0.7398222
214	0x3ffb5755	1.9636027
215	0x3ff2b2c5	1.8960806
216	0xbf801cd4	-1.0008798
217	0x401fdd14	2.4978685
218	0x3f2ef7fe	0.68347156
219	0x3f0b5560	0.54427147
220	0x4017b7f0	2.3706017
221	0x400ce0fe	2.2012324
222	0x3e52050d	0.20509739
223	0x3f09b756	0.53795373
224	0xbdfa433d	-0.12219856
225	0x3dbae2dd	0.09125302
226	0x3fbde132	1.4834349
227	0xc02fa5af	-2.7444875
228	0xbd88db62	-0.06682469
229	0xbf03c86c	-0.51477695
230	0x402b9b44	2.6813517
231	0x40003c75	2.00369
232	0xbf416fdb	-0.755613
233	0x4037debc	2.8729696
234	0xbd5da13c	-0.054108843
235	0x3c7f1f61	0.015571446
236	0x40005403	2.0051277
237	0x4025d987	2.5914018
238	0x3e747fc8	0.2387687
239	0x3f6603dd	0.89849645
240	0x3fde2b79	1.7357017
241	0x3feaa3a4	1.8331189
242	0xbfebadf2	-1.8412459
243	0x3fe6b883	1.8025059
244	0x3ffc4113	1.9707359
245	0x3f932483	1.1495517
246	0xc02a4a20	-2.6607742
247	0xbffa2a3f	-1.9544142
248	0x3f922905	1.1418768
249	0xc03a7cad	-2.9138596
250	0x3ff62ce0	1.9232445
251	0x400ce73b	2.2016132
252	0xc02ddeab	-2.7167156
253	0xc04eb973	-3.230069
254	0x3fb7d810	1.4362812
255	0xbf3ea1d5	-0.74465686

q1.q.2.bias f4 [16]
0	0x3feef000	1.8666992
1	0x3fb9268a	1.4464886
2	0x3d5929ef	0.053018507
3	0xbe1f703f	-0.15570162
4	0xbd4c53a1	-0.049884442
5	0x3e0ea53c	0.1393022
6	0xbe84e742	-0.25957686
7	0xbc1ee02e	-0.009697003
8	0x3e34fc40	0.1767435
9	0xbe16afb1	-0.14715458
10	0x3db93016	0.09042375
11	0xbe11f933	-0.14255218
12	0x3feb315b	1.8374437
13	0xbd30ca31	-0.043161575
14	0xbdcf2b63	-0.10115697
15	0x3fd671e8	1.6753511

q1.q.4.weight f4 [1, 16]
0	0x402276d8	2.5385036
1	0x404ebf2f	3.230419
2	0x3e29a6c4	0.16567522
3	0xc02c46e5	-2.691827
4	0xc02e4db2	-2.7234921
5	0x3e0b00b1	0.13574483
6	0xc0368bb1	-2.852276
7	0x3e4151cd	0.18878861
8	0xc0348bb8	-2.8210278
9	0xc0310bad	-2.7663376
10	0xc0234b62	-2.551476
11	0x3d4a1f99	0.04934654
12	0x4027f551	2.624348
13	0xc0377e8c	-2.8670988
14	0xc042ef85	-3.045869
15	0x403153e8	2.7707462

q2.q.0.weight f4 [16, 3]
0	0x3fc2775b	1.5192674
1	0x3f8ad225	1.0845381
2	0x40072118	2.111395
3	0xbf86bc85	-1.0526282
4	0x3eedeca8	0.46469617
5	0xbfc40461	-1.5313836
6	0x3ecf82b4	0.40529406
7	0xbedb2ceb	-0.42807707
8	0x3e07e6e4	0.13271672
9	0x3e19d7b6	0.15023693
10	0x4027801b	2.617194
11	0x3f01180f	0.50427336
12	0xbf72de89	-0.9487081
13	0x3feabb5b	1.8338426
14	0xbfdd9d00	-1.7313538
15	0xbfe41293	-1.7818168
16	0x3f41012e	0.75392425
17	0x3ff2923c	1.8950877
18	0xbf346e99	-0.7048126
19	0x402ecbaf	2.7311819
20	0xbf9620e7	-1.1728791
21	0xbfbe86a2	-1.4884837
22	0xc00cad91	-2.1980937
23	0xbfcd0550	-1.6017246
24	0x3fca8ace	1.582361
25	0x3f69bb74	0.91301656
26	0x3fcd98ad	1.6062218
27	0x3f4df505	0.80451995
28	0x4045aa91	3.0885355
29	0x3fd92b84	1.6966405
30	0x3fd05789	1.6276714
31	0x3faf1f0b	1.3681349
32	0x3fd6e143	1.6787494
33	0xbfb64281	-1.4239045
34	0x3fa4f95e	1.2888601
35	0x3ee31ab5	0.44356313
36	0x400591f7	2.087034
37	0x40057659	2.0853484
38	0x400fb248	2.2452564
39	0xbfa184f1	-1.2618695
40	0x3fb19c97	1.3875912
41	0x3f4e80da	0.8066536
42	0xbfc2cbcd	-1.5218445
43	0xbf8ce052	-1.1005957
44	0xbfc4c321	-1.5372049
45	0x3f459bf9	0.7719112
46	0x3f7bbbd5	0.98333484
47	0xc000fe24	-2.0155115

q2.q.0.bias f4 [16]
0	0xbddc1cd4	-0.10747686
1	0x3d5936bd	0.053030718
2	0xbeea903c	-0.45813167
3	0x403f3293	2.9874618
4	0x4014c211	2.3243449
5	0xbcfc01c9	-0.03076257
6	0x402c93de	2.696525
7	0x3d855cf1	0.06511868
8	0xbe173730	-0.14767146
9	0x3fad99da	1.3562577
10	0xbdfe6225	-0.12421063
11	0x3fb421fa	1.4072869
12	0xbe1ffc12	-0.15623501
13	0x3fc8be4d	1.5683075
14	0x3dce0cf3	0.100610636
15	0x3ffa28e3	1.9543728

q2.q.2.weight f4 [16, 16]
0	0x4016e6c6	2.3578353
1	0x3f82592a	1.0183461
2	0xbddda7e8	-0.10823041
3	0x3f5d6b5e	0.86491954
4	0xbfa98bb1	-1.3245755
5	0xbe51954b	-0.20467107
6	0xbf1b6802	-0.6070558
7	0xbddc33cb	-0.10752066
8	0x3ff4514b	1.9087309
9	0x3fd66fe3	1.6752895
10	0x402de6c0	2.7172089
11	0xbf0021fa	-0.50051844
12	0x404a4f6f	3.1610982
13	0x3e442a3a	0.19156733
14	0xbf7b8f07	-0.9826512
15	0xbe2fdaf7	-0.17173372
16	0xbfa1a136	-1.2627323
17	0xbfa67d24	-1.300694
18	0x3e0c56b8	0.13704956
19	0x402f423a	2.7384171
20	0x40226e71	2.5379908
21	0x3fba5c08	1.4559336
22	0x4033b77d	2.8080742
23	0xc007d738	-2.122511
24	0xbfb76637	-1.4328068
25	0x3fb667ae	1.425039
26	0xc03041ba	-2.7540116
27	0x3ff9190a	1.9460766
28	0xc04a8ed1	-3.1649668
29	0x3fe9b225	1.825749
30	0xbfac3aa7	-1.3455399
31	0x3feeaf73	1.8647293
32	0x3ff51a20	1.9148598
33	0x3f9a31da	1.2046463
34	0x3c54dd20	0.012992173
35	0xbcffa571	-0.031206818
36	0xbd08ce93	-0.03340013
37	0xbf41a85e	-0.7564753
38	0x3e818171	0.25294068
39	0x3ff5fb10	1.9217243
40	0x3fca21c6	1.5791557
41	0x3f69a56a	0.91268027
42	0x400580d6	2.0859885
43	0xbeac474b	-0.33648142
44	0x4047d19f	3.1221693
45	0xbe5cebfb	-0.21574394
46	0x3fc16571	1.5109082
47	0xbed3848f	-0.41312072
48	0xbfb9f8bd	-1.4529034
49	0xbf87fc0f	-1.0623797
50	0x3a3a4400	0.00071054697
51	0x40177776	2.3666663
52	0x40234492	2.5510602
53	0x3f6c663f	0.92343515
54	0x40189c4a	2.3845391
55	0xbff501b8	-1.914115
56	0xbfdcce79	-1.725051
57	0x3f81a976	1.012984
58	0xc00290b5	-2.0400822
59	0x3f9300a8	1.1484575
60	0xc047ec1e	-3.1237864
61	0x3fb2ecb4	1.3978486
62	0xbfa15f70	-1.260725
63	0x40164fb0	2.3486137
64	0xbc9a2a1a	-0.018818904
65	0x3da19f58	0.078917205
66	0x3e7d84b8	0.2475766
67	0xbdbccf18	-0.092191875
68	0x3dddb447	0.10825401
69	0xbd8a87b3	-0.06764164
70	0xbd8a245d	-0.06745217
71	0xbd8a9718	-0.067671
72	0xbd17f0af	-0.037094768
73	0xbdd6145d	-0.10453103
74	0x3d3c7e59	0.046018932
75	0xbcab8cdf	-0.020941196
76	0x3e20aa3b	0.15689938
77	0xbd902012	-0.07037367
78	0xbb157293	-0.0022803887
79	0xbdfb571c	-0.12272474
80	0x40012d9d	2.018409
81	0x3fe22952	1.766886
82	0x3d030768	0.031989485
83	0xbdbd3da8	-0.092402756
84	0xbe957990	-0.29194307
85	0xbe1c1012	-0.15240505
86	0xbe23e8cc	-0.16006774
87	0x40050512	2.0784345
88	0x3fd68a8e	1.6761034
89	0x3fa6195e	1.2976491
90	0x40181375	2.3761876
91	0xbe77a6ad	-0.24184676
92	0x4060367a	3.503325
93	0x3da1c1fe	0.07898329
94	0x3fa475de	1.284847
95	0xbd5b2cc7	-0.0535095
96	0x40046a78	2.0689983
97	0x3fcca5ed	1.5988137
98	0xbdd829fc	-0.10554883
99	0xbe3e30a3	-0.18573241
100	0x3e079134	0.13238984
101	0xbf95c6a7	-1.1701249
102	0x3d952732	0.072828665
103	0x3fe9eb8f	1.8275012
104	0x3ff496f4	1.9108567
105	0x3f5582ad	0.8340252
106	0x401d0aa6	2.453775
107	0x3dabe637	0.08393519
108	0x405303bc	3.297103
109	0xbe4a8b9e	-0.19779822
110	0x3fdd2e1e	1.7279699
111	0xbeadfcf5	-0.33982053
112	0xbd6d04fc	-0.05786608
113	0xbde03514	-0.10947624
114	0xbd0d5ab0	-0.034510314
115	0x3c3d12d2	0.011540132
116	0xbadfe9b9	-0.0017083205
117	0xbdb3e5d1	-0.087840684
118	0xbe92edc6	-0.28697032
119	0x3c51bb60	0.012801021
120	0xbbf2a9c0	-0.0074054897
121	0xbada7548	-0.0016667033
122	0x3e4428fa	0.19156256
123	0x3e4e41a5	0.20142229
124	0xbe17e15c	-0.14832062
125	0xbd67cb71	-0.0565905
126	0xbdcd2518	-0.10016841
127	0xbe6bf0f8	-0.23041141
128	0x3fcf6cd8	1.6205091
129	0x3fce8414	1.6134057
130	0x3e15437e	0.14576527
131	0xbe80e681	-0.2517586
132	0x3e1f71ab	0.15570705
133	0xbf9b4ac6	-1.2132194
134	0x3dbd83d8	0.09253663
135	0x400e224b	2.220843
136	0x3fc84646	1.5646446
137	0x3f81b3db	1.0133013
138	0x40135edf	2.3026655
139	0x3d6052f1	0.0547666
140	0x404cfd40	3.2029572
141	0xbdbe0956	-0.092791244
142	0x3fa8a83c	1.3176341
143	0xbe95fc17	-0.29293892
144	0x40042e1e	2.0653148
145	0x3fbaaf77	1.4584798
146	0x3e56390e	0.20920202
147	0x3d2b13c2	0.04176689
148	0x3dbfef2e	0.09371792
149	0xbf4a478d	-0.7901543
150	0x3db9a2cf	0.090642564
151	0x3febb530	1.8414669
152	0x3fb9c118	1.4512053
153	0x3f84a287	1.03621
154	0x400f0ded	2.235225
155	0xbed753ad	-0.42056027
156	0x405cc3e2	3.4494557
157	0xbe3721e6	-0.17884025
158	0x3fb7efee	1.4370096
159	0xbed4192a	-0.4142545
160	0x4007dfdd	2.1230385
161	0x3fb3f202	1.405823
162	0xbe607f1a	-0.21923485
163	0xbe3ef3ba	-0.18647662
164	0x3d29c5be	0.041448347
165	0xbf33ffd1	-0.7031222
166	0x3e00682e	0.12539741
167	0x3fbbd01f	1.4672889
168	0x3fad1ef8	1.3525076
169	0x3f983e26	1.1893966
170	0x401496ef	2.3217123
171	0xbe8e08f1	-0.27741197
172	0x404a081c	3.156745
173	0xbe8a3d5d	-0.2699994
174	0x3fb871a6	1.4409683
175	0xbea8fd3c	-0.33005702
176	0x400c9233	2.1964233
177	0x3f907e71	1.1288587
178	0xbe7671f2	-0.24066904
179	0x3cd7dfb9	0.026351796
180	0x3e40def8	0.18835056
181	0xbf3a6498	-0.72809744
182	0x3e24eeec	0.16106766
183	0x3fe075f3	1.7535995
184	0x3ff14ae5	1.8850981
185	0x3f473a1f	0.7782306
186	0x40124084	2.2851877
187	0xbeb78b24	-0.35848343
188	0x4043d916	3.0601249
189	0xbe255cb5	-0.16148646
190	0x3fb04c21	1.3773233
191	0xbecc122d	-0.39857617
192	0xbe86f431	-0.26358178
193	0xbe716024	-0.23571831
194	0x3dc65474	0.09684077
195	0xbe079fc3	-0.13244538
196	0xbe1bbf6c	-0.1520974
197	0xbdca06b0	-0.09864557
198	0xbe6c8f96	-0.23101649
199	0xbe4ca57e	-0.19985005
200	0x3dfbd63b	0.122967206
201	0x3dcdb0c1	0.10043479
202	0x3bdab99a	0.0066749575
203	0xbe0bd7ac	-0.13656491
204	0x3d67a045	0.05654933
205	0x3c380380	0.011231303
206	0xbe36f4cc	-0.1786682
207	0x3cde96fb	0.027171602
208	0xbf9bb1b5	-1.2163607
209	0xbfad171c	-1.3522677
210	0xbe7e907c	-0.24859804
211	0x402712fa	2.6105332
212	0x401915d1	2.3919566
213	0x3fbea8e9	1.4895297
214	0x40197bb7	2.398176
215	0xbfe23733	-1.7673095
216	0xbfb59084	-1.4184728
217	0x3fd60ec7	1.672326
218	0xbffb863b	-1.9650339
219	0x3ffc78e2	1.972439
220	0xc05a2f91	-3.4091532
221	0x3feaf183	1.8354954
222	0xbf8ced1a	-1.1009858
223	0x400c0804	2.1879892
224	0xbeea76d8	-0.45793796
225	0x3fa56506	1.2921455
226	0xbd94a660	-0.07258296
227	0xbf941804	-1.1569829
228	0x3f4e30e1	0.80543333
229	0xbf10788b	-0.56433934
230	0x3f1d7e95	0.61521274
231	0x3ff5db68	1.9207582
232	0xbeaeaedb	-0.3411778
233	0xbf3d5b79	-0.739677
234	0x3e0acd9b	0.13554995
235	0x3f310883	0.6915361
236	0x40057fa7	2.0859163
237	0x3eb91bf9	0.36154154
238	0x3fca4a81	1.5803987
239	0xbd1d9e71	-0.03848118
240	0x3e2d65bc	0.1693334
241	0x3c5fd380	0.013661265
242	0x3d403240	0.046922922
243	0xbda4abb8	-0.08040565
244	0x3a6b3200	0.0008971989
245	0xbd44e340	-0.048068285
246	0xbcae1d90	-0.02125433
247	0xbe47a62c	-0.19496983
248	0xbac98500	-0.001537472
249	0xbe547dc8	-0.20751107
250	0xbd5c4b40	-0.0537827
251	0x3e145d24	0.14488655
252	0xbe32027a	-0.17383757
253	0xbe2c8ea8	-0.16851294
254	0xbd7a0968	-0.061044127
255	0xbd8c5b4c	-0.06853351

q2.q.2.bias f4 [16]
0	0x3e51f9ec	0.20505494
1	0x401980af	2.3984792
2	0xbdbaac7e	-0.091149315
3	0x3ff0ed49	1.8822414
4	0xbd431b74	-0.047633603
5	0xbe04a381	-0.12952997
6	0x3d01ee37	0.03172132
7	0xbd6b72dc	-0.057482585
8	0xbeacd9c3	-0.3375989
9	0xbe9755be	-0.29557604
10	0xbd828d02	-0.06374551
11	0xbed8c386	-0.42336673
12	0xbe2fd1eb	-0.17169921
13	0x401172b0	2.272625
14	0xbe799ec3	-0.24376969
15	0xbe71caaa	-0.23612466

q2.q.4.weight f4 [1, 16]
0	0xc054f196	-3.3272452
1	0x403f4deb	2.9891307
2	0xc01a2aa6	-2.408853
3	0x40343d34	2.8162355
4	0x3e34d9b3	0.1766117
5	0xc0201b8d	-2.5016816
6	0xc0153713	-2.3314865
7	0xbd479eb9	-0.048735354
8	0xc0256892	-2.5845075
9	0xc01aa17c	-2.4161062
10	0xc020c82f	-2.5122182
11	0xc01a175b	-2.4076755
12	0xbe39ad43	-0.181325
13	0x4028ca6a	2.6373544
14	0xc00d012d	-2.2031968
15	0x3e69de02	0.22838596

exp_avg f4 [16, 2]
0	0x00000000	0.0
1	0x00000000	0.0
2	0xbee8d7be	-0.45477098
3	0x3cc65710	0.024211437
4	0xbecc5a6c	-0.39912736
5	0x3ca4a22b	0.020096859
6	0x00000000	0.0
7	0x00000000	0.0
8	0x00000000	0.0
9	0x00000000	0.0
10	0xbe36b9b0	-0.17844272
11	0xbbfadc48	-0.007655654
12	0x3d155f77	0.036467995
13	0xbd64348e	-0.055714183
14	0xbddaee01	-0.10689927
15	0xbb90eea0	-0.0044229776
16	0xbcca324a	-0.024682183
17	0xbcd65034	-0.02616129
18	0xbe9ec0fb	-0.31006607
19	0xbcd1684c	-0.025562428
20	0xbc536cc6	-0.012904352
21	0x3d7f6702	0.062354095
22	0x00000000	0.0
23	0x00000000	0.0
24	0x00000000	0.0
25	0x00000000	0.0
26	0x00000000	0.0
27	0x00000000	0.0
28	0xbef8cd67	-0.4859421
29	0xbcb02018	-0.021499678
30	0xbd84d20a	-0.06485374
31	0xbb247ab8	-0.002509756

exp_avg_sq f4 [16, 2]
0	0x00000000	0.0
1	0x00000000	0.0
2	0x3fa5576a	1.2917302
3	0x3bfe90e0	0.0077687353
4	0x3efdd16b	0.49573836
5	0x3bbf7fc0	0.0058440864
6	0x00000000	0.0
7	0x00000000	0.0
8	0x00000000	0.0
9	0x00000000	0.0
10	0x3f005a6b	0.50137967
11	0x3ea67ec9	0.32518604
12	0x3e99c484	0.30032742
13	0x3de5f50d	0.1122838
14	0x3e4b0b52	0.19828537
15	0x3dff5c09	0.12468726
16	0x3ee61084	0.44934475
17	0x3efd6a04	0.49494946
18	0x3f0b8d61	0.545126
19	0x3be09ecb	0.006854867
20	0x406a301f	3.659187
21	0x4050bdf4	3.2615938
22	0x00000000	0.0
23	0x00000000	0.0
24	0x00000000	0.0
25	0x00000000	0.0
26	0x00000000	0.0
27	0x00000000	0.0
28	0x407f9b51	3.9938548
29	0x4020e6da	2.51409
30	0x3dc46ddf	0.09591269
31	0x3d622dad	0.05521934

exp_avg f4 [16]
0	0x00000000	0.0
1	0x3e8913c2	0.26772887
2	0x3e748e21	0.23882343
3	0x00000000	0.0
4	0x00000000	0.0
5	0x3f406760	0.7515774
6	0xbf46d336	-0.7766603
7	0x3ee78d42	0.4522496
8	0xbf2e713a	-0.6814152
9	0x3e70e828	0.2352606
10	0xc000b4df	-2.0110395
11	0x00000000	0.0
12	0x00000000	0.0
13	0x00000000	0.0
14	0x40027023	2.0380943
15	0x3e8d9629	0.27653626

exp_avg_sq f4 [16]
0	0x00000000	0.0
1	0x3ef07db4	0.46970904
2	0x3e30979f	0.17245339
3	0x00000000	0.0
4	0x00000000	0.0
5	0x4266ed64	57.731827
6	0x419db7f3	19.714819
7	0x41b0a6ce	22.081448
8	0x42b30874	89.51651
9	0x3e9f00bb	0.31055245
10	0x44119ff0	582.499
11	0x00000000	0.0
12	0x00000000	0.0
13	0x00000000	0.0
14	0x43dee926	445.82147
15	0x411b593c	9.709286

exp_avg f4 [16, 16]
0	0x00000000	0.0
1	0x3bbccaa1	0.00576146
2	0x39e98afd	0.00044544777
3	0x00000000	0.0
4	0x00000000	0.0
5	0x3f0fe38c	0.56206584
6	0x3dd9f5b2	0.10642566
7	0x3efdc26a	0.4956239
8	0x3d847d68	0.06469232
9	0x3d6270ba	0.055283286
10	0x3e4fd259	0.20295085
11	0x00000000	0.0
12	0x00000000	0.0
13	0x00000000	0.0
14	0x3ed45416	0.41470402
15	0x3eff4e15	0.4986426
16	0x00000000	0.0
17	0x00000000	0.0
18	0x00000000	0.0
19	0x00000000	0.0
20	0x00000000	0.0
21	0x00000004	6e-45
22	0x00000000	0.0
23	0x00000004	6e-45
24	0x00000004	6e-45
25	0x00000000	0.0
26	0x00000004	6e-45
27	0x00000000	0.0
28	0x00000000	0.0
29	0x00000000	0.0
30	0x00000000	0.0
31	0x00000004	6e-45
32	0x00000000	0.0
33	0xbc498aff	-0.012301206
34	0xba78fcba	-0.00094981084
35	0x00000000	0.0
36	0x00000000	0.0
37	0xbf995648	-1.1979456
38	0xbe685830	-0.22689891
39	0xbf8734ec	-1.0563025
40	0xbe0ce683	-0.13759808
41	0xbdf1ae5e	-0.11800836
42	0xbedd217e	-0.43189615
43	0x00000000	0.0
44	0x00000000	0.0
45	0x00000000	0.0
46	0xbf624e1c	-0.88400435
47	0xbf88039a	-1.0626099
48	0x00000000	0.0
49	0xbb9fabbf	-0.0048727687
50	0xb9c5aa70	-0.00037701754
51	0x00000000	0.0
52	0x00000000	0.0
53	0xbef2c3e7	-0.47415087
54	0xbdb80a08	-0.08986288
55	0xbed60f06	-0.41808337
56	0xbd5f00a5	-0.054443974
57	0xbd3f733b	-0.04674075
58	0xbe2ef9f0	-0.17087531
59	0x00000000	0.0
60	0x00000000	0.0
61	0x00000000	0.0
62	0xbeb326cf	-0.34990546
63	0xbed7542a	-0.420564
64	0x00000000	0.0
65	0x00000004	6e-45
66	0x00000004	6e-45
67	0x00000000	0.0
68	0x00000000	0.0
69	0x00000004	6e-45
70	0x00000004	6e-45
71	0x00000004	6e-45
72	0x00000004	6e-45
73	0x00000004	6e-45
74	0x00000004	6e-45
75	0x00000000	0.0
76	0x00000000	0.0
77	0x00000000	0.0
78	0x00000004	6e-45
79	0x00000004	6e-45
80	0x00000000	0.0
81	0x3c527580	0.012845397
82	0x3a822f5c	0.0009932327
83	0x00000000	0.0
84	0x00000000	0.0
85	0x3fa052da	1.2525284
86	0x3e72e620	0.23720598
87	0x3f8d5ed4	1.1044564
88	0x3e1394cd	0.14412232
89	0x3dfc65a1	0.12324072
90	0x3ee77efc	0.4521407
91	0x00000000	0.0
92	0x00000000	0.0
93	0x00000000	0.0
94	0x3f6c95f4	0.9241631
95	0x3f8e3a50	1.1111546
96	0x00000000	0.0
97	0x00000000	0.0
98	0x00000000	0.0
99	0x00000000	0.0
100	0x00000000	0.0
101	0x00000000	0.0
102	0x00000000	0.0
103	0x00000000	0.0
104	0x00000000	0.0
105	0x00000000	0.0
106	0x00000000	0.0
107	0x00000000	0.0
108	0x00000000	0.0
109	0x00000000	0.0
110	0x00000000	0.0
111	0x00000000	0.0
112	0x00000000	0.0
113	0xbb2c50f7	-0.0026293376
114	0xb9540c03	-0.0002022237
115	0x00000000	0.0
116	0x00000000	0.0
117	0xbe82c9bc	-0.25544536
118	0xbd462b7d	-0.048381317
119	0xbe66a312	-0.22523144
120	0xbcef8713	-0.029239213
121	0xbcce98dc	-0.025219373
122	0xbdbc271e	-0.091871485
123	0x00000000	0.0
124	0x00000000	0.0
125	0x00000000	0.0
126	0xbe4112c9	-0.18854822
127	0xbe67f89e	-0.22653434
128	0x00000000	0.0
129	0x3c160e7c	0.009158727
130	0x3a39a08a	0.0007081112
131	0x00000000	0.0
132	0x00000000	0.0
133	0x3f64a8c5	0.8932002
134	0x3e2d3408	0.1691438
135	0x3f49a0cc	0.7876098
136	0x3dd281f5	0.102786936
137	0x3db3f73f	0.08787393
138	0x3ea5198d	0.32246056
139	0x00000000	0.0
140	0x00000000	0.0
141	0x00000000	0.0
142	0x3f28b64e	0.65903175
143	0x3f4ada51	0.79239374
144	0x00000000	0.0
145	0x00000004	6e-45
146	0x00000004	6e-45
147	0x00000000	0.0
148	0x00000000	0.0
149	0x00000004	6e-45
150	0x00000004	6e-45
151	0x00000004	6e-45
152	0x00000000	0.0
153	0x00000004	6e-45
154	0x00000004	6e-45
155	0x00000000	0.0
156	0x00000000	0.0
157	0x00000000	0.0
158	0x00000004	6e-45
159	0x00000004	6e-45
160	0x00000000	0.0
161	0xbc275e13	-0.0102153
162	0xba4ed931	-0.00078906404
163	0x00000000	0.0
164	0x00000000	0.0
165	0xbf7ea3a6	-0.9946846
166	0xbe40f116	-0.18841967
167	0xbf6087de	-0.87707317
168	0xbde9f93d	-0.114244916
169	0xbdc8b2be	-0.09799717
170	0xbeb798ed	-0.3585886
171	0x00000000	0.0
172	0x00000000	0.0
173	0x00000000	0.0
174	0xbf3be879	-0.734016
175	0xbf61deba	-0.8823048
176	0x00000000	0.0
177	0xbc15d4f1	-0.0091450075
178	0xba3911de	-0.00070598524
179	0x00000000	0.0
180	0x00000000	0.0
181	0xbf63ed66	-0.89034116
182	0xbe2cb185	-0.16864593
183	0xbf48fa11	-0.7850657
184	0xbdd15aab	-0.10222372
185	0xbdb3ab9e	-0.08772968
186	0xbea44d6e	-0.32090324
187	0x00000000	0.0
188	0x00000000	0.0
189	0x00000000	0.0
190	0xbf283354	-0.6570332
191	0xbf4a2c38	-0.7897372
192	0x00000000	0.0
193	0x00000000	0.0
194	0x00000000	0.0
195	0x00000000	0.0
196	0x00000000	0.0
197	0x00000000	0.0
198	0x00000000	0.0
199	0x00000000	0.0
200	0x00000000	0.0
201	0x00000000	0.0
202	0x00000000	0.0
203	0x00000000	0.0
204	0x00000000	0.0
205	0x00000000	0.0
206	0x00000000	0.0
207	0x00000000	0.0
208	0x00000000	0.0
209	0x3c33e143	0.010979
210	0x3a5e79d7	0.00084867835
211	0x00000000	0.0
212	0x00000000	0.0
213	0x3f890a49	1.0706264
214	0x3e4f9b36	0.20274052
215	0x3f71adde	0.94405925
216	0x3dfc4d75	0.12319461
217	0x3dd7ba14	0.105335385
218	0x3ec5e220	0.38649082
219	0x00000000	0.0
220	0x00000000	0.0
221	0x00000000	0.0
222	0x3f4a39e5	0.7899459
223	0x3f732540	0.94978714
224	0x00000000	0.0
225	0xbc3c7a94	-0.011503834
226	0xba69137f	-0.000889115
227	0x00000000	0.0
228	0x00000000	0.0
229	0xbf8f68f6	-1.1203907
230	0xbe5955be	-0.21224114
231	0xbf7ce846	-0.9879192
232	0xbe03d60d	-0.12874623
233	0xbde201d2	-0.110355034
234	0xbecedd8b	-0.404034
235	0x00000000	0.0
236	0x00000000	0.0
237	0x00000000	0.0
238	0xbf53a5e9	-0.82675034
239	0xbf7e6bc4	-0.9938319
240	0x00000000	0.0
241	0x00000000	0.0
242	0x00000000	0.0
243	0x00000000	0.0
244	0x00000000	0.0
245	0x00000004	6e-45
246	0x00000004	6e-45
247	0x00000004	6e-45
248	0x00000004	6e-45
249	0x00000000	0.0
250	0x00000004	6e-45
251	0x00000000	0.0
252	0x00000000	0.0
253	0x00000000	0.0
254	0x00000004	6e-45
255	0x00000004	6e-45

exp_avg_sq f4 [16, 16]
0	0x00000000	0.0
1	0x3986f902	0.00025743997
2	0x383e4938	4.536772e-05
3	0x00000000	0.0
4	0x00000000	0.0
5	0x41bc532b	23.54061
6	0x3f83076a	1.0236638
7	0x4197c102	18.969242
8	0x3fe49066	1.7856567
9	0x3c6854fb	0.014180417
10	0x413046da	11.017298
11	0x00000000	0.0
12	0x00000000	0.0
13	0x00000000	0.0
14	0x41298b9e	10.596586
15	0x41aec6b4	21.847023
16	0x00000000	0.0
17	0x00000000	0.0
18	0x00000000	0.0
19	0x00000000	0.0
20	0x00000000	0.0
21	0x2a5d3e48	1.9650351e-13
22	0x00000000	0.0
23	0x2a22a2e4	1.4445004e-13
24	0x2b14a500	5.2809146e-13
25	0x00000000	0.0
26	0x2bc79b0e	1.4182837e-12
27	0x00000000	0.0
28	0x00000000	0.0
29	0x00000000	0.0
30	0x00000000	0.0
31	0x2b101528	5.1188437e-13
32	0x00000000	0.0
33	0x3a9968e6	0.0011704236
34	0x3954df4f	0.00020301084
35	0x00000000	0.0
36	0x00000000	0.0
37	0x42d51155	106.53385
38	0x40941b77	4.6283526
39	0x42abb1c1	85.847176
40	0x41012c3f	8.073302
41	0x3d83f44a	0.06443079
42	0x42475954	49.837234
43	0x00000000	0.0
44	0x00000000	0.0
45	0x00000000	0.0
46	0x423fda36	47.963097
47	0x42c5bb5c	98.86594
48	0x00000000	0.0
49	0x3947bf52	0.00019049391
50	0x380d7a34	3.373083e-05
51	0x00000000	0.0
52	0x00000000	0.0
53	0x4188f821	17.121157
54	0x3f4226b0	0.7584028
55	0x415cbf4a	13.796701
56	0x3fa6e6de	1.3039205
57	0x3c2b73ab	0.010464589
58	0x41004351	8.016435
59	0x00000000	0.0
60	0x00000000	0.0
61	0x00000000	0.0
62	0x40f69257	7.7053638
63	0x417e4276	15.891226
64	0x00000000	0.0
65	0x321fee60	9.309218e-09
66	0x2d66490e	1.3090208e-11
67	0x00000000	0.0
68	0x00000000	0.0
69	0x32b64887	2.122057e-08
70	0x333cd70e	4.3967752e-08
71	0x3299e69e	1.7916417e-08
72	0x2e57598d	4.8964877e-11
73	0x31a52b23	4.807036e-09
74	0x2ef19a49	1.0986818e-10
75	0x00000000	0.0
76	0x00000000	0.0
77	0x00000000	0.0
78	0x3306620b	3.1288476e-08
79	0x32d16f60	2.438145e-08
80	0x00000000	0.0
81	0x3aa8523f	0.0012841894
82	0x396cc7c8	0.00022581138
83	0x00000000	0.0
84	0x00000000	0.0
85	0x42e9840d	116.75791
86	0x40a2dfb6	5.0898085
87	0x42bc2b88	94.08502
88	0x410dba5a	8.857996
89	0x3d909718	0.07060069
90	0x425a8e26	54.638817
91	0x00000000	0.0
92	0x00000000	0.0
93	0x00000000	0.0
94	0x42523bb3	52.5583
95	0x42d8b701	108.35743
96	0x00000000	0.0
97	0x00000000	0.0
98	0x00000000	0.0
99	0x00000000	0.0
100	0x00000000	0.0
101	0x00000000	0.0
102	0x00000000	0.0
103	0x00000000	0.0
104	0x00000000	0.0
105	0x00000000	0.0
106	0x00000000	0.0
107	0x00000000	0.0
108	0x00000000	0.0
109	0x00000000	0.0
110	0x00000000	0.0
111	0x00000000	0.0
112	0x00000000	0.0
113	0x3862d365	5.4079475e-05
114	0x3718830d	9.090419e-06
115	0x00000000	0.0
116	0x00000000	0.0
117	0x409d84a5	4.922442
118	0x3e588b11	0.211468
119	0x407ddf28	3.9667454
120	0x3ebe3247	0.37147734
121	0x3b4318b2	0.0029769358
122	0x4013219e	2.2989268
123	0x00000000	0.0
124	0x00000000	0.0
125	0x00000000	0.0
126	0x400de980	2.2173767
127	0x4092289c	4.567457
128	0x00000000	0.0
129	0x3a2bb38c	0.0006549887
130	0x38f21991	0.00011544221
131	0x00000000	0.0
132	0x00000000	0.0
133	0x426e3a94	59.557205
134	0x4026592f	2.5991933
135	0x423ff7d0	47.992004
136	0x4090a2df	4.5198817
137	0x3d1392f6	0.036028825
138	0x41def97c	27.871819
139	0x00000000	0.0
140	0x00000000	0.0
141	0x00000000	0.0
142	0x41d67976	26.809307
143	0x425d1757	55.272793
144	0x00000000	0.0
145	0x30e1d5c3	1.6431659e-09
146	0x2f60634b	2.0407957e-10
147	0x00000000	0.0
148	0x00000000	0.0
149	0x3248dfb7	1.1692399e-08
150	0x328562c4	1.5528151e-08
151	0x325a36df	1.2701746e-08
152	0x00000000	0.0
153	0x3126cbbd	2.427199e-09
154	0x2673ebc1	8.4627067e-16
155	0x00000000	0.0
156	0x00000000	0.0
157	0x00000000	0.0
158	0x326cce08	1.3783854e-08
159	0x3287de3b	1.5817127e-08
160	0x00000000	0.0
161	0x3a553242	0.0008132794
162	0x39140c6d	0.00014119009
163	0x00000000	0.0
164	0x00000000	0.0
165	0x4293c479	73.883736
166	0x404dd6ef	3.2162435
167	0x426e261e	59.537224
168	0x40b33ca4	5.6011524
169	0x3d3740d4	0.04473956
170	0x420a3fbf	34.562252
171	0x00000000	0.0
172	0x00000000	0.0
173	0x00000000	0.0
174	0x42050d9a	33.263283
175	0x428921dd	68.56614
176	0x00000000	0.0
177	0x3a29b415	0.00064736727
178	0x38eaeb14	0.00011201776
179	0x00000000	0.0
180	0x00000000	0.0
181	0x426bc0c7	58.93826
182	0x4023b9f0	2.5582237
183	0x423df98c	47.4937
184	0x408ee277	4.4651446
185	0x3d11e2cf	0.035616692
186	0x41dc8d7e	27.569088
187	0x00000000	0.0
188	0x00000000	0.0
189	0x00000000	0.0
190	0x41d44912	26.535679
191	0x425ac832	54.695503
192	0x00000000	0.0
193	0x00000000	0.0
194	0x00000000	0.0
195	0x00000000	0.0
196	0x00000000	0.0
197	0x00000000	0.0
198	0x00000000	0.0
199	0x00000000	0.0
200	0x00000000	0.0
201	0x00000000	0.0
202	0x00000000	0.0
203	0x00000000	0.0
204	0x00000000	0.0
205	0x00000000	0.0
206	0x00000000	0.0
207	0x00000000	0.0
208	0x00000000	0.0
209	0x3a74a40c	0.0009332306
210	0x392b3cba	0.00016330453
211	0x00000000	0.0
212	0x00000000	0.0
213	0x42aa2015	85.06266
214	0x406c7458	3.694601
215	0x428916fc	68.54489
216	0x40ce5709	6.4481244
217	0x3d5245aa	0.051335968
218	0x421f342f	39.80096
219	0x00000000	0.0
220	0x00000000	0.0
221	0x00000000	0.0
222	0x42192c83	38.29347
223	0x429de210	78.94153
224	0x00000000	0.0
225	0x3a86a132	0.0010271429
226	0x393b978d	0.00017890167
227	0x00000000	0.0
228	0x00000000	0.0
229	0x42ba9c1b	93.30489
230	0x40822ea6	4.0681944
231	0x42965f8f	75.18664
232	0x40e27ca1	7.0777135
233	0x3d67837b	0.056521874
234	0x422ea21c	43.65831
235	0x00000000	0.0
236	0x00000000	0.0
237	0x00000000	0.0
238	0x42280378	42.003387
239	0x42ad2e9d	86.59104
240	0x00000000	0.0
241	0x00000000	0.0
242	0x00000000	0.0
243	0x00000000	0.0
244	0x00000000	0.0
245	0x310e4b76	2.0706614e-09
246	0x2c96fb55	4.29116e-12
247	0x3086ac6d	9.79879e-10
248	0x31854f8c	3.879853e-09
249	0x00000000	0.0
250	0x324022a8	1.1183751e-08
251	0x00000000	0.0
252	0x00000000	0.0
253	0x00000000	0.0
254	0x2f1c47a6	1.4213572e-10
255	0x31986f5c	4.4364423e-09

exp_avg f4 [16]
0	0x3f5a2fb6	0.8522905
1	0x00000004	6e-45
2	0xbfe86f18	-1.8158903
3	0xbf37faba	-0.71866953
4	0x00000004	6e-45
5	0x3ff317de	1.8991659
6	0x00000000	0.0
7	0xbec62537	-0.38700268
8	0x3fad5b90	1.3543568
9	0x00000004	6e-45
10	0xbfc0fe1d	-1.5077549
11	0xbfacbd23	-1.349522
12	0x00000000	0.0
13	0x3fcfca82	1.6233675
14	0xbfd96615	-1.6984278
15	0x00000004	6e-45

exp_avg_sq f4 [16]
0	0x429b2693	77.57534
1	0x2c296567	2.4072634e-12
2	0x43af80be	351.0058
3	0x4261b365	56.42519
4	0x32ebf161	2.7467367e-08
5	0x43c05fb4	384.74768
6	0x00000000	0.0
7	0x4181a9ac	16.207848
8	0x43444147	196.25499
9	0x322f1a13	1.0192269e-08
10	0x43736ce1	243.42531
11	0x43422e7a	194.18155
12	0x00000000	0.0
13	0x438c253f	280.291
14	0x4399b8bb	307.4432
15	0x32cc4e8f	2.378445e-08

exp_avg f4 [1, 16]
0	0x3fb241d3	1.3926338
1	0x00000004	6e-45
2	0x3fb40d7e	1.4066617
3	0x4000b014	2.010747
4	0x00000004	6e-45
5	0x4004bd43	2.0740516
6	0x00000000	0.0
7	0x3fa08036	1.2539127
8	0x402ec564	2.7307978
9	0x80000004	-6e-45
10	0x3fc53079	1.5405418
11	0x3fc7b457	1.560191
12	0x00000000	0.0
13	0x400222e4	2.0333796
14	0x3ff2b095	1.8960139
15	0x00000004	6e-45

exp_avg_sq f4 [1, 16]
0	0x42f1723c	120.723114
1	0x27af346d	4.8629097e-15
2	0x43a186ba	323.05255
3	0x43b44765	360.55777
4	0x3217c7f7	8.8348235e-09
5	0x4381414d	258.51016
6	0x00000000	0.0
7	0x432c5cc8	172.36243
8	0x43e3f606	455.92206
9	0x2f893ef7	2.4964894e-10
10	0x43a3286e	326.31586
11	0x43b1671f	354.80563
12	0x00000000	0.0
13	0x437833e5	248.20271
14	0x43c7ec1f	399.8447
15	0x314104a7	2.808784e-09

exp_avg f4 [16, 3]
0	0xc2f18ce6	-120.77519
1	0x41a4644b	20.548971
2	0x42a135c0	80.60498
3	0xc2eb7193	-117.721825
4	0x419be05a	19.484547
5	0x429dc93d	78.89304
6	0x43107f48	144.4972
7	0xc1cc5ae2	-25.544376
8	0xc2fc0610	-126.01184
9	0xc1c59619	-24.69829
10	0xc1d13e9b	-26.15557
11	0x421b1b16	38.77645
12	0xc2e72beb	-115.58578
13	0x419b7b5e	19.435238
14	0x4299b76a	76.85823
15	0xc29ab4bc	-77.353
16	0x4205a27d	33.40868
17	0x4248acaa	50.168617
18	0x436e6b2c	238.41864
19	0xc2c6bf5b	-99.37374
20	0xc32f5a01	-175.35158
21	0x43593204	217.19537
22	0xc2327852	-44.6175
23	0xc30d5c47	-141.36046
24	0xc28c0e47	-70.027885
25	0x4205fc2f	33.496273
26	0x4233fd43	44.997326
27	0x42c6aecf	99.34142
28	0xc294487c	-74.14157
29	0xc294dc49	-74.430244
30	0xc307fcbf	-135.98729
31	0x41b495f2	22.573215
32	0x42b9e4c4	92.94681
33	0xc308cf20	-136.80908
34	0x41b5d5c7	22.729383
35	0x42bacf4d	93.404884
36	0x4347ab6a	199.66959
37	0xc206914c	-33.64189
38	0xc2e5c42a	-114.88313
39	0x439bed14	311.85217
40	0xc2e88d94	-116.27652
41	0xc3613e91	-225.2444
42	0xc2b7baf0	-91.86511
43	0x4190b262	18.087101
44	0x426aab25	58.667133
45	0x426d9aed	59.401295
46	0xc1f6cd86	-30.850353
47	0xc214a709	-37.16312

exp_avg_sq f4 [16, 3]
0	0x47840651	67596.63
1	0x45456b81	3158.719
2	0x473718ee	46872.93
3	0x477a0b74	64011.453
4	0x453af2cc	2991.1748
5	0x472e57d1	44631.816
6	0x47dff43c	114664.47
7	0x4592722a	4686.2705
8	0x47ab20fe	87617.984
9	0x477d694d	64873.3
10	0x45d14700	6696.875
11	0x47c2cf12	99742.14
12	0x476ffa0c	61434.047
13	0x4536cd9d	2924.8508
14	0x4727cf00	42959.0
15	0x4719a0ed	39328.926
16	0x45125e36	2341.8882
17	0x46d13244	26777.133
18	0x48cbef7e	417659.94
19	0x46bdbd9a	24286.8
20	0x488e8efb	291959.84
21	0x481d60b1	161154.77
22	0x46586925	13850.286
23	0x480bdb05	143212.08
24	0x46dda331	28369.596
25	0x450034b9	2051.2952
26	0x469e8a80	20293.25
27	0x488edafc	292567.88
28	0x46d7eebe	27639.371
29	0x48605a49	229737.14
30	0x47cdacf0	105305.875
31	0x456f59c8	3829.6113
32	0x47837852	67312.64
33	0x47ccc9e1	104851.76
34	0x45771c95	3953.7864
35	0x4784aca3	67929.27
36	0x48927d27	300009.22
37	0x46705427	15381.038
38	0x486d3c8b	242930.17
39	0x489626c5	307510.16
40	0x46d554ea	27306.457
41	0x48679ac1	237163.02
42	0x4782eb1a	67030.2
43	0x4517e9ef	2430.6208
44	0x47240b48	41995.28
45	0x4686d127	17256.576
46	0x450470f7	2119.0603
47	0x464a5720	12949.781

exp_avg f4 [16]
0	0xc1d854dc	-27.041435
1	0xc1ec5ab3	-29.544287
2	0xc31dc5b6	-157.77231
3	0xc3399038	-185.56335
4	0xc1edf1c8	-29.743057
5	0x43682d86	232.17783
6	0xc3e7dc94	-463.72327
7	0xc1add438	-21.728622
8	0x43768b7b	246.54485
9	0xc392974c	-293.182
10	0xc064047e	-3.5627742
11	0xc0f72237	-7.7229266
12	0xc2fffdb2	-127.9955
13	0xc400ac19	-514.689
14	0xc17fb899	-15.982568
15	0xc28179e6	-64.73808

exp_avg_sq f4 [16]
0	0x48ddc3e9	454175.28
1	0x48d25a9a	430804.8
2	0x49592400	889408.0
3	0x491de56d	646742.8
4	0x48ce0caa	421989.3
5	0x486919c1	238695.02
6	0x4a64bcbf	3.7476318e+06
7	0x49da6b6e	1.7892938e+06
8	0x485ebdda	228087.4
9	0x4a88a87a	4.478013e+06
10	0x48ec3073	483715.6
11	0x48fa3e7d	512499.9
12	0x4a0a39d1	2.2646922e+06
13	0x4a847484	4.34029e+06
14	0x4891191a	297160.8
15	0x48be067a	389171.8
