Source/TD3/TD3_Tactile/logs/td3-ur5-ComGrasp/td3-ur5-ComGrasp_s0/pyt_save/model.pt (torch_old, 20284 bytes, 45 tensors)

pi.pi.0.weight f4 [16, 2]
-0.0052939653 0.37932295 -0.47949252 -0.5755516 -0.22475483 0.082315 -0.014010012 0.56065756
-0.06275153 0.18710935 -0.14379685 -0.26565257 -0.69724447 -0.46849832 -0.13995065 0.0130515685
0.1534388 0.51037884 -0.46362838 -0.33538502 0.3019181 0.5027532 -0.14552271 0.52913636
-0.113973856 0.07482189 0.69040644 -0.63594 -0.48818916 -0.2717335 -0.22535345 0.6200163
00000000: 0079 adbb 9e36 c23e 0b80 f5be 5a57 13bf
00000010: 2126 66be c494 a83d 408a 65bc 4187 0f3f
00000020: e083 80bd 9899 3f3e 7b3f 13be 9d03 88be
00000030: 9d7e 32bf 03df efbe 394f 0fbe 3fd6 553c
00000040: 101f 1d3e 30a8 023f b360 edbe 96b7 abbe
00000050: 0295 9a3e 6fb4 003f e803 15be 7b75 073f
00000060: 206b e9bd 383c 993d 7abe 303f f7cc 22bf
00000070: eef3 f9be a720 8bbe 0ec3 66be 63b9 1e3f

pi.pi.0.bias f4 [16]
-0.45833224 -0.41227522 -0.58532625 -0.6622486 -0.41276684 0.46022645 0.31332558 0.36300468
0.06384072 -0.39401892 0.08320759 -0.6602219 -0.5109315 -0.33403367 0.3485856 0.4491038
00000000: 86aa eabe bd15 d3be f1d7 15bf 2089 29bf
00000010: 2d56 d3be cda2 eb3e 366c a03e c0db b93e
00000020: ecbe 823d d9bc c9be be68 aa3d 4d04 29bf
00000030: 68cc 02bf 7606 abbe d079 b23e eff0 e53e

pi.pi.2.weight f4 [16, 16]
-0.11087376 -0.028449705 0.15497336 0.24853328 0.099220544 0.013515404 0.14594406 -0.16797186
0.026589617 -0.20847216 -0.19354999 -0.12914589 0.11311826 0.07887594 -0.16915649 0.055234924
0.137243 -0.03155434 0.009545386 0.057926178 0.15509415 0.24004853 -0.19265589 -0.091617435
0.098252475 0.20713735 0.21755183 0.22058919 0.049753636 -0.21739566 0.022998124 -0.15640134
-0.23298854 0.18093157 0.13940674 -0.24938199 0.046793014 -0.06634581 -0.20968671 -0.14326268
0.16725159 -0.18628302 0.14211515 0.12642702 0.1789679 0.16952275 0.23675963 -0.20323855
0.124828756 0.08317398 -0.29140815 -0.14395487 0.23518732 0.21640153 -0.08611623 -0.025987599
-0.29762268 0.11049917 -0.25342327 -0.19283918 -0.013774902 0.063665725 -0.08107419 0.18285511
-0.15213478 0.2900659 0.36342227 -0.21082073 -0.06222108 0.047005422 0.065688275 0.12469156
0.19621307 0.02973398 0.0061357054 0.11829725 -0.23981223 -0.047843356 -0.03853546 -0.06088553
-0.08745834 -0.14756772 0.13463306 0.05343911 -0.16286644 0.020134807 0.2048692 0.035367504
0.031302974 -0.012967936 0.10753446 0.15895987 0.23681155 0.14829719 0.26069763 0.040577795
-0.22458038 -0.118519306 0.1702263 -0.0016206205 -0.12426159 -0.19157794 -0.23396301 -0.21100205
-0.050709188 0.1371015 0.13516027 -0.24110797 0.15594551 -0.19562736 -0.05285257 -0.10136816
-0.048153818 -0.049085677 -0.22433749 -0.21585947 -0.03911987 -0.033723824 -0.11356872 0.03887219
-0.26827204 -0.01687181 0.17033988 -0.101973 0.22575077 0.038091548 -0.24582142 0.11522474
-0.028848618 -0.051601678 0.3933985 -0.2020238 0.026826233 -0.088633776 0.19947702 0.09478498
0.10658563 0.10235872 -0.047025703 -0.052576363 -0.20602036 0.0991664 0.21358414 0.18024659
-0.17634457 0.011149973 -0.17623353 -0.13762105 -0.14567637 0.085436255 -0.1489783 -0.005454302
0.010517031 0.16115576 -0.18898001 -0.17162806 -0.14516538 0.17498335 -0.08986625 0.21087217
0.09040189 0.02480972 -0.14385521 -0.049420387 0.031366587 0.030632166 0.0021335173 0.061290685
-0.124965765 -0.0852741 0.24375549 -0.20288667 -0.017951548 0.33073935 0.09737309 0.053961746
-0.21665248 0.079036325 -0.34821022 -0.070966065 -0.08387908 0.023054907 -0.02550964 0.20790009
0.102152035 0.23153612 0.19510749 -0.15805349 0.11212602 -0.09440036 -0.12988192 0.09396533
0.08254802 0.18755701 -0.080478966 0.0004002154 0.12870589 -0.24177304 0.18074515 -0.2067306
0.0034456253 -0.04250419 -0.13166824 0.03304276 0.20672968 -0.073079884 -0.14842352 -0.09245971
-0.24778709 0.17279822 0.07129739 -0.16683507 -0.14402536 0.15728824 0.15750797 0.24539998
0.14710845 -0.07090981 0.018636601 0.073857486 0.20550868 0.11440333 -0.099059 -0.07088632
-0.23636726 0.08045769 -0.21798222 -0.22289395 0.21921912 -0.029964522 0.016012553 0.17615306
0.07779146 -0.08023587 -0.16180126 0.1992706 0.040709674 0.29161963 -0.028219309 0.18746816
-0.05716905 -0.011117786 -0.15226105 0.08455023 0.07904148 -0.060714267 -0.05622554 -0.21342936
0.10295434 -0.18610603 0.027057046 -0.08406338 -0.120617 -0.03673598 -0.16916671 7.0517226e-06
00000000: c811 e3bd 5b0f e9bc 56b1 1e3e 827f 7e3e
00000010: 2434 cb3d b76f 5d3c 5c72 153e d100 2cbe
00000020: 78d2 d93c ba79 55be f831 46be d23e 04be
00000030: 8caa e73d b589 a13d 5c37 2dbe 043e 623d
00000040: 6e89 0c3e 203f 01bd 4064 1c3c 0044 6d3d
00000050: 00d1 1e3e 48cf 753e 9647 45be eca1 bbbd
00000060: 9838 c93d d01b 543e e8c5 5e3e 22e2 613e
00000070: 78ca 4b3d f89c 5ebe 9066 bc3c ac27 20be
00000080: 8c94 6ebe 2046 393e a4c0 0e3e fe5d 7fbe
00000090: 08aa 3f3d 50e0 87bd 1db8 56be 74b3 12be
000000a0: 0044 2b3e fac0 3ebe a286 113e 1676 013e
000000b0: 5c43 373e 5f97 2d3e 1e71 723e c41d 50be
000000c0: 38a6 ff3d 1f57 aa3d 7333 95be e868 13be
000000d0: f2d4 703e 5d98 5d3e b55d b0bd f2e3 d4bc
000000e0: 0062 98be 644d e23d b2c0 81be a277 45be
000000f0: 20b0 61bc 2d63 823d 3a0a a6bd 5f3e 3b3e
00000100: 38c9 1bbe 8583 943e 7c12 ba3e 64e1 57be
00000110: 88db 7ebd c288 403d 9387 863d 4a5e ff3d
00000120: 14ec 483e ad94 f33c 070e c93b d445 f23d
00000130: 5691 75be 65f7 43bd 5cd7 1dbd 1b63 79bd
00000140: 5c1d b3bd fe1b 17be 40dd 093e f8e2 5a3d
00000150: 76c6 26be c0f1 a43c 3bc9 513e 84dd 103d
00000160: 8c37 003d 7777 54bc 073b dc3d 60c6 223e
00000170: ba7e 723e 38db 173e 297a 853e e734 263d
00000180: 66f8 65be 40ba f2bd ce4f 2e3e 006b d4ba
00000190: dc7c febd 022d 44be 0094 6fbe ec10 58be
000001a0: 70b4 4fbd 5664 0c3e 7467 0a3e 02e5 76be
000001b0: 2eb0 1f3e 8a52 48be f07b 58bd 1c9a cfbd
000001c0: f03c 45bd 100e 49bd bab8 65be 440a 5dbe
000001d0: 283c 20bd fe21 0abd b896 e8bd 7238 1f3d
000001e0: f45a 89be c036 8abc 946d 2e3e 38d7 d0bd
000001f0: 362b 673e e205 1c3d 9cb8 7bbe f3fa eb3d
00000200: f053 ecbc 485c 53bd 876b c93e 54df 4ebe
00000210: b0c2 db3c a085 b5bd b443 4c3e a11e c23d
00000220: 9149 da3d 73a1 d13d 069e 40bd 505a 57bd
00000230: 00f7 52be c117 cb3d cdb5 5a3e 9092 383e
00000240: ac93 34be 60ae 363c 9076 34be 88ec 0cbe
00000250: 302c 15be 34f9 ae3d c48d 18be 00ba b2bb
00000260: a04f 2c3c 0406 253e fa83 41be 44bf 2fbe
00000270: 3ca6 14be d62e 333e cc0b b8bd e0ee 573e
00000280: a024 b93d c13d cb3c c84e 13be 086d 4abd
00000290: 407a 003d 4ff0 fa3c 7bd2 0b3b f10b 7b3d
000002a0: 0dee ffbd 30a4 aebd 0a9b 793e 86c1 4fbe
000002b0: 200f 93bc ab56 a93e 8b6b c73d fe06 5d3d
000002c0: 26da 5dbe ccdd a13d 9c48 b2be a856 91bd
000002d0: ccc8 abbd a5dd bc3c 98f9 d0bc c3e3 543e
000002e0: 1635 d13d ce17 6d3e 42ca 473e c6d8 21be
000002f0: 54a2 e53d fa54 c1bd c4ff 04be e570 c03d
00000300: f00e a93d f20e 403e 28d2 a4bd 00d4 d139
00000310: 7acb 033e 5a93 77be 4215 393e 30b1 53be
00000320: 00d0 613b e018 2ebd 0ad4 06be d857 073d
00000330: f2b0 533e e8aa 95bd 56fc 17be 845b bdbd
00000340: e6bb 7dbe 04f2 303e 5e04 923d d0d6 2abe
00000350: 627b 13be 2b10 213e c549 213e 224a 7b3e
00000360: 99a3 163e 2a39 91bd c9ab 983c 9842 973d
00000370: de70 523e 4b4c ea3d 72df cabd d92c 91bd
00000380: 420a 72be 00c7 a43d bb36 5fbe 503e 64be
00000390: fa7a 603e 2878 f5bc c22c 833c 7861 343e
000003a0: 2151 9f3d b452 a4bd 3baf 25be 980d 4c3e
000003b0: 30bf 263d 2b4f 953e 2e2c e7bc a7f7 3f3e
000003c0: 182a 6abd 6027 36bc 52ea 1bbe ac28 ad3d
000003d0: 80e0 a13d 86af 78bd c04c 66bd 3a8d 5abe
000003e0: bad9 d23d 9492 3ebe bda6 dd3c 6c29 acbd
000003f0: 0c06 f7bd 7878 16bd 0a3a 2dbe d69d ec36

pi.pi.2.bias f4 [16]
0.02842346 -0.18562236 0.062153134 0.12408862 0.1512276 -0.01925431 -0.2049469 -0.08185167
0.031230425 -0.091219276 0.19280472 0.25564662 -0.1305379 0.015568464 0.20605443 -0.047346734
00000000: 51d8 e83c ca13 3ebe 4994 7e3d 2d22 fe3d
00000010: 68db 1a3e 37bb 9dbc 9add 51be d9a1 a7bd
00000020: f3d6 ff3c 2cd1 babd 9a6e 453e 1de4 823e
00000030: baab 05be df12 7f3c efff 523e a6ee 41bd

pi.pi.4.weight f4 [1, 16]
0.0011653092 0.031216353 -0.24688484 -0.025612002 0.24062374 0.24142066 0.14693773 0.008113562
0.123111665 -0.12161991 -0.2849008 -0.2703688 0.24940243 0.18277527 -0.26144007 0.04246958
00000000: 4abd 983a 70b9 ff3c 61cf 7cbe 43d0 d1bc
00000010: 1266 763e fa36 773e d876 163e bfee 043c
00000020: f821 fc3d dc13 f9bd 85de 91be c86d 8abe
00000030: 5a63 7f3e 7129 3b3e 79db 85be 95f4 2d3d

q1.q.0.weight f4 [16, 3]
0.5177972 0.25006446 1.5269095 -0.73439944 2.694522 1.2830743 0.33203208 -0.8636575
1.6894305 -0.26993498 0.6583966 -1.3387532 -0.079353355 0.8284845 1.3714544 -1.4105884
1.6808997 0.43544614 0.3051844 -0.066845745 1.6562766 -0.4291186 0.73926234 -2.0272973
-2.1345875 0.5628433 0.9820595 0.39674258 0.969721 2.1568193 -1.4175576 1.9864309
-0.29305696 -1.3492256 2.4857924 -0.43827072 -0.38628173 -0.20874588 -1.8698426 0.27158242
0.72763664 1.5301766 2.1054194 2.4206915 -1.3535709 0.26733747 -0.08700376 1.4487635
00000000: 5b8e 043f 7308 803e c571 c33f 9a01 3cbf
00000010: 0c73 2c40 c73b a43f 1c00 aa3e a818 5dbf
00000020: 423f d83f eb34 8abe ae8c 283f 445c abbf
00000030: 0384 a2bd 8f17 543f d18b af3f 298e b4bf
00000040: b927 d73f ccf2 de3e 2141 9c3e 6ce6 88bd
00000050: df00 d43f 6fb5 dbbe 4c40 3d3f 3dbf 01c0
00000060: 159d 08c0 8016 103f 4068 7b3f d821 cb3e
00000070: a33f 783f 5409 0a40 8772 b5bf 5e43 fe3f
00000080: 900b 96be 6db3 acbf 3917 1f40 0565 e0be
00000090: b8c6 c5be 7bc1 55be 0157 efbf da0c 8b3e
000000a0: 6546 3a3f d4dc c33f 31bf 0640 9cec 1a40
000000b0: d041 adbf 75e0 883e 072f b2bd 1571 b93f

q1.q.0.bias f4 [16]
0.42744792 3.2262957 0.06271658 -0.061899576 1.3042303 1.5446413 0.022061158 -0.10474449
0.78168106 -0.0031643594 2.7666748 2.528495 -0.06663157 -0.007978568 2.281054 0.021824943
00000000: 74da da3e a17b 4e40 8d71 803d 698a 7dbd
00000010: 05f1 a63f ceb6 c53f 9ab9 b43c 4784 d6bd
00000020: 401c 483f 2461 4fbb 3311 3140 ddd2 2140
00000030: 2276 88bd 8ab8 02bc cafc 1140 39ca b23c

q1.q.2.weight f4 [16, 16]
-0.05622085 1.4923033 -0.5210219 -1.5921453 0.64673555 1.8024002 -1.7058914 -2.07356
1.6259186 -1.7995703 1.721692 1.9304391 -1.9463934 -1.186607 1.8724661 -0.92957693
1.061916 0.15423502 0.61195964 -0.06436658 0.17656928 0.352001 -0.47453272 -1.4034535
0.15027344 -1.291963 0.6768873 0.8247359 -0.98434675 -0.58031803 2.509339 0.6548957
0.9096637 0.5641081 -0.0028219663 -0.775353 0.16657735 0.61191064 -0.9268665 -1.2997891
0.218065 -0.79788405 0.9909373 0.57238716 -0.80093426 -0.9367198 2.340531 0.12897046
0.26482213 0.7360875 0.86755604 0.7783017 0.9271253 -0.26238918 1.7522206 1.7282224
0.0066142227 1.6100236 -0.16520822 -0.34770003 1.1751628 0.9197886 -0.5704396 0.68025297
0.4851482 0.50699365 0.46967757 0.4985378 0.6344732 0.08098394 1.7114697 1.910498
-0.14379723 1.8345512 -0.21629247 -0.16832858 1.5891701 0.6673154 -0.41672996 0.31902546
-0.26756406 1.2894313 -0.74675804 -1.7481147 0.87441784 1.6221402 -1.7195116 -1.8898995
1.3373417 -1.7034434 1.7048475 1.8127506 -2.0492637 -0.8272202 1.9526241 -1.1077703
0.1395056 0.5772381 0.8096624 0.42656913 0.8454715 -0.09726793 1.5983361 1.8677981
-0.34694245 1.8074884 -0.029151853 -0.078075394 1.469021 0.7187075 -0.5764668 0.38534012
-0.13189328 0.024070263 0.04800525 -0.12214291 -0.01807043 0.14687313 -0.06807544 0.07608348
-0.050326265 0.040700328 -0.17291956 -0.1470072 -0.12689763 0.18892 -0.10611934 -0.041936032
0.13867153 0.6972761 0.7950276 0.43757388 0.4440476 -0.30705437 1.3734933 1.610692
-0.26551825 1.5709 0.024840832 -0.047960285 1.4630157 0.6706346 -0.6832344 0.4558964
0.5137732 0.37682453 0.6284176 0.5512101 0.98609227 -0.31363985 1.2414753 1.9764845
-0.2632228 1.8126101 0.05038226 0.037525885 1.396561 0.98512435 -0.6361232 0.23803267
0.16279665 0.28395748 0.7463689 0.47808516 0.9866623 -0.25140998 1.4562027 1.8698952
-0.06994178 1.9953358 0.026006838 -0.090513274 1.2213708 0.8210577 -0.5038045 0.3989562
-0.25363278 0.06572004 0.22153237 -0.1337313 -0.22880487 -0.29480582 0.062649846 -0.10072079
-0.1847649 0.050532967 0.015382159 0.12048618 0.11339531 -0.03742093 -0.29664746 -0.24774387
0.0977169 1.5630403 -0.7908841 -1.833389 0.80932283 1.7702475 -1.6368463 -2.119998
1.3555734 -1.8545374 2.0192387 1.7174671 -1.9879612 -0.96468353 1.8531398 -0.99942094
0.4504985 0.33137095 0.45605773 1.0291294 0.532002 -0.072224714 1.5923371 1.8536264
-0.1984865 1.864008 0.083211966 -0.03449273 1.6938655 0.81252533 -0.4797841 0.4878784
0.48733822 0.5100195 0.7570091 -0.6438381 0.55603474 0.020726852 1.5362517 0.03988736
-0.09374116 1.8475256 -0.27508733 -0.35115388 -0.4929597 0.41605073 -0.26795813 0.38824907
-0.019292824 0.02148125 -0.042067427 -0.17248568 0.1808216 -0.15525755 0.13543685 -0.19887707
-0.052819107 0.06335483 -0.141637 0.1334756 -0.19421016 -0.27139127 -0.17453027 -0.023562562
00000000: d647 66bd cb03 bf3f b161 05bf 6bcb cbbf
00000010: 7690 253f 0db5 e63f a65a dabf 35b5 04c0
00000020: 1a1e d03f 5258 e6bf 6760 dc3f a118 f73f
00000030: 6b23 f9bf bde2 97bf f8ac ef3f c1f8 6dbf
00000040: ddec 873f c9ef 1d3e 63a9 1c3f a0d2 83bd
00000050: 94ce 343e 7a39 b43e f4f5 f2be 5da4 b3bf
00000060: 48e1 193e 0b5f a5bf 7c48 2d3f e421 533f
00000070: 26fe 7bbf b98f 14bf 0399 2040 3fa7 273f
00000080: b8df 683f 6369 103f bdf0 38bb 897d 46bf
00000090: 4193 2a3e 2da6 1c3f 1f47 6dbf 7d5f a6bf
000000a0: 6e4c 5f3e 2142 4cbf 11ae 7d3f f787 123f
000000b0: 070a 4dbf decc 6fbf 43cb 1540 d510 043e
000000c0: c496 873e 3b70 3c3f 2718 5e3f c83e 473f
000000d0: 1558 6d3f e057 86be c448 e03f 6436 dd3f
000000e0: 1fbc d83b 4115 ce3f 582c 29be bd05 b2be
000000f0: bc6b 963f 4477 6b3f 5408 12bf 0f25 2e3f
00000100: 5865 f83e 56ca 013f 9479 f03e 5940 ff3e
00000110: d66c 223f e8da a53d 7011 db3f 338b f43f
00000120: 953f 13be 93d2 ea3f c67b 5dbe 545e 2cbe
00000130: ed69 cb3f 2fd5 2a3f a15d d5be 4e57 a33e
00000140: 28fe 88be 160c a53f 892b 3fbf 39c2 dfbf
00000150: d9d9 5f3f 4aa2 cf3f f518 dcbf 3ae8 f1bf
00000160: 032e ab3f 6f0a dabf 7138 da3f 3608 e83f
00000170: 2327 03c0 b4c4 53bf 96ef f93f 6bcb 8dbf
00000180: 8eda 0e3e e0c5 133f 0946 4f3f 4567 da3e
00000190: d270 583f 6934 c7bd 4796 cc3f 0214 ef3f
000001a0: 71a2 b1be c85b e73f decf eebc fee5 9fbd
000001b0: e108 bc3f 37fd 373f 5493 13bf 4d4b c53e
000001c0: 080f 07be 002f c53c 27a1 443d 1026 fabd
000001d0: 7008 94bc e965 163e 236b 8bbd a8d1 9b3d
000001e0: ea22 4ebd 63b5 263d d311 31be 0e89 16be
000001f0: 74f1 01be 3f74 413e 1955 d9bd 1ec5 2bbd
00000200: e9ff 0d3e b080 323f ee86 4b3f af09 e03e
00000210: 355a e33e 3b36 9dbe a1ce af3f 282b ce3f
00000220: 02f2 87be 4013 c93f 007f cb3c 0172 44bd
00000230: 1944 bb3f b6ae 2b3f 73e8 2ebf 416b e93e
00000240: a486 033f 25ef c03e fadf 203f 1b1c 0d3f
00000250: 8b70 7c3f 6795 a0be aae8 9e3f 72fd fc3f
00000260: 24c5 86be 9c03 e83f a15d 4e3d beb4 193d
00000270: 83c2 b23f 1c31 7c3f f8d8 22bf d6be 733e
00000280: 2ab4 263e e062 913e 0812 3f3f 94c7 f43e
00000290: e795 7c3f cfb8 80be da64 ba3f ba58 ef3f
000002a0: a33d 8fbd 2a67 ff3f 4b0c d53c 065f b9bd
000002b0: e155 9c3f d630 523f 55f9 00bf fd43 cc3e
000002c0: 28dc 81be 3a98 863d 62d9 623e dcf0 08be
000002d0: d34b 6abe caf0 96be 904e 803d b446 cebd
000002e0: 0333 3dbe a8fb 4e3d 7305 7c3c 75c1 f63d
000002f0: cd3b e83d b046 19bd 2de2 97be 92b0 7dbe
00000300: cc1f c83d b411 c83f 6177 4abf 7eac eabf
00000310: c82f 4f3f 7897 e23f 2e84 d1bf 0cae 07c0
00000320: 6e83 ad3f 7b61 edbf 353b 0140 f6d5 db3f
00000330: 8375 febf 80f5 76bf af33 ed3f 0dda 7fbf
00000340: bda7 e63e 74a9 a93e 6680 e93e 83ba 833f
00000350: 4831 083f 8dea 93bd b4d1 cb3f a143 ed3f
00000360: 0c40 4bbe d097 ee3f 096b aa3d 4048 0dbd
00000370: 96d0 d83f a901 503f 43a6 f5be 33cb f93e
00000380: 6584 f93e a390 023f 59cb 413f 93d2 24bf
00000390: 4b58 0e3f 5ccb a93c e5a3 c43f ee60 233d
000003a0: 5efb bfbd b87b ec3f 3fd8 8cbe 71ca b3be
000003b0: 3765 fcbe 9a04 d53e cf31 89be 95c8 c63e
000003c0: fc0b 9ebc 72f9 af3c e54e 2cbd 16a0 30be
000003d0: 4c29 393e d6fb 1ebe f5af 0a3e 6ea6 4bbe
000003e0: d958 58bd 2dc0 813d 4a09 11be d4ad 083e
000003f0: 07df 46be ccf3 8abe 10b8 32be 4606 c1bc

q1.q.2.bias f4 [16]
2.2522173 1.7945803 1.789739 -0.039620098 -0.12103707 2.1398191 -0.3724621 -0.009944647
0.1383109 -0.1363377 -0.027813114 -0.15489966 2.1121986 -0.13653044 -0.26879397 -0.09720809
00000000: 5424 1040 cfb4 e53f 2b16 e53f af48 22bd
00000010: 49e2 f7bd ccf2 0840 5ab3 bebe dfee 22bc
00000020: 5fa1 0d3e 1c9c 0bbe 54d8 e3bc 049e 1ebe
00000030: 432e 0740 a3ce 0bbe 5d9f 89be 0915 c7bd

q1.q.4.weight f4 [1, 16]
1.9927065 2.665012 2.119582 -1.1693206 -1.1791114 2.1274621 -1.239379 0.19184135
-1.3618218 -1.1336288 -1.0125936 0.043436754 2.0006852 -1.4292552 -1.6902225 0.09897552
00000000: 0211 ff3f 8e8f 2a40 3ba7 0740 4cac 95bf
00000010: 1fed 96bf 5728 0840 f9a3 9ebf 0f72 443e
00000020: 2d50 aebf c01a 91bf ab9c 81bf bdea 313d
00000030: 3a0b 0040 d6f1 b6bf 3659 d8bf adb3 ca3d

q2.q.0.weight f4 [16, 3]
0.32509843 -0.57731754 1.6664559 0.20762162 -0.23678538 -1.8981528 0.41277722 0.14930221
2.1137044 -1.4453583 0.57117414 0.8268461 -1.2642825 2.4944394 -0.232789 -1.5710269
0.99295914 1.0919696 -1.0048186 2.6792157 0.15009731 -1.1782515 1.6564494 -0.6460873
1.4136809 1.589543 0.3980191 0.45243374 0.7690772 2.3217535 1.6614257 1.5059735
0.13748929 -1.6714128 0.3201978 0.8544575 0.36722603 -0.022621475 1.8769265 -1.7742623
0.5989435 1.0350457 -0.17311129 -0.2621707 -2.1066012 1.290286 1.5908449 -0.13828404
00000000: 4d73 a63e 15cb 13bf 6d4e d53f c39a 543e
00000010: de77 72be acf6 f2bf 8957 d33e aee2 183e
00000020: ef46 0740 8001 b9bf 7838 123f 30ac 533f
00000030: 02d4 a1bf e5a4 1f40 3d60 6ebe 6917 c9bf
00000040: 9232 7e3f a9c5 8b3f e59d 80bf 4578 2b40
00000050: 1cb3 193e f2d0 96bf 8906 d43f fa65 25bf
00000060: 7ff3 b43f 2576 cb3f 29c9 cb3e 65a5 e73e
00000070: 3ee2 443f 9c97 1440 99a9 d43f bdc3 c03f
00000080: fec9 0c3e dbf0 d5bf f7f0 a33e babd 5a3f
00000090: 0d05 bc3e ac50 b9bc 213f f03f 071b e3bf
000000a0: 5c54 193f 617c 843f 1644 31be 3d3b 86be
000000b0: 8ed2 06c0 1728 a53f cea0 cb3f 559a 0dbe

q2.q.0.bias f4 [16]
0.04354913 -0.5512744 0.02620274 0.9710271 2.757199 0.84707 2.547224 2.568355
1.8853258 0.01147189 1.7380391 0.5721354 0.031400144 0.8053897 0.23509313 1.9873345
00000000: 9360 323d 5220 0dbf 21a7 d63c 3b95 783f
00000010: f375 3040 94d9 583f b805 2340 ee5f 2440
00000020: 5b52 f13f 98f4 3b3c 1178 de3f 7777 123f
00000030: 709d 003d 052e 4e3f 41bc 703e fa60 fe3f

q2.q.2.weight f4 [16, 16]
1.0077004 0.8827315 1.8377289 0.1787451 0.16060367 -0.16728802 0.16010517 0.540512
-0.44037423 2.0732458 -0.16638644 -0.4566022 1.0263101 -0.004584686 0.7489517 -0.24956815
-0.9018268 -1.5529249 -1.5974417 1.3806709 1.936466 1.0846112 2.0138977 1.78484
1.9261684 -1.8535542 1.6000723 1.5122161 -0.6719313 1.3030185 -0.22118393 1.3455747
0.9648208 0.5311227 1.978608 0.06592202 0.20809916 0.08418493 0.33865318 0.4115905
-0.29105172 1.8007175 -0.3851896 -0.4324766 1.0994316 -0.26129735 1.0471503 -0.33217445
-0.68788195 -1.3431673 -1.269884 0.81375957 1.276374 0.4410933 1.0641334 1.1402125
1.7136607 -1.323146 1.9149764 0.4242257 -1.0141186 0.7103999 -0.029672833 2.0068755
-0.05828933 0.06912988 0.18830085 -0.096304744 0.1108558 -0.095351495 -0.06493394 -0.06535542
-0.040606976 -0.14836062 0.008035779 -0.022386385 0.11248618 -0.066424474 -0.008706728 -0.13059945
0.8101868 0.92268014 1.9204329 -0.037351355 0.15406531 0.13524705 0.08653595 0.5410959
-0.29981267 2.0042593 -0.25640568 -0.381985 1.1589186 -0.10722791 0.8911013 -0.28041363
1.0633756 1.282114 1.8351978 0.038462587 0.24803172 -0.111697175 0.058982126 0.15612504
-0.08230411 1.690924 -0.14187771 0.048546746 1.1232285 -0.16985658 1.1439748 -0.39566183
-0.04706317 -0.10947624 -0.034510314 0.027300615 0.008679762 -0.07554859 -0.27471212 -0.0082076695
-0.0074054897 0.010239055 0.19156256 0.2133189 -0.14832062 -0.044156194 -0.10016841 -0.23041141
0.7765683 1.066768 2.1071563 0.04293834 0.34066138 -0.30451888 0.10596432 0.58336
-0.37261584 2.0975778 -0.21698752 -0.12928636 1.0106379 -0.1823613 0.6886964 -0.28659695
-0.9147398 -1.3240902 -1.5664409 1.5232424 1.9767765 1.4479542 1.9536098 1.8556849
1.4293069 -1.7273307 1.7348675 1.305915 -0.5349188 1.4478439 -0.21244724 1.4230618
1.1825551 0.84828013 1.6160225 0.028679801 0.38158137 0.25528938 0.32425672 0.07772375
-0.5187303 1.9414495 -0.15717836 -0.39384472 1.0720477 -0.2976867 1.0341384 -0.22776681
1.3149843 0.3180871 1.6930897 0.29459995 0.28085566 0.28329793 0.17142469 -0.011339597
0.036244914 1.676243 -0.20630874 -0.4255561 0.9625358 -0.14389555 0.7219475 -0.30277574
0.76023 0.4924955 1.9519423 0.066870615 0.19854462 0.13054194 0.11500377 0.25190642
-0.08489488 1.918846 -0.29381976 -0.2803023 1.0801032 -0.031148473 0.7262984 -0.216597
-0.73645294 -1.6087354 -2.0141 1.2129068 1.857405 1.047824 1.7519513 1.9150138
1.6129911 -1.6274568 1.8233241 1.5671252 -0.83300775 1.3360292 -0.16798064 1.5624154
-0.29893225 0.13537633 -0.07258296 -0.29824254 0.011448329 -0.19509858 -0.008317692 -0.20248486
-0.17659003 -0.048734557 -0.083981425 0.07699346 0.02155453 0.13271143 0.027980579 -0.021276506
0.1693334 0.013661265 0.046922922 -0.08040565 0.0008971989 -0.048068285 -0.02125433 -0.19496983
-0.001537472 -0.20751107 -0.0537827 0.14488655 -0.17383757 -0.16851294 -0.061044127 -0.06853351
00000000: 54fc 803f b1fa 613f b33a eb3f f508 373e
00000010: 4a75 243e 8d4d 2bbe 9cf2 233e ff5e 0a3f
00000020: bb78 e1be 0fb0 0440 3561 2abe c3c7 e9be
00000030: 215e 833f 223b 96bb 4cbb 3f3f cb8e 7fbe
00000040: 1fde 66bf 3ec6 c6bf f878 ccbf d3b9 b03f
00000050: 1ede f73f 8ad4 8a3f b3e3 0040 a375 e43f
00000060: b08c f63f 4441 edbf 2bcf cc3f 4c90 c13f
00000070: b103 2cbf 4fc9 a63f 0a7e 62be cb3b ac3f
00000080: 7ffe 763f a8f7 073f 0743 fd3f 2002 873d
00000090: f217 553e 2669 ac3d f363 ad3e fdbb d23e
000000a0: bb04 95be e97d e63f 9237 c5be 936d ddbe
000000b0: 2dba 8c3f c4c8 85be 0509 863f c512 aabe
000000c0: 0819 30bf e8ec abbf 8f8b a2bf 8c52 503f
000000d0: 3960 a33f fbd6 e13e 8635 883f 7cf2 913f
000000e0: 3c59 db3f d95c a9bf f21d f53f 1c34 d93e
000000f0: a3ce 81bf c5dc 353f 7114 f3bc a670 0040
00000100: cbc0 6ebd f793 8d3d f0d1 403e 6c3b c5bd
00000110: 5e08 e33d a547 c3bd 16fc 84bd 10d9 85bd
00000120: 8053 26bd d9eb 17be 80a8 033c a763 b7bc
00000130: 285f e63d 8e09 88bd aaa6 0ebc ddbb 05be
00000140: 6768 4f3f c434 6c3f bfd0 f53f bcfd 18bd
00000150: 4cc3 1d3e 347e 0a3e c339 b13d 4385 0a3f
00000160: 0c81 99be c945 0040 9b47 83be 8a93 c3be
00000170: 7257 943f 4e9a dbbd 371f 643f 6092 8fbe
00000180: b11c 883f 501c a43f c3e7 ea3f f28a 1d3d
00000190: 07fc 7d3e 7dc1 e4bd 3e97 713d 3edf 1f3e
000001a0: 0f8f a8bd 3370 d83f 6448 11be f4d8 463d
000001b0: f4c5 8f3f e2ee 2dbe c46d 923f 3094 cabe
000001c0: 4fc5 40bd 1435 e0bd b05a 0dbd 8aa5 df3c
000001d0: 8f35 0e3c 38b9 9abd 11a7 8cbe 7679 06bc
000001e0: c0a9 f2bb b6c1 273c fa28 443e 4570 5a3e
000001f0: 5ce1 17be 20dd 34bd 1825 cdbd f8f0 6bbe
00000200: 2ecd 463f db8b 883f a6db 0640 1de0 2f3d
00000210: 2b6b ae3e e6e9 9bbe d203 d93d 1557 153f
00000220: 81c7 bebe b73e 0640 fa31 5ebe a563 04be
00000230: 955c 813f ecbc 3abe 684e 303f d6bc 92be
00000240: 632c 6abf ca7b a9bf 2381 c8bf 9bf9 c23f
00000250: 0307 fd3f 9056 b93f e30f fa3f 1587 ed3f
00000260: 87f3 b63f 2c19 ddbf 2310 de3f 3928 a73f
00000270: 70f0 08bf f352 b93f c58b 59be e426 b63f
00000280: f75d 973f e328 593f d3d9 ce3f e7f1 ea3c
00000290: a25e c33e 4ab5 823e fa04 a63e a12d 9f3d
000002a0: 82cb 04bf 6b81 f83f 5df3 20be 04a6 c9be
000002b0: dc38 893f 646a 98be a65e 843f b43b 69be
000002c0: 6851 a83f 50dc a23e 2ab7 d83f ced5 963e
000002d0: 50cc 8f3e 6d0c 913e f489 2f3e b8c9 39bc
000002e0: 8c75 143d 218f d63f 9942 53be 7de2 d9be
000002f0: bf68 763f 5b59 13be 8dd1 383f 6c05 9bbe
00000300: 6f9e 423f 5f28 fc3e 3fd9 f93f 76f3 883d
00000310: 484f 4b3e c9ac 053e 1987 eb3d e1f9 803e
00000320: 5edd adbd bf9c f53f 8b6f 96be c883 8fbe
00000330: d240 8a3f 152b ffbc b1ee 393f 9bcb 5dbe
00000340: 2e88 3cbf 0beb cdbf 04e7 00c0 8840 9b3f
00000350: 72bf ed3f 191f 863f f13f e03f 2c1f f53f
00000360: 7e76 ce3f 8150 d0bf af62 e93f 8f97 c83f
00000370: ff3f 55bf 0103 ab3f 1e03 2cbe 3afd c73f
00000380: a60d 99be 18a0 0a3e 60a6 94bd 3fb3 98be
00000390: c691 3b3c ecc7 47be ee46 08bc 3158 4fbe
000003a0: 04d4 34be e39d 47bd 74fe abbd bfae 9d3d
000003b0: 2093 b03c 81e5 073e 8737 e53c 114c aebc
000003c0: bc65 2d3e 80d3 5f3c 4032 403d b8ab a4bd
000003d0: 0032 6b3a 40e3 44bd 901d aebc 2ca6 47be
000003e0: 0085 c9ba c87d 54be 404b 5cbd 245d 143e
000003f0: 7a02 32be a88e 2cbe 6809 7abd 4c5b 8cbd

q2.q.2.bias f4 [16]
0.08892929 1.8239257 0.19004335 1.1973771 -0.047672957 0.1853545 0.20304643 -0.045720086
-0.14092787 1.9049807 0.22474688 -0.0495876 0.025842635 1.7532529 -0.061929546 -0.23612466
00000000: 8f20 b63d 6676 e93f b99a 423e a743 993f
00000010: b844 43bd 92cd 3d3e 67eb 4f3e fc44 3bbd
00000020: 654f 10be 68d6 f33f 0c24 663e 5e1c 4bbd
00000030: efb3 d33c 976a e03f d6a9 7dbd aaca 71be

q2.q.4.weight f4 [1, 16]
-1.3626949 2.0246263 -1.3683143 1.7085379 0.18153822 -1.1090397 -0.9652916 -0.04871842
-1.2673534 1.8459386 -1.3091793 -1.1345601 -1.430882 1.9124377 -0.12560499 0.22838596
00000000: c96c aebf 7a93 0140 ec24 afbf 5fb1 da3f
00000010: 28e5 393e 03f5 8dbf 5a1d 77bf f78c 47bd
00000020: a338 a2bf b747 ec3f 3093 a7bf 4439 91bf
00000030: 2427 b7bf c2ca f43f 989e 00be 02de 693e

exp_avg f4 [16, 2]
0.0 0.0 -0.0613396 0.0006604423 -6e-45 6e-45 0.0 0.0
0.0 0.0 -0.0640034 0.0012368127 -0.69729733 -0.001052157 0.14440013 0.00078682636
0.095189385 -2.64165e-05 0.09313474 -0.0010152943 -0.13541532 -0.0022262607 0.0 0.0
0.0 0.0 -0.21493137 -0.0045659877 -0.44350713 -0.00041267974 0.4298253 -0.00039443746
00000000: 0000 0000 0000 0000 3b3f 7bbd 8821 2d3a
00000010: 0400 0080 0400 0000 0000 0000 0000 0000
00000020: 0000 0000 0000 0000 3714 83bd 8c1c a23a
00000030: 1482 32bf 88e8 89ba a1dd 133e 0643 4e3a
00000040: a7f2 c23d 0099 ddb7 6dbd be3d a013 85ba
00000050: 50aa 0abe 75e6 11bb 0000 0000 0000 0000
00000060: 0000 0000 0000 0000 f816 5cbe 489e 95bb
00000070: 5e13 e3be f05c d8b9 1012 dc3e 80cc ceb9

exp_avg_sq f4 [16, 2]
0.0 0.0 0.15192351 4.6198227e-05 0.0069330977 9.190848e-07 0.0 0.0
0.0 0.0 0.6870005 0.00043779524 32.3716 0.015059844 1.2075197 0.0005176574
0.040128004 2.7622807e-05 1.7429754 0.000425552 0.37707654 0.00017846022 0.0 0.0
0.0 0.0 0.77069443 0.0003602011 13.946931 0.006552874 14.93491 0.007541403
00000000: 0000 0000 0000 0000 d691 1b3e f8c4 4138
00000010: 0a2f e33b 07b7 7635 0000 0000 0000 0000
00000020: 0000 0000 0000 0000 44df 2f3f e287 e539
00000030: 857c 0142 90bd 763c 0190 9a3f 66b3 073a
00000040: 435d 243d 87b7 e737 d119 df3f 9f1c df39
00000050: 2d10 c13e 0d21 3b39 0000 0000 0000 0000
00000060: 0000 0000 0000 0000 3b4c 453f 60d9 bc39
00000070: a126 5f41 7eb9 d63b 64f5 6e41 e01d f73b

exp_avg f4 [16]
0.0 0.040154964 6e-45 0.0 0.0 0.108606696 0.25930053 -0.023699135
0.03163879 -0.062376045 -0.111250184 0.0 0.0 -0.2026127 0.17505948 -0.24059238
00000000: 0000 0000 8879 243d 0400 0000 0000 0000
00000010: 0000 0000 306d de3d 0ac3 843e b024 c2bc
00000020: ad97 013d 067e 7fbd 23d7 e3bd 0000 0000
00000030: 0000 0000 b479 4fbe cb42 333e d95d 76be

exp_avg_sq f4 [16]
0.0 0.101126365 0.0026357486 0.0 0.0 0.80976546 27.879593 0.9637157
0.042040575 1.0073277 0.31937942 0.0 0.0 0.65371096 12.113784 13.974536
00000000: 0000 0000 571b cf3d 86bc 2c3b 0000 0000
00000010: 0000 0000 ca4c 4f3f 6809 df41 12b6 763f
00000020: bd32 2c3d 1df0 803f b385 a33e 0000 0000
00000030: 0000 0000 9a59 273f 0fd2 4141 b397 5f41

exp_avg f4 [16, 16]
0.0 6e-45 6e-45 0.0 0.0 6e-45 6e-45 6e-45
6e-45 6e-45 6e-45 0.0 0.0 6e-45 6e-45 6e-45
0.0 0.0 0.0 0.0 0.0 0.0 0.0 0.0
0.0 0.0 0.0 0.0 0.0 0.0 0.0 0.0
0.0 6e-45 6e-45 0.0 0.0 -0.11400412 7.15557e-06 -0.08096914
-0.09191507 6e-45 -0.15806136 0.0 0.0 -0.1478232 -0.0035133618 -0.08392741
0.0 -0.032851238 -6e-45 0.0 0.0 -0.055298574 -0.11342714 -0.04593365
-0.0093345605 -0.03234023 -0.016604565 0.0 0.0 -0.01657789 -0.086257 -0.06219203
0.0 0.31344008 6e-45 0.0 0.0 0.5384097 1.1010296 0.44799307
0.08409111 0.3086608 0.14897889 0.0 0.0 0.14470434 0.83933353 0.6079086
0.0 0.3144508 6e-45 0.0 0.0 0.54020506 1.1047083 0.4494887
0.08434866 0.30965567 0.14943495 0.0 0.0 0.14514412 0.84214556 0.60994256
0.0 0.0 0.0 0.0 0.0 0.0 0.0 0.0
0.0 0.0 0.0 0.0 0.0 0.0 0.0 0.0
0.0 0.0 0.0 0.0 0.0 6e-45 0.0 6e-45
6e-45 0.0 6e-45 0.0 0.0 6e-45 6e-45 6e-45
0.0 0.16066332 6e-45 0.0 0.0 0.27649456 0.5652247 0.23007551
0.043031618 0.1582169 0.07623558 0.0 0.0 0.074044555 0.43096924 0.31222296
0.0 0.0 0.0 0.0 0.0 0.0 0.0 0.0
0.0 0.0 0.0 0.0 0.0 0.0 0.0 0.0
0.0 -0.3699236 -6e-45 0.0 0.0 -0.6331614 -1.2959327 -0.5267941
-0.09942253 -0.36426616 -0.1761461 0.0 0.0 -0.1711007 -0.9875378 -0.7147918
0.0 -0.35098863 -6e-45 0.0 0.0 -0.60069853 -1.2295135 -0.49978155
-0.09434718 -0.34561992 -0.1671541 0.0 0.0 -0.16236582 -0.9369117 -0.6781363
0.0 0.0 0.0 0.0 0.0 0.0 0.0 0.0
0.0 0.0 0.0 0.0 0.0 0.0 0.0 0.0
0.0 0.23820269 6e-45 0.0 0.0 0.40941453 0.83713096 0.34066492
0.06388454 0.23457196 0.113179505 0.0 0.0 0.109929815 0.6381984 0.46227446
0.0 -0.33943063 -6e-45 0.0 0.0 -0.5808495 -1.1889083 -0.48326695
-0.09124428 -0.33423874 -0.161657 0.0 0.0 -0.15702823 -0.90596145 -0.6557262
0.0 0.0 0.0 0.0 0.0 6e-45 0.0 6e-45
6e-45 0.0 6e-45 0.0 0.0 6e-45 6e-45 6e-45
00000000: 0000 0000 0400 0000 0400 0000 0000 0000
00000010: 0000 0000 0400 0000 0400 0000 0400 0000
00000020: 0400 0000 0400 0000 0400 0000 0000 0000
00000030: 0000 0000 0400 0000 0400 0000 0400 0000
00000040: 0000 0000 0000 0000 0000 0000 0000 0000
00000050: 0000 0000 0000 0000 0000 0000 0000 0000
00000060: 0000 0000 0000 0000 0000 0000 0000 0000
00000070: 0000 0000 0000 0000 0000 0000 0000 0000
00000080: 0000 0000 0400 0000 0400 0000 0000 0000
00000090: 0000 0000 fe7a e9bd e119 f036 26d3 a5bd
000000a0: f83d bcbd 0400 0000 d6da 21be 0000 0000
000000b0: 0000 0000 f75e 17be 6e40 66bb 22e2 abbd
000000c0: 0000 0000 058f 06bd 0400 0080 0000 0000
000000d0: 0000 0000 c280 62bd 7d4c e8bd ec24 3cbd
000000e0: fcef 18bc 3077 04bd 4c06 88bc 0000 0000
000000f0: 0000 0000 5bce 87bc 83a7 b0bd 12bd 7ebd
00000100: 0000 0000 387b a03e 0400 0000 0000 0000
00000110: 0000 0000 38d5 093f 8aee 8c3f 595f e53e
00000120: f637 ac3d ca08 9e3e ec8d 183e 0000 0000
00000130: 0000 0000 602d 143e 90de 563f e69f 1b3f
00000140: 0000 0000 b2ff a03e 0400 0000 0000 0000
00000150: 0000 0000 e14a 0a3f 1567 8d3f 6223 e63e
00000160: febe ac3d 308b 9e3e 7a05 193e 0000 0000
00000170: 0000 0000 a9a0 143e da96 573f 3225 1c3f
00000180: 0000 0000 0000 0000 0000 0000 0000 0000
00000190: 0000 0000 0000 0000 0000 0000 0000 0000
000001a0: 0000 0000 0000 0000 0000 0000 0000 0000
000001b0: 0000 0000 0000 0000 0000 0000 0000 0000
000001c0: 0000 0000 0000 0000 0000 0000 0000 0000
000001d0: 0000 0000 0400 0000 0000 0000 0400 0000
000001e0: 0400 0000 0000 0000 0400 0000 0000 0000
000001f0: 0000 0000 0400 0000 0400 0000 0400 0000
00000200: 0000 0000 ed84 243e 0400 0000 0000 0000
00000210: 0000 0000 b290 8d3e 91b2 103f ea98 6b3e
00000220: ec41 303d 9c03 223e 6621 9c3d 0000 0000
00000230: 0000 0000 aca4 973d 00a8 dc3e b0db 9f3e
00000240: 0000 0000 0000 0000 0000 0000 0000 0000
00000250: 0000 0000 0000 0000 0000 0000 0000 0000
00000260: 0000 0000 0000 0000 0000 0000 0000 0000
00000270: 0000 0000 0000 0000 0000 0000 0000 0000
00000280: 0000 0000 a066 bdbe 0400 0080 0000 0000
00000290: 0000 0000 de16 22bf 1fe1 a5bf fadb 06bf
000002a0: 0a9e cbbd 1881 babe a55f 34be 0000 0000
000002b0: 0000 0000 0635 2fbe 47cf 7cbf 98fc 36bf
000002c0: 0000 0000 c8b4 b3be 0400 0080 0000 0000
000002d0: 0000 0000 61c7 19bf b360 9dbf 5ee3 ffbe
000002e0: 1839 c1bd 18f5 b0be 722a 2bbe 0000 0000
000002f0: 0000 0000 3a43 26be 72d9 6fbf 579a 2dbf
00000300: 0000 0000 0000 0000 0000 0000 0000 0000
00000310: 0000 0000 0000 0000 0000 0000 0000 0000
00000320: 0000 0000 0000 0000 0000 0000 0000 0000
00000330: 0000 0000 0000 0000 0000 0000 0000 0000
00000340: 0000 0000 68eb 733e 0400 0000 0000 0000
00000350: 0000 0000 c89e d13e 374e 563f a26b ae3e
00000360: e6d5 823d a233 703e a8ca e73d 0000 0000
00000370: 0000 0000 e222 e13d f860 233f 3daf ec3e
00000380: 0000 0000 dac9 adbe 0400 0080 0000 0000
00000390: 0000 0000 8eb2 14bf 262e 98bf c46e f7be
000003a0: 48de babd 5721 abbe 6a89 25be 0000 0000
000003b0: 0000 0000 02cc 20be 17ed 67bf acdd 27bf
000003c0: 0000 0000 0000 0000 0000 0000 0000 0000
000003d0: 0000 0000 0400 0000 0000 0000 0400 0000
000003e0: 0400 0000 0000 0000 0400 0000 0000 0000
000003f0: 0000 0000 0400 0000 0400 0000 0400 0000

exp_avg_sq f4 [16, 16]
0.0 1.1973821e-11 1.2066244e-17 0.0 0.0 1.3481338e-09 4.8519166e-10 3.0000663e-10
3.6779077e-10 1.1111127e-12 4.7907095e-10 0.0 0.0 3.302509e-10 5.162197e-10 4.993869e-10
0.0 0.0 0.0 0.0 0.0 0.0 0.0 0.0
0.0 0.0 0.0 0.0 0.0 0.0 0.0 0.0
0.0 7.8644646e-08 2.1844697e-08 0.0 0.0 0.14460148 2.2724894e-06 0.09790031
0.12176315 6.763636e-08 0.3759916 0.0 0.0 0.34143627 8.77084e-05 0.10922336
0.0 0.0436751 2.165791e-07 0.0 0.0 0.67934644 1.8295486 0.46137667
0.0012524516 0.018171478 0.0037015113 0.0 0.0 0.0021505519 1.2504498 0.82928085
0.0 2.0633483 5.206886e-06 0.0 0.0 37.752914 102.79547 25.89838
0.10604405 1.1634985 0.3270298 0.0 0.0 0.29643777 70.166885 46.96633
0.0 2.1602979 4.8513825e-06 0.0 0.0 39.298664 106.81903 26.94087
0.11196031 1.1980293 0.34497783 0.0 0.0 0.31206048 72.92803 48.820393
0.0 0.0 0.0 0.0 0.0 0.0 0.0 0.0
0.0 0.0 0.0 0.0 0.0 0.0 0.0 0.0
0.0 0.0 0.0 0.0 0.0 1.6376454e-09 0.0 5.4573505e-11
1.888828e-09 0.0 2.9378537e-09 0.0 0.0 2.1398165e-09 2.2379737e-11 2.1139498e-10
0.0 0.57095975 1.5242337e-06 0.0 0.0 10.363753 28.152174 7.103035
0.02968116 0.31455827 0.09141048 0.0 0.0 0.082628645 19.221659 12.86785
0.0 0.0 0.0 0.0 0.0 0.0 0.0 0.0
0.0 0.0 0.0 0.0 0.0 0.0 0.0 0.0
0.0 2.9476614 6.243196e-06 0.0 0.0 53.660686 145.97981 36.79666
0.15198627 1.6442032 0.46853906 0.0 0.0 0.42423627 99.65212 66.69872
0.0 2.749959 5.6879476e-06 0.0 0.0 49.61823 134.81949 34.00366
0.1423999 1.5068529 0.43846387 0.0 0.0 0.39631578 92.043625 61.593803
0.0 0.0 0.0 0.0 0.0 0.0 0.0 0.0
0.0 0.0 0.0 0.0 0.0 0.0 0.0 0.0
0.0 1.2266703 3.1101374e-06 0.0 0.0 22.304396 60.66446 15.29304
0.063334495 0.6821649 0.19513115 0.0 0.0 0.17660587 41.41352 27.718107
0.0 2.4937646 5.295761e-06 0.0 0.0 45.34742 123.34322 31.093504
0.12869331 1.3878561 0.3966382 0.0 0.0 0.35901392 84.200775 56.356155
0.0 0.0 0.0 0.0 0.0 4.1800202e-08 0.0 2.3059856e-09
4.968105e-08 0.0 1.0605595e-07 0.0 0.0 7.3694736e-08 5.143656e-10 7.737017e-09
00000000: 0000 0000 4ca5 522d 3a95 5e23 0000 0000
00000010: 0000 0000 3e49 b930 545e 0530 2eee a42f
00000020: f331 ca2f 0e60 9c2b 9faf 0330 0000 0000
00000030: 0000 0000 af8e b52f bbe5 0d30 3b45 0930
00000040: 0000 0000 0000 0000 0000 0000 0000 0000
00000050: 0000 0000 0000 0000 0000 0000 0000 0000
00000060: 0000 0000 0000 0000 0000 0000 0000 0000
00000070: 0000 0000 0000 0000 0000 0000 0000 0000
00000080: 0000 0000 5ae3 a833 ffa4 bb32 0000 0000
00000090: 0000 0000 6912 143e 1281 1836 f57f c83d
000000a0: f55e f93d 7b3f 9133 f981 c03e 0000 0000
000000b0: 0000 0000 bcd0 ae3e 17f0 b738 7fb0 df3d
000000c0: 0000 0000 a9e4 323d cf8c 6834 0000 0000
000000d0: 0000 0000 a6e9 2d3f a62e ea3f 9039 ec3e
000000e0: 4d29 a43a 5adc 943c 0e95 723b 0000 0000
000000f0: 0000 0000 46f0 0c3b bd0e a03f c04b 543f
00000100: 0000 0000 e60d 0440 cfb6 ae36 0000 0000
00000110: 0000 0000 fc02 1742 4897 cd42 e22f cf41
00000120: 9f2d d93d 85ed 943f 7370 a73e 0000 0000
00000130: 0000 0000 b1c6 973e 7255 8c42 86dd 3b42
00000140: 0000 0000 5242 0a40 0fc9 a236 0000 0000
00000150: 0000 0000 d531 1d42 58a3 d542 e786 d741
00000160: 724b e53d 0659 993f efa0 b03e 0000 0000
00000170: 0000 0000 64c6 9f3e 27db 9142 1548 4342
00000180: 0000 0000 0000 0000 0000 0000 0000 0000
00000190: 0000 0000 0000 0000 0000 0000 0000 0000
000001a0: 0000 0000 0000 0000 0000 0000 0000 0000
000001b0: 0000 0000 0000 0000 0000 0000 0000 0000
000001c0: 0000 0000 0000 0000 0000 0000 0000 0000
000001d0: 0000 0000 8613 e130 0000 0000 4e04 702e
000001e0: 9dcc 0131 0000 0000 45e3 4931 0000 0000
000001f0: 0000 0000 0d0c 1331 b0da c42d 666e 682f
00000200: 0000 0000 6b2a 123f 4594 cc35 0000 0000
00000210: 0000 0000 efd1 2541 a737 e141 104c e340
00000220: e725 f33c c80d a13e 6b35 bb3d 0000 0000
00000230: 0000 0000 3539 a93d f5c5 9941 b7e2 4d41
00000240: 0000 0000 0000 0000 0000 0000 0000 0000
00000250: 0000 0000 0000 0000 0000 0000 0000 0000
00000260: 0000 0000 0000 0000 0000 0000 0000 0000
00000270: 0000 0000 0000 0000 0000 0000 0000 0000
00000280: 0000 0000 7ca6 3c40 a57c d136 0000 0000
00000290: 0000 0000 8ba4 5642 d5fa 1143 c82f 1342
000002a0: 4aa2 1b3e 4075 d23f 5ae4 ef3e 0000 0000
000002b0: 0000 0000 7f35 d93e e34d c742 bf65 8542
000002c0: 0000 0000 54ff 2f40 19db be36 0000 0000
000002d0: 0000 0000 1179 4642 cad1 0643 bf03 0842
000002e0: 48d1 113e 8ee0 c03f 567e e03e 0000 0000
000002f0: 0000 0000 e7e9 ca3e 5616 b842 0e60 7642
00000300: 0000 0000 0000 0000 0000 0000 0000 0000
00000310: 0000 0000 0000 0000 0000 0000 0000 0000
00000320: 0000 0000 0000 0000 0000 0000 0000 0000
00000330: 0000 0000 0000 0000 0000 0000 0000 0000
00000340: 0000 0000 8803 9d3f c1b7 5036 0000 0000
00000350: 0000 0000 676f b241 68a8 7242 4bb0 7441
00000360: 84b5 813d 5ca2 2e3f 76d0 473e 0000 0000
00000370: 0000 0000 2bd8 343e 72a7 2542 afbe dd41
00000380: 0000 0000 d799 1f40 3eb2 b136 0000 0000
00000390: 0000 0000 c263 3542 bbaf f642 7fbf f841
000003a0: 2ec8 033e 45a5 b13f 2a14 cb3e 0000 0000
000003b0: 0000 0000 acd0 b73e cc66 a842 b46c 6142
000003c0: 0000 0000 0000 0000 0000 0000 0000 0000
000003d0: 0000 0000 cf87 3333 0000 0000 5477 1e31
000003e0: e460 5533 0000 0000 e0c0 e333 0000 0000
000003f0: 0000 0000 1c42 9e33 4363 0d30 c3eb 0432

exp_avg f4 [16]
6e-45 0.0 -0.37938112 -0.09027016 0.8713929 0.8742705 0.0 6e-45
0.4474523 0.0 -1.0246444 -0.97211504 0.0 0.6626211 -0.9399986 6e-45
00000000: 0400 0000 0000 0000 3e3e c2be 90df b8bd
00000010: 9b13 5f3f 31d0 5f3f 0000 0000 0400 0000
00000020: 7818 e53e 0000 0000 8c27 83bf 88dc 78bf
00000030: 0000 0000 89a1 293f c0a3 70bf 0400 0000

exp_avg_sq f4 [16]
5.3521902e-09 0.0 1.8639965 1.78923 102.68795 106.85315 0.0 1.3863272e-08
28.173717 0.0 145.89943 134.81125 0.0 60.638683 123.28736 4.2417088e-07
00000000: 5de6 b731 0000 0000 7097 ee3f 7d05 e53f
00000010: 3b60 cd42 d0b4 d542 0000 0000 512b 6e32
00000020: c663 e141 0000 0000 41e6 1143 aecf 0643
00000030: 0000 0000 038e 7242 2193 f642 9ab9 e334

exp_avg f4 [1, 16]
6e-45 0.0 0.20371352 0.67419124 1.3735667 1.9621387 0.0 6e-45
2.348602 0.0 1.5700073 1.506558 0.0 1.3435994 1.5337391 6e-45
00000000: 0400 0000 0000 0000 479a 503e cc97 2c3f
00000010: 09d1 af3f 5c27 fb3f 0000 0000 0400 0000
00000020: 7f4f 1640 0000 0000 00f6 c83f e4d6 c03f
00000030: 0000 0000 11fb ab3f 9051 c43f 0400 0000

exp_avg_sq f4 [1, 16]
2.2328809e-08 0.0 0.8771225 90.308495 136.43568 356.58136 0.0 3.656865e-09
501.4835 0.0 237.00346 200.62292 0.0 143.9617 282.1054 4.1440336e-07
00000000: 92cd bf32 0000 0000 1a8b 603f f39d b442
00000010: 896f 0843 6a4a b243 0000 0000 404c 7b31
00000020: e3bd fa43 0000 0000 e300 6d43 789f 4843
00000030: 0000 0000 32f6 0f43 7e0d 8d43 2a7b de34

exp_avg f4 [16, 3]
-30.379879 -1.1506914 6.827242 -113.116 -2.0273647 28.787052 173.14705 -3.7246878
-37.13208 -6.273511 6.217352 -28.77599 9.1165905 -1.9155898 -5.306003 -327.98465
-0.89893436 84.057236 518.7141 -12.022713 -111.732506 -41.520035 10.800774 -53.776306
-204.54587 1.6643102 40.09243 600.63574 -13.554836 -130.08434 -302.17337 -1.4299006
88.46647 -305.6328 -1.2403157 90.28821 -13.271429 9.561488 -49.20465 305.8103
-7.022241 -65.755455 -87.55072 -7.562041 74.7851 148.6042 -3.4526277 -31.494133
00000000: fe09 f3c1 db49 93bf c478 da40 643b e2c2
00000010: 58c0 01c0 e24b e641 a525 2d43 4961 6ec0
00000020: 4087 14c2 9ac0 c8c0 8cf4 c640 3a35 e6c1
00000030: 8edd 1141 0c32 f5bf c7ca a9c0 09fe a3c3
00000040: 9020 66bf 4e1d a842 b4ad 0144 085d 40c1
00000050: 0b77 dfc2 8414 26c2 f8cf 2c41 f01a 57c2
00000060: be8b 4cc3 1e08 d53f a65e 2042 b028 1644
00000070: 9ce0 58c1 9715 02c3 3116 97c3 fc06 b7bf
00000080: d5ee b042 00d1 98c3 aac2 9ebf 9093 b442
00000090: c657 54c1 dbfb 1841 90d1 44c2 b8e7 9843
000000a0: 33b6 e0c0 cb82 83c2 f819 afc2 3dfc f1c0
000000b0: f991 9542 ad9a 1443 daf7 5cc0 fcf3 fbc1

exp_avg_sq f4 [16, 3]
10966.834 4.7381577 2132.2454 77460.44 33.892685 11133.029 103545.12 42.11296
19606.654 183293.61 89.506454 21997.396 20228.404 8.421691 3254.7922 348311.25
165.88437 50099.99 942773.56 368.03104 170619.84 732014.0 355.6401 83158.99
216131.78 89.98215 29952.166 1.2902135e+06 507.1871 235240.36 463186.66 205.37064
71516.375 473119.75 209.14288 73005.46 510393.06 246.8756 58611.08 317304.9
123.52156 57026.117 444295.56 394.54752 73955.36 81078.34 32.360886 14836.081
00000000: 565b 2b46 fd9e 9740 ed43 0545 384a 9747
00000010: 1c92 0742 1ef4 2d46 8f3c ca47 ac73 2842
00000020: 4f2d 9946 67ff 3248 4e03 b342 cbda ab46
00000030: cf08 9e46 3fbf 0641 ad6c 4b45 e812 aa48
00000040: 66e2 2543 fdb3 4347 592b 6649 f903 b843
00000050: f69e 2648 e0b6 3249 efd1 b143 7f6b a247
00000060: f210 5348 dcf6 b342 5500 ea46 2c7f 9d49
00000070: f397 fd43 17ba 6548 552a e248 e25e 4d43
00000080: 30ae 8b47 f803 e748 9424 5143 bb96 8e47
00000090: 2237 f948 27e0 7643 14f3 6447 1def 9a48
000000a0: 0a0b f742 1ec2 5e47 f2f0 d848 1546 c543
000000b0: ae71 9047 2c5b 9e47 8c71 0142 53d0 6746

exp_avg f4 [16]
-31.30574 -30.337286 -183.36562 200.63437 -71.86837 46.617798 -577.2393 354.70786
122.3195 -659.4957 51.6988 59.510345 317.93454 -337.1195 -207.96223 -165.64636
00000000: 2872 fac1 c3b2 f2c1 995d 37c3 66a2 4843
00000010: 9bbc 8fc2 a078 3a42 514f 10c4 9b5a b143
00000020: 96a3 f442 badf 24c4 92cb 4e42 980a 6e42
00000030: 9ff7 9e43 4c8f a8c3 55f6 4fc3 78a5 25c3

exp_avg_sq f4 [16]
8218.455 57508.855 74855.39 147054.42 14903.253 274470.9 666737.0 582519.7
158098.55 915207.7 348048.4 354493.25 405715.0 224040.92 546550.0 58126.344
00000000: d269 0046 dba4 6047 b233 9247 9b9b 0f48
00000010: 03dd 6846 dd04 8648 10c7 2249 7b37 0e49
00000020: a364 1a48 7b70 5f49 0df2 a948 a817 ad48
00000030: 601a c648 3bca 5a48 606f 0549 580e 6347

exp_avg f4 [16, 16]
-4.1430416 59.877472 2.2812772 -3.2149944 24.219383 78.672226 2.0750985 -4.301432
99.5423 2.391004 66.05484 60.362003 -4.0388103 1.7926456 -63.938522 1.8596358
-4.620314 81.01281 3.8752022 -4.298563 33.19767 105.15259 3.5696285 -5.7512827
133.06831 4.2293296 88.2919 80.69656 -5.4001427 3.1241987 -84.68882 3.1825356
-3.674612 64.44223 3.0827043 -3.4190013 26.407318 83.64183 2.839637 -4.57445
105.846695 3.3644667 70.2316 64.18991 -4.2951612 2.4853091 -67.360344 2.5316978
-3.4622 -64.1672 -1.7138411 3.6692903 -26.939795 -51.930084 -1.5676445 5.340748
-58.32885 -1.8611361 -61.266922 -55.983356 4.994755 -1.3794185 17.030392 -1.3967614
-3.54534 -66.09588 -1.700187 1.4940552 -26.575254 -51.1071 -1.5584944 2.2346117
-58.827766 -1.8491218 -62.056618 -56.905823 2.0002646 -1.3731579 -8.536271 -1.388764
-4.423057 63.923332 2.435313 -3.4323294 25.855864 83.988235 2.215207 -4.5922213
106.26849 2.552422 70.51824 64.44072 -4.311846 1.913677 -68.2596 1.9851985
-3.468916 -67.51556 -1.767854 3.8710322 -28.31162 -55.08048 -1.6259321 5.63473
-61.82986 -1.9288712 -64.69286 -59.122265 5.269146 -1.435229 19.083654 -1.4487002
6e-45 6e-45 6e-45 0.0 6e-45 6e-45 6e-45 0.0
6e-45 6e-45 -6e-45 0.0 0.0 6e-45 6e-45 6e-45
-3.9740348 -74.80177 -2.013775 4.0490174 -31.276283 -60.46867 -1.8486776 5.8973923
-67.93531 -2.1985216 -71.44476 -65.30683 5.5100155 -1.6303742 18.187517 -1.6464515
-3.0858698 -61.198578 -1.6131568 3.5520303 -25.678022 -50.26012 -1.4852947 5.166678
-56.549828 -1.7615261 -58.73684 -53.675125 4.8327274 -1.3116167 18.211742 -1.3233354
-2.8461068 -54.46878 -1.4790992 3.2596097 -22.955326 -44.91204 -1.3540949 4.7342777
-50.50744 -1.6074177 -52.199726 -47.68499 4.4335747 -1.1920533 16.822353 -1.2064725
6e-45 6e-45 6e-45 6e-45 6e-45 6e-45 0.0 6e-45
6e-45 0.0 6e-45 6e-45 6e-45 0.0 6e-45 6e-45
-4.159537 60.116676 2.2903457 -3.2278564 24.316133 78.98623 2.0833476 -4.318645
99.93956 2.4005015 66.318665 60.60309 -4.0549726 1.79977 -64.19355 1.8670274
-4.79909 -82.75169 -2.0891716 1.7864659 -33.26886 -62.698265 -1.9126917 2.6973107
-71.316536 -2.2706404 -77.21623 -70.81501 2.4103532 -1.6838608 -14.100355 -1.704153
-7.8514533 -120.31368 -2.4487987 0.041888595 -47.769135 -85.11258 -2.2366674 0.059757233
-91.474724 -2.6642313 -115.35059 -106.26118 0.051692836 -1.969177 -24.564259 -1.9922942
6e-45 6e-45 6e-45 6e-45 6e-45 -6e-45 6e-45 0.0
6e-45 6e-45 6e-45 6e-45 6e-45 6e-45 6e-45 6e-45
00000000: cc93 84c0 8882 6f42 7200 1240 78c2 4dc0
00000010: 4cc1 c141 2e58 9d42 6ace 0440 55a5 89c0
00000020: a815 c742 3606 1940 141c 8442 b172 7142
00000030: ef3d 81c0 6975 e53f 0cc1 7fc2 8c08 ee3f
00000040: 9dd9 93c0 8f06 a242 5003 7840 d48d 89c0
00000050: 6aca 0442 204e d242 cb74 6440 820a b8c0
00000060: 7d11 0543 ab56 8740 7495 b042 a464 a142
00000070: f8cd acc0 dff2 4740 ad60 a9c2 aaae 4b40
00000080: d82c 6bc0 6ce2 8042 074b 4540 ebd0 5ac0
00000090: 3042 d341 9e48 a742 9dbc 3540 e561 92c0
000000a0: 82b1 d342 6c53 5740 9476 8c42 3c61 8042
000000b0: f671 89c0 4e0f 1f40 7fb8 86c2 5607 2240
000000c0: af94 5dc0 9b55 80c2 255f dbbf a7d5 6a40
000000d0: b384 d7c1 68b8 4fc2 93a8 c8bf 68e7 aa40
000000e0: be50 69c2 b539 eebf 5411 75c2 f5ee 5fc2
000000f0: 08d5 9f40 c990 b0bf 3e3e 8841 14c9 b2bf
00000100: dae6 62c0 1731 84c2 ba9f d9bf 333d bf3f
00000110: 1f9a d4c1 ac6d 4cc2 bf7c c7bf e103 0f40
00000120: a24f 6bc2 06b0 ecbf fa39 78c2 909f 63c2
00000130: 5604 0040 a3c3 afbf 9194 08c1 05c3 b1bf
00000140: af89 8dc0 7eb1 7f42 2bdc 1b40 49ab 5bc0
00000150: cfd8 ce41 faf9 a742 f4c5 0d40 7af3 92c0
00000160: 7889 d442 e25a 2340 5709 8d42 a6e1 8042
00000170: a4fa 89c0 5ef3 f43f ea84 88c2 fc1a fe3f
00000180: b802 5ec0 f707 87c2 0a49 e2bf febe 7740
00000190: 337e e2c1 6952 5cc2 8b1e d0bf b54f b440
000001a0: c751 77c2 40e5 f6bf bf62 81c2 337d 6cc2
000001b0: d89c a840 95b5 b7bf 53ab 9841 026f b9bf
000001c0: 0400 0000 0400 0000 0400 0000 0000 0000
000001d0: 0400 0000 0400 0000 0400 0000 0000 0000
000001e0: 0400 0000 0400 0000 0400 0080 0000 0000
000001f0: 0000 0000 0400 0000 0400 0000 0400 0000
00000200: 9656 7ec0 829a 95c2 b1e1 00c0 8d91 8140
00000210: d435 fac1 ebdf 71c2 78a1 ecbf 70b7 bc40
00000220: e1de 87c2 94b4 0cc0 b8e3 8ec2 199d 82c2
00000230: 0c52 b040 1ab0 d0bf 0980 9141 ecbe d2bf
00000240: e47e 45c0 58cb 74c2 ec7b cebf 7754 6340
00000250: 976c cdc1 5d0a 49c2 231e bebf 6d55 a540
00000260: 0633 62c2 b079 e1bf 86f2 6ac2 54b3 56c2
00000270: b4a5 9a40 0ee3 a7bf a6b1 9141 0e63 a9bf
00000280: 9d26 36c0 08e0 59c2 1f53 bdbf 729d 5040
00000290: 82a4 b7c1 eea5 33c2 fb52 adbf 347f 9740
000002a0: 9e07 4ac2 ddbf cdbf 85cc 50c2 6ebd 3ec2
000002b0: d8df 8d40 3495 98bf 2e94 8641 b16d 9abf
000002c0: 0400 0000 0400 0000 0400 0000 0400 0000
000002d0: 0400 0000 0400 0000 0000 0000 0400 0000
000002e0: 0400 0000 0000 0000 0400 0000 0400 0000
000002f0: 0400 0000 0000 0000 0400 0000 0400 0000
00000300: ed1a 85c0 7a77 7042 0695 1240 3395 4ec0
00000310: 7187 c241 f3f8 9d42 9155 0540 5732 8ac0
00000320: 0ee1 c742 d1a1 1940 28a3 8442 9069 7242
00000330: 56c2 81c0 dd5e e63f 1963 80c2 c1fa ee3f
00000340: 2592 99c0 de80 a5c2 fdb4 05c0 eaaa e43f
00000350: 5013 05c2 06cb 7ac2 15d3 f4bf bda0 2c40
00000360: 11a2 8ec2 2c52 11c0 b66e 9ac2 49a1 8dc2
00000370: 3a43 1a40 c088 d7bf 0e9b 61c1 af21 dabf
00000380: 1b3f fbc0 9ba0 f0c2 1eb9 1cc0 6093 2b3d
00000390: 9813 3fc2 a439 aac2 8f25 0fc0 00c4 743d
000003a0: 0ff3 b6c2 c482 2ac0 81b3 e6c2 b985 d4c2
000003b0: debb 533d fe0d fcbf 9a83 c4c1 7f03 ffbf
000003c0: 0400 0000 0400 0000 0400 0000 0400 0000
000003d0: 0400 0000 0400 0080 0400 0000 0000 0000
000003e0: 0400 0000 0400 0000 0400 0000 0400 0000
000003f0: 0400 0000 0400 0000 0400 0000 0400 0000
