Source/Baseline/ForceTorque_analysis_method/logs/ppo-ur5-ComGrasp/ppo-ur5-ComGrasp_s0/pyt_save/model.pt (torch_old, 13768 bytes, 30 tensors)

pi.mu_net.0.weight f4 [16, 2]
0	0xbdbeafac	-0.093108505
1	0x3ebc972e	0.3683409
2	0xbefc7af3	-0.49312553
3	0xbf230d0b	-0.63691777
4	0xbec26494	-0.3796736
5	0x3e12a3d6	0.14320311
6	0xbdb2d131	-0.08731306
7	0x3f05e997	0.52309555
8	0x3c65deed	0.0140302
9	0x3e8bf070	0.27331877
10	0xbe5a4ad4	-0.21317607
11	0xbeb31015	-0.34973207
12	0xbf5f18b9	-0.871471
13	0xbf0ac3a2	-0.5420476
14	0xbe1e89b5	-0.15482219
15	0x3dd7b58d	0.10532675
16	0x3e819ad9	0.25313452
17	0x3f05178d	0.5198906
18	0xbf09d568	-0.5384126
19	0xbec94625	-0.3931133
20	0x3ebdc935	0.3706757
21	0x3f33b3f1	0.70196444
22	0xbe51278d	-0.20425244
23	0x3ef8f077	0.4862096
24	0xbe2a735d	-0.1664557
25	0x3d12b7f9	0.03581998
26	0x3f590a54	0.84781384
27	0xbf193c53	-0.5985767
28	0xbf22d84f	-0.6361131
29	0xbe83627f	-0.25661084
30	0xbe03b4a1	-0.12861873
31	0x3f2c9b58	0.67424536

pi.mu_net.0.bias f4 [16]
0	0xbecc6ae8	-0.39925313
1	0xbeb5e992	-0.35529763
2	0xbef1dff8	-0.47241187
3	0xbf23d973	-0.64003676
4	0xbeb97348	-0.36220765
5	0x3ecc6694	0.3992201
6	0x3e8df2d3	0.27724323
7	0x3e7ece47	0.24883376
8	0x3d1f74f7	0.038929906
9	0xbeb7846f	-0.35843226
10	0x3e0435a6	0.1291109
11	0xbf22cfd3	-0.63598365
12	0xbee8834e	-0.45412678
13	0xbea1b562	-0.31583697
14	0x3ec208cb	0.37897334
15	0x3ebf751a	0.3739403

pi.mu_net.2.weight f4 [16, 16]
0	0xbe068d36	-0.13139805
1	0x3d5f4ddd	0.054517616
2	0x3e2a20da	0.16614094
3	0x3e6d54f2	0.23176935
4	0x3dc5a57a	0.09650703
5	0x3d573065	0.052536387
6	0x3e783add	0.24241205
7	0xbdf0fc38	-0.11766857
8	0xbd10e7f6	-0.035377465
9	0xbe146435	-0.14491351
10	0xbe858f97	-0.26086113
11	0xbe127b1a	-0.14304772
12	0x3dd5ae34	0.10433617
13	0x3d133f29	0.035948906
14	0xbdcc6ec2	-0.09982063
15	0x3db83861	0.089951284
16	0x3ddb7eba	0.107175305
17	0x3ccd1958	0.025036499
18	0x3c3fa654	0.011697371
19	0x3cfde1d5	0.030991474
20	0x3e12013b	0.14258282
21	0x3e8a1310	0.2696767
22	0xbde22445	-0.11042074
23	0xbd4066ed	-0.046973158
24	0x3ca9f5d3	0.020747101
25	0x3e824622	0.25444132
26	0x3e0e42be	0.13892648
27	0x3e49d875	0.19711478
28	0x3ce215cd	0.027598286
29	0xbe9925ff	-0.299118
30	0x3da6b5d5	0.081401505
31	0xbdf40abc	-0.1191611
32	0xbe746c2c	-0.2386939
33	0x3e089757	0.13338982
34	0x3e1b5d6c	0.15172356
35	0xbe83a58b	-0.25712237
36	0x3cc7c61c	0.024386458
37	0xbd2e0eda	-0.042494632
38	0xbdf2895a	-0.11842604
39	0xbe078d63	-0.13237529
40	0x3e4ae77a	0.19814864
41	0xbe673fcf	-0.22582935
42	0x3e4ee4f7	0.2020453
43	0x3de663bb	0.11249491
44	0x3e2429e4	0.16031605
45	0x3e22c209	0.15894331
46	0xbe92a0a7	-0.28638193
47	0xbe294c0e	-0.16532919
48	0x3e2fa5f5	0.17153151
49	0x3dfda909	0.123857565
50	0xbdf7917a	-0.12088294
51	0xbdda7e00	-0.10668564
52	0x3e803711	0.25042012
53	0x3e2b0918	0.16702688
54	0xbdbd62b5	-0.092473425
55	0xbd8e18cb	-0.06938323
56	0xbea71543	-0.3263341
57	0x3d8f8bd2	0.070090905
58	0xbe8d0b1f	-0.27547547
59	0xbe129b84	-0.14317137
60	0x3d249823	0.04018415
61	0x3cd2425a	0.025666405
62	0xbdbe9ea4	-0.09307602
63	0x3e0b796c	0.13620538
64	0xbe16392b	-0.14670245
65	0x3ea2cf70	0.31798887
66	0x3e548e80	0.20757484
67	0xbe4e8462	-0.20167688
68	0xbd0b9834	-0.0340807
69	0x3bc2e0fb	0.00594723
70	0x3dd0fabb	0.10204073
71	0x3d975f2a	0.07391198
72	0x396d5bc5	0.00022636268
73	0x3db9b016	0.09066789
74	0xbe67d0e7	-0.22638284
75	0x3e0821b7	0.13294111
76	0xbe624ef7	-0.22100435
77	0xbe4df964	-0.20114666
78	0xbd0767ca	-0.033057965
79	0xbdfd0772	-0.12354936
80	0xbdba6c2e	-0.09102665
81	0xbdf00beb	-0.11721023
82	0xbcaca379	-0.021074044
83	0x3d53c08e	0.051697306
84	0xbe1aa216	-0.15100893
85	0xbb34bc4f	-0.002757806
86	0x3e8658ef	0.26239726
87	0xbaa8bc08	-0.001287342
88	0xbdcb6dea	-0.09933074
89	0x3d61268f	0.054968413
90	0xbd8158db	-0.06315776
91	0x3e271d51	0.16319777
92	0x3e7c3471	0.2462938
93	0x3db38ad7	0.08766716
94	0x3e91a259	0.28444174
95	0xbc027d45	-0.007964437
96	0xbe6d3b99	-0.23167266
97	0xbc7680b3	-0.015045333
98	0x3e56460d	0.2092516
99	0xbbd26485	-0.0064206743
100	0xbde8919f	-0.113559
101	0xbe34a5bf	-0.17641352
102	0xbe12a16d	-0.14319392
103	0xbe37cf35	-0.17950137
104	0xbe2ecd13	-0.17070417
105	0x3e6abe10	0.22924066
106	0x3c20c952	0.0098136235
107	0xbe737753	-0.23775987
108	0x3e273796	0.16329798
109	0xbe8b9e1b	-0.27269062
110	0x3a87719a	0.0010333539
111	0xbdadf2ce	-0.08493577
112	0xbcc4a85a	-0.024006058
113	0xbe0bc37b	-0.13648789
114	0xbe7bd4ab	-0.24592845
115	0xbe489180	-0.19586754
116	0xbd1b8057	-0.03796419
117	0xbc188310	-0.0093085915
118	0xbe0516b4	-0.12996942
119	0x3d9c1585	0.07621292
120	0xbe002f7e	-0.12518117
121	0xbdc41c16	-0.095756695
122	0x3eaad45b	0.3336514
123	0xbdb69433	-0.089149855
124	0x3e6e1cba	0.23253146
125	0x3dbeb24c	0.09311351
126	0xbe795ab1	-0.24351002
127	0x3e24b78d	0.16085644
128	0xbc8385ce	-0.016055014
129	0xbc6dbd3f	-0.014510452
130	0x3e7c2901	0.24625017
131	0xbe3f0f2b	-0.1865813
132	0x3d6eade9	0.058271322
133	0xbd7326ab	-0.05936305
134	0x3e800d00	0.25009918
135	0x3da87bd0	0.0822674
136	0x3c79fdc4	0.015258256
137	0x3e312a99	0.17301406
138	0xbe31e0da	-0.1737093
139	0xbcf9671d	-0.030444676
140	0xbe37b358	-0.17939508
141	0x3d9cdd3f	0.07659387
142	0x3e6c7133	0.23090057
143	0x3e2abbc5	0.16673191
144	0xbe283d41	-0.16429617
145	0xbd8400e3	-0.06445482
146	0xbe494b57	-0.19657646
147	0xbe02ee79	-0.12786283
148	0xbe19a2cf	-0.15003513
149	0x3d8fb219	0.07016391
150	0xbe6a5648	-0.22884476
151	0xbd0e9efa	-0.03481958
152	0x3dd44686	0.10365014
153	0x3dc77bbe	0.09740399
154	0xbdb8af8f	-0.0901786
155	0xbe2a6b87	-0.16642581
156	0xbe1374a5	-0.14399965
157	0x3e7c737b	0.24653427
158	0xbe0d6fae	-0.13812134
159	0x3e45fffa	0.19335929
160	0x3dc65390	0.09683907
161	0xbd307ae5	-0.04308595
162	0xbcc1152c	-0.023569666
163	0xbd3c2a19	-0.045938585
164	0x3ca09329	0.019601421
165	0xbd818002	-0.06323244
166	0xbd8ac45d	-0.067757346
167	0x3c47ba5b	0.012190427
168	0xbddc3656	-0.10752551
169	0xbe453521	-0.19258548
170	0x3e98b875	0.2982823
171	0xbe4fc0c2	-0.20288375
172	0xbcb9dbe2	-0.022687856
173	0x3e9be742	0.30449873
174	0x3d5e9f47	0.054351117
175	0x37ad53dc	2.0662257e-05
176	0xbe5cf02c	-0.21575993
177	0x3b0873cf	0.002082098
178	0xbe6b2cc5	-0.22966297
179	0xbd94652f	-0.07245862
180	0xbdcf4f33	-0.10122528
181	0xbd453bd7	-0.04815277
182	0xbdb499e8	-0.08818418
183	0x3e379f9b	0.17931978
184	0x3e2d170e	0.16903326
185	0x3deb2a73	0.11482706
186	0x3e98450f	0.29740188
187	0xbe2d0da3	-0.16899733
188	0x3dc5201e	0.096252665
189	0xbdd4ee70	-0.10397041
190	0xbe213011	-0.15740992
191	0x3d82f464	0.0639427
192	0x3d9618ff	0.073289864
193	0x3e8d334a	0.27578193
194	0xbd59621f	-0.05307209
195	0xbbc49710	-0.0059994534
196	0x3e0b3f54	0.13598377
197	0xbe6c6bf3	-0.23088054
198	0x3e802268	0.2502625
199	0xbe3f0631	-0.18654706
200	0xbdd5ae9c	-0.10433695
201	0x3d04bd59	0.03240714
202	0xbe7c7b17	-0.2465633
203	0x3cfb2e11	0.030661615
204	0x3e573608	0.21016705
205	0xbe04eeed	-0.12981768
206	0xbdde5142	-0.108553424
207	0xbdafe598	-0.085887134
208	0xbe7a0e2c	-0.24419469
209	0x3e4dd502	0.20100787
210	0xbdab960c	-0.083782285
211	0xbe24d39c	-0.16096348
212	0xbdfebf3c	-0.12438819
213	0x3e146647	0.1449214
214	0x3e50d435	0.2039345
215	0x3e542a14	0.20719177
216	0xbc2452d7	-0.010029516
217	0xbbecea4f	-0.00723008
218	0xbe39a76a	-0.1813027
219	0x3dae4ca4	0.08510712
220	0x3e63da7d	0.22251315
221	0x3c160478	0.009156339
222	0xbda821fa	-0.082096055
223	0xbdf0ccdb	-0.11757823
224	0xbe6e224b	-0.23255269
225	0xbcddfde1	-0.027098598
226	0xbe2b2d15	-0.16716416
227	0xbe62ff7a	-0.22167769
228	0x3e51ca8d	0.20487423
229	0xbe2c7edc	-0.16845268
230	0xbdd2e63a	-0.102978185
231	0x3d4def50	0.050277054
232	0x3dd5530e	0.10416232
233	0xbe724c31	-0.23661877
234	0xbdc893d5	-0.09793822
235	0x3e488d36	0.19585118
236	0x3d045266	0.032305144
237	0x3e8ad4de	0.2711553
238	0xbdfe7d6e	-0.124262676
239	0x3d87fbab	0.06639799
240	0xbd337763	-0.043815028
241	0x3df6570f	0.12028324
242	0xbdb9ec40	-0.09078264
243	0x3dc4fc4a	0.09618433
244	0x3dc2fe0e	0.09521113
245	0x3bb90309	0.005646114
246	0x3cfc9a8d	0.030835414
247	0xbe0be322	-0.13660863
248	0x3cad8161	0.021179857
249	0xbd8be6aa	-0.06831105
250	0xbd5c0aac	-0.053721115
251	0xbd7e24b2	-0.062046714
252	0xbdbbedcb	-0.09176215
253	0xbc7b3407	-0.0153322285
254	0xbdaa398c	-0.083117574
255	0x3d676a08	0.056497604

pi.mu_net.2.bias f4 [16]
0	0x3d5dbde9	0.05413619
1	0xbe299638	-0.1656121
2	0x3d6ba577	0.057530846
3	0x3da8543f	0.08219194
4	0x3da1df90	0.07903969
5	0xbd1d1394	-0.03834875
6	0xbe557f1e	-0.20849273
7	0xbd2df695	-0.042471487
8	0x3d801aef	0.06255137
9	0xbdbd7f8b	-0.092528425
10	0x3dd03377	0.10166066
11	0x3e357522	0.17720464
12	0xbe0a808f	-0.13525604
13	0xbc55d3c6	-0.013050979
14	0x3de581a7	0.1120637
15	0x3b551a9a	0.0032517076

pi.mu_net.4.weight f4 [1, 16]
0	0x3cb0697e	0.021534678
1	0x3cd3bcda	0.025846887
2	0xbe661172	-0.22467592
3	0xbb8107fe	-0.0039377203
4	0x3e56aa41	0.20963384
5	0x3ea0b4f3	0.31388053
6	0x3df0d08b	0.117585264
7	0xbd8a0954	-0.067400604
8	0x3e019629	0.12654938
9	0xbe24f518	-0.16109121
10	0xbe8eb4b8	-0.27872252
11	0xbe4adfa8	-0.1981188
12	0x3e861a78	0.2619207
13	0x3e1fab8a	0.1559278
14	0xbe967ddf	-0.29392907
15	0x3aa3471c	0.0012457105

v.v_net.0.weight f4 [16, 2]
0	0x3e759f96	0.23986658
1	0x3ecc73e2	0.39932162
2	0x3cdbbb4e	0.026822712
3	0xbe994769	-0.29937294
4	0x3dd0acef	0.101892345
5	0x3f90e70d	1.1320511
6	0x3dc3ec38	0.095665395
7	0xbf445b55	-0.7670186
8	0xbf0712ba	-0.5276295
9	0x3f3adbe9	0.72991806
10	0xbe21d45a	-0.15803662
11	0xbe832471	-0.2561374
12	0xbe077cf5	-0.13231261
13	0xbed97251	-0.4247003
14	0x3fcda828	1.6066942
15	0x3e4b3729	0.1984526
16	0x3f0274f4	0.50959706
17	0x3ec4bd08	0.3842547
18	0x3f37619b	0.7163331
19	0x3d2b7210	0.041856825
20	0x3f2b0d05	0.6681674
21	0xbe82d6de	-0.25554556
22	0x3f0201ae	0.50783813
23	0xbe02265e	-0.12709948
24	0xbf94c685	-1.1623083
25	0xbf60cdac	-0.8781383
26	0x3f7af799	0.98034054
27	0x3f06135c	0.5237329
28	0x3f84e50e	1.0382402
29	0x3f2ad2e4	0.66728044
30	0xbe2812bc	-0.16413397
31	0x3daf81ef	0.08569705

v.v_net.0.bias f4 [16]
0	0xbf339a09	-0.70156914
1	0xbf69a6b4	-0.91269994
2	0x3f9960b4	1.1982636
3	0xbf9d55ea	-1.2291844
4	0xbe75f5cc	-0.24019545
5	0xbf743c5e	-0.95404613
6	0xbf751f2b	-0.95750684
7	0x3f62ed87	0.8864369
8	0x3f67d52a	0.9055964
9	0x3f6b8469	0.91998917
10	0x3f4cd99a	0.80019534
11	0x3f93aea2	1.1537669
12	0xbeee0dd5	-0.46494928
13	0x3efeec5b	0.497897
14	0x3f43f3c1	0.76543814
15	0x3f93b5aa	1.1539814

v.v_net.2.weight f4 [16, 16]
0	0x3df0375e	0.117293105
1	0xbddc895d	-0.107683875
2	0x3ec8ce86	0.39220065
3	0xbebdc56b	-0.3706468
4	0x3ef8c849	0.48590305
5	0xbe417d06	-0.18895349
6	0xbe577294	-0.21039802
7	0xbf61cbc4	-0.88201547
8	0x3d9fd052	0.07803406
9	0xbe10951d	-0.14119382
10	0x3de73b86	0.1129065
11	0x3e9d5a37	0.3073289
12	0x3f46585a	0.77478564
13	0xbf468207	-0.77542156
14	0xbe9f7c27	-0.31149408
15	0x3e9f478c	0.31109273
16	0xbe5ba1e8	-0.21448481
17	0xbe92d2f5	-0.28676572
18	0x3ef61301	0.48061374
19	0xbd92dc30	-0.07170904
20	0xbf25b246	-0.6472515
21	0x3d685175	0.05671831
22	0xbdb40807	-0.087905936
23	0x3f9881bf	1.1914595
24	0x3f55d0e3	0.8352186
25	0x3fa4e62d	1.2882744
26	0x3fd81c6e	1.6883676
27	0x3f4aab91	0.7916804
28	0xbfa0d811	-1.2565938
29	0x3f91f943	1.1404194
30	0x3fad85f3	1.3556503
31	0x3e67e157	0.22644554
32	0xbe3d2142	-0.18469718
33	0xbe669916	-0.22519335
34	0x3ef30ca7	0.4747059
35	0xbe963fe5	-0.29345623
36	0x3e1cd3be	0.15315148
37	0xbe4faa92	-0.20279911
38	0xbcefe932	-0.029286
39	0xbf11f50f	-0.57014555
40	0x3cd51908	0.026012912
41	0x3ddc9ce4	0.10772112
42	0xbd981ae5	-0.07427005
43	0x3d112a22	0.03544057
44	0x3f397bd0	0.7245455
45	0xbf33cf3a	-0.7023808
46	0xbeb4a96c	-0.3528551
47	0x3ecc618a	0.39918166
48	0xbe2af2af	-0.16694139
49	0xbec6416b	-0.38721785
50	0x3e67472a	0.2258574
51	0xbe34446d	-0.17604227
52	0xbf19b819	-0.60046536
53	0xbdec3b8e	-0.11534797
54	0xbf08d5a1	-0.5345097
55	0x3f911929	1.1335803
56	0x3f032704	0.5123141
57	0x3fb38aae	1.4026697
58	0x3ffbc585	1.9669653
59	0x3ed38c8f	0.41318175
60	0xbf82b6fe	-1.0212095
61	0x3fa48932	1.2854369
62	0x3fcf3ceb	1.6190466
63	0x3e912d96	0.28355092
64	0xbefe149b	-0.49625096
65	0xbce8f0a7	-0.028435064
66	0x3ed7cf86	0.42150515
67	0x3c850f45	0.016242633
68	0x3d4feb3f	0.050761458
69	0xbec7ccca	-0.3902343
70	0xbdedd3e7	-0.11612683
71	0x3fb40778	1.4064779
72	0x3f2c5aa3	0.673258
73	0x3f15316c	0.58278537
74	0x3f7e182c	0.99255633
75	0x3e964ca7	0.29355356
76	0xbfaaf9c1	-1.3357469
77	0x3fba5054	1.4555764
78	0x3fafc595	1.3732172
79	0x3ec9b2bf	0.39394185
80	0x3eb62446	0.3557455
81	0x3dbadc70	0.09124076
82	0xbe9858c1	-0.29755214
83	0xbe17ff08	-0.1484338
84	0x3ecb292a	0.39679843
85	0x3e3fda65	0.18735655
86	0x3ed369ed	0.41291752
87	0xbf8d9450	-1.1060886
88	0xbf42ce42	-0.76095974
89	0xbfa480b0	-1.2851772
90	0xbfee0f6a	-1.8598454
91	0xbf41b35a	-0.75664294
92	0x3faf4eab	1.3695883
93	0xbfb3c64d	-1.4044892
94	0xbfa310b4	-1.2739472
95	0xbed78dcd	-0.42100373
96	0xbed15b9f	-0.40890214
97	0xbedcc44a	-0.43118507
98	0x3ed58563	0.41703328
99	0xbe73d3bc	-0.23811239
100	0x3e219bf8	0.15782154
101	0xbd5565a5	-0.05209889
102	0xbe4664ea	-0.19374433
103	0x3fa4f987	1.288865
104	0x3f16c1f8	0.5888972
105	0x3f5779ce	0.84170234
106	0x3f8e20e0	1.1103783
107	0x3f209d7b	0.62740296
108	0xbfb65b62	-1.4246638
109	0x3fd51de0	1.6649742
110	0x3fc7ef68	1.5619936
111	0x3ddbab3a	0.10726018
112	0x3daa7726	0.08323507
113	0x3ec2e454	0.38064826
114	0xbc832a8b	-0.016011497
115	0xbd806e85	-0.0627108
116	0x3f1cab97	0.61199325
117	0x3e9954ad	0.29947415
118	0x3ed8b725	0.42327228
119	0xbf8aabbe	-1.0833662
120	0xbf523e38	-0.8212619
121	0xbfac5440	-1.3463211
122	0xbfd00ec8	-1.6254511
123	0xbf254647	-0.6456036
124	0x3fabb823	1.3415569
125	0xbfb20168	-1.3906679
126	0xbfa8160e	-1.313173
127	0xbeb60308	-0.35549188
128	0x3e1d8fd1	0.15386893
129	0x3e59a62f	0.212548
130	0xbe0efc14	-0.13963348
131	0x3ce6dbe7	0.02818103
132	0x3f02a9bf	0.5104026
133	0x3e9b7a7f	0.30366895
134	0x3e6e5dbe	0.23277947
135	0xbf96b8c2	-1.1775134
136	0xbf3daa9b	-0.7408845
137	0xbfa98527	-1.324376
138	0xbff0bef3	-1.8808273
139	0xbf358ad6	-0.7091497
140	0x3f912962	1.1340754
141	0xbf88cd48	-1.0687647
142	0xbfbd475c	-1.4787402
143	0xbe9866cc	-0.29765928
144	0xbea1259e	-0.31474012
145	0x3e1204b1	0.14259602
146	0x3edce7e8	0.4314568
147	0xbe970c16	-0.29501408
148	0xbf396f32	-0.72435296
149	0xbea67334	-0.32509768
150	0xbe731a53	-0.2374051
151	0x3fa290b7	1.2700413
152	0x3f3ff56d	0.74983865
153	0x3fb00edb	1.3754534
154	0x3fdd39f5	1.7283312
155	0x3f011a40	0.5043068
156	0xbf9d7fd7	-1.2304639
157	0x3fa3ea63	1.2805904
158	0x3fafa09f	1.3720893
159	0x3e9700bc	0.29492748
160	0x3ed96bbe	0.42465013
161	0xba11c980	-0.0005561337
162	0xbe7b6c34	-0.24552995
163	0x3d9881fd	0.07446668
164	0x3f473641	0.7781716
165	0xbd2c54d0	-0.04207307
166	0x3d4f13e6	0.050556086
167	0xbf8a4eb9	-1.0805274
168	0xbf81a37b	-1.0128015
169	0xbfb5045c	-1.4141955
170	0xbfd77f9d	-1.683582
171	0xbf33a0e1	-0.70167357
172	0x3f9ed6fe	1.240936
173	0xbf99efca	-1.2026303
174	0xbfbbfe50	-1.4686985
175	0xbf0a27c8	-0.5396695
176	0xbeace6e4	-0.33769906
177	0xbe788ba5	-0.2427202
178	0x3eb41aa1	0.35176566
179	0xbe9b15b9	-0.3029001
180	0x3e874154	0.2641703
181	0xbe5ba427	-0.21449338
182	0xbe9e8ebb	-0.3096827
183	0x3fb7dec8	1.4364862
184	0x3f3a607c	0.72803473
185	0x3f7fa233	0.9985687
186	0x3f861dec	1.0477881
187	0x3eb5520f	0.35414168
188	0xbfae1188	-1.35991
189	0x3fa8226e	1.3135507
190	0x3fdc29a3	1.7200207
191	0x3e0d8b2b	0.1382262
192	0x3d95b83e	0.07310532
193	0x3ec12e17	0.37730476
194	0xbdcf0800	-0.10108948
195	0x3e40b512	0.18819073
196	0xbe0d35d3	-0.13790064
197	0x3d5dd1cc	0.054155156
198	0x3ee37736	0.44426888
199	0xbfa29784	-1.2702489
200	0xbf5910d4	-0.847913
201	0xbf5d9867	-0.8656067
202	0xbf6c5004	-0.92309594
203	0xbeb484ca	-0.3525756
204	0x3faf3d79	1.3690635
205	0xbfbba9ad	-1.4661156
206	0xbfe5f3fb	-1.7965082
207	0xbf100a95	-0.56266147
208	0xbe21c394	-0.15797263
209	0xbe6a3527	-0.22871839
210	0x3f0266a5	0.50937873
211	0xbf0c7972	-0.5487281
212	0x3dc60b37	0.09670108
213	0xbda8b2a1	-0.08237196
214	0xbe5afd86	-0.21385774
215	0x3f920873	1.1408828
216	0x3f2b8cb6	0.6701158
217	0x3f55a3ee	0.8345326
218	0x3fb68f66	1.4262512
219	0x3f027473	0.5095894
220	0xbfb3001a	-1.3984406
221	0x3fd5a5ff	1.6691283
222	0x3fc63a7b	1.5486597
223	0x3e9af382	0.30263907
224	0x3e0df94e	0.13864633
225	0x3e099dd8	0.13439119
226	0xbed636ba	-0.41838628
227	0x3eb723a1	0.3576937
228	0xbe150033	-0.14550857
229	0x3e75ea8c	0.24015254
230	0x3eef951b	0.46793446
231	0xbfa2a0ea	-1.2705357
232	0xbf101850	-0.562871
233	0xbf1a58b4	-0.602916
234	0xbf81e4c4	-1.0147939
235	0xbf1b1732	-0.6058227
236	0x3fb46ce5	1.4095732
237	0xbfb6b1ef	-1.4273051
238	0xbff3a483	-1.903458
239	0xbe8c31f4	-0.2738186
240	0xbee495ca	-0.4464553
241	0xbd5f7d66	-0.05456295
242	0x3e9d7c09	0.30758694
243	0xbefe2ded	-0.49644414
244	0xbd298977	-0.041390862
245	0xbdf91ae2	-0.121633306
246	0xbea1420e	-0.31495708
247	0x3fb196d8	1.3874159
248	0x3f3ba1b3	0.7329361
249	0x3f801e47	1.000924
250	0x3f728bb5	0.94744426
251	0x3ee30aa1	0.44344047
252	0xbfb674b5	-1.4254366
253	0x3f9ca46e	1.223768
254	0x3fd9efd0	1.702631
255	0x3e32d494	0.17463905

v.v_net.2.bias f4 [16]
0	0x3ebd27db	0.3694447
1	0x3e3a7f87	0.1821271
2	0x3ebe2684	0.3713876
3	0x3d1f6c55	0.038921673
4	0x3ede570d	0.4342579
5	0xbdeae6e4	-0.1146982
6	0x3eb2c7ea	0.34918147
7	0xbe968c3f	-0.29403874
8	0xbe0954ae	-0.13411209
9	0x3e1db9db	0.1540293
10	0xbe334502	-0.17506793
11	0x3e9ad608	0.30241418
12	0xbec1aaf1	-0.3782573
13	0x3d63987e	0.05556535
14	0xbe7cd8b0	-0.24692035
15	0x3e8711bf	0.26380727

v.v_net.4.weight f4 [1, 16]
0	0x40ce7a8f	6.452461
1	0xc0d59767	-6.6747317
2	0x40c99c93	6.300363
3	0xc0d07907	-6.514774
4	0xc0d34066	-6.601611
5	0x40d4a491	6.6450887
6	0xc0d72e12	-6.724374
7	0x40d1904f	6.548866
8	0x40d8e81d	6.778334
9	0xc0d200a7	-6.5625796
10	0x40d6ee58	6.7165947
11	0xc0d07d5e	-6.5153036
12	0x40d9d9ad	6.8078218
13	0xc0d6173e	-6.690337
14	0x40d0fe96	6.5310774
15	0xc0d41cd1	-6.6285176

exp_avg f4 [16, 2]
0	0xb9fee244	-0.00048615236
1	0xbab2f6d7	-0.0013653886
2	0xba4c6973	-0.00077976956
3	0xbb83050b	-0.003998404
4	0xbab5f39c	-0.0013881805
5	0xbbacf58f	-0.0052782963
6	0xb8c43c52	-9.357244e-05
7	0xbb32eb4a	-0.0027300888
8	0xbb46c947	-0.0030332373
9	0x3b139516	0.0022519282
10	0x3b2840ba	0.0025673346
11	0xba540c03	-0.0008088948
12	0x3cdb61d2	0.026780043
13	0xbc1b68c6	-0.009485429
14	0x3b4e7f39	0.0031508936
15	0x3a587b8f	0.0008258158
16	0xbafad17b	-0.0019135916
17	0x3ba8f58b	0.005156224
18	0x3b81569c	0.003947092
19	0xbbf2b910	-0.007407315
20	0xbba48d2b	-0.0050217113
21	0x3c303f27	0.010757244
22	0xbaf89aa4	-0.0018966985
23	0xbb2f7a1e	-0.0026775668
24	0xbb839ab4	-0.004016245
25	0xbaf86450	-0.0018950794
26	0xbca635e3	-0.020289367
27	0x3beb5141	0.007181317
28	0x3c7286f1	0.01480268
29	0xbbbde21a	-0.0057947757
30	0xb8832775	-6.253916e-05
31	0x3b29dbb6	0.0025918311

exp_avg_sq f4 [16, 2]
0	0x3889fe61	6.580051e-05
1	0x363c9552	2.81011e-06
2	0x39dfcb6d	0.00042685439
3	0x37a1fcac	1.9310355e-05
4	0x3a62e1ad	0.0008654844
5	0x382bc0fe	4.0949315e-05
6	0x397fbec7	0.00024389765
7	0x3745ac68	1.17822565e-05
8	0x3906e900	0.00012866035
9	0x37272f2a	9.964957e-06
10	0x3748173b	1.1926338e-05
11	0x35b87fab	1.3746225e-06
12	0x3a5db9a1	0.0008458142
13	0x38f2164c	0.00011543612
14	0x3847b852	4.761696e-05
15	0x3598f86d	1.1397184e-06
16	0x3a0948fa	0.00052370096
17	0x37fa3518	2.9827046e-05
18	0x3a8f7021	0.0010943451
19	0x388c053a	6.676694e-05
20	0x3b2606f5	0.0025333737
21	0x3918acad	0.00014560176
22	0x39b04c38	0.00033626123
23	0x375e4e56	1.325047e-05
24	0x3965b4bc	0.0002190647
25	0x36d74271	6.415234e-06
26	0x3a0d7630	0.00053963345
27	0x38960d12	7.154992e-05
28	0x39cffac8	0.00039668963
29	0x38512eae	4.9872957e-05
30	0x39008fd6	0.00012260614
31	0x36f087fe	7.168389e-06

exp_avg f4 [16]
0	0x389e9930	7.5625605e-05
1	0xbaa55af7	-0.0012615611
2	0xbabf4226	-0.0014591857
3	0xba308839	-0.0006734166
4	0xb9b60d04	-0.00034723443
5	0xb8fb1c80	-0.00011973921
6	0xba3115c8	-0.000675526
7	0xb9d19e3c	-0.0003998148
8	0xbb107376	-0.0022041476
9	0xbb84532a	-0.0040382342
10	0xba797490	-0.00095159654
11	0xba142f76	-0.0005652824
12	0x3ad1c254	0.0016003349
13	0xbbea69d2	-0.007153728
14	0x3b5ce477	0.0033705512
15	0xbaf70c4e	-0.0018848272

exp_avg_sq f4 [16]
0	0x393a0c89	0.00017743012
1	0x3aa14d03	0.0012306276
2	0x3b263ee9	0.0025367087
3	0x3a386369	0.0007033856
4	0x3a39f514	0.00070937094
5	0x38fb77f6	0.00011990957
6	0x3c19f80e	0.00939752
7	0x38586538	5.159268e-05
8	0x3b0b9cc6	0.002130316
9	0x3b97a9a9	0.0046283794
10	0x3c26d55a	0.010182703
11	0x3a3d0c4f	0.0007211612
12	0x39ac159e	0.00032822503
13	0x3bd260c5	0.0064202272
14	0x3b868bfc	0.004106043
15	0x3a061ad2	0.0005115691

exp_avg f4 [16, 16]
0	0xb9e8e501	-0.0004442111
1	0x399db3c0	0.00030079298
2	0xb985ddae	-0.000255329
3	0xba17e5bc	-0.0005794426
4	0xb9c0c1ac	-0.0003676539
5	0x39be2f15	0.00036274703
6	0xb9a4ad7c	-0.00031409774
7	0x37f69e5c	2.9399227e-05
8	0xb9ab74ee	-0.0003270278
9	0x390f705f	0.00013679404
10	0xb9d1d2b7	-0.0004002058
11	0xba0d97d4	-0.00054013473
12	0xb97df5f2	-0.00024219582
13	0x3a6f34ca	0.00091249926
14	0xb8dec98d	-0.00010623327
15	0xb9806bcc	-0.00024494377
16	0xb9b8aed6	-0.00035225478
17	0x3a18cd19	0.0005828902
18	0xb83a27d4	-4.438295e-05
19	0xb9ecc922	-0.00045163283
20	0xb9a04495	-0.00030568676
21	0x39b1568a	0.00033824547
22	0xb985970e	-0.0002548028
23	0x34f1ff00	4.5075285e-07
24	0xb9ed3084	-0.0004524031
25	0x39d8ed3b	0.0004137548
26	0xba1c4689	-0.00059614383
27	0xb9c7a862	-0.00038081693
28	0xb8c5a20c	-9.4238756e-05
29	0x3a767ebd	0.0009403041
30	0xb8cecc24	-9.8608696e-05
31	0xb9b7617c	-0.00034977111
32	0x3b950184	0.0045473
33	0xb8f009c0	-0.00011445908
34	0x3b900194	0.0043947194
35	0x3bb6b62c	0.005575916
36	0x3b522b34	0.0032069208
37	0xbb0bb870	-0.002131965
38	0x3bdbaab5	0.0067036995
39	0x3a59a0a0	0.0008301828
40	0x3ad1bc32	0.0016001521
41	0x3ae6fdee	0.0017623284
42	0x3ad7ace9	0.001645473
43	0x3bbe7cb0	0.0058132038
44	0x3b414020	0.0029487684
45	0xbc4aa841	-0.012369216
46	0x3b80666e	0.0039184606
47	0x3b5e7161	0.003394209
48	0x38369d81	4.353887e-05
49	0xb803d4f6	-3.143117e-05
50	0x37d13fce	2.4944453e-05
51	0x3869c7e0	5.5737677e-05
52	0x3812ae23	3.497129e-05
53	0xb80a6988	-3.3000048e-05
54	0x38283f7c	4.0113446e-05
55	0x343c5980	1.7541424e-07
56	0x38096003	3.2752763e-05
57	0xb76a577c	-1.3967856e-05
58	0x3829f148	4.051745e-05
59	0x385b25ad	5.2248757e-05
60	0x37bba710	2.2369932e-05
61	0xb8d8604c	-0.00010317619
62	0x37972568	1.8018021e-05
63	0x37f9e06b	2.9787616e-05
64	0xbb5e016c	-0.003387536
65	0x3a70e0a8	0.000918875
66	0xbb4ecbfc	-0.003155469
67	0xbb7d0796	-0.0038609258
68	0xbb0c9bd2	-0.002145518
69	0x3a7dcf16	0.00096820423
70	0xbbf2d797	-0.007410954
71	0xbac8db6a	-0.001532418
72	0xbad14b67	-0.0015967906
73	0xba7147da	-0.0009204127
74	0xbaf382ba	-0.0018578388
75	0xbb873fd7	-0.0041274833
76	0xbae1aef0	-0.0017218273
77	0x3c558247	0.013031549
78	0xbba184e4	-0.004929172
79	0xbb8e56b2	-0.004343831
80	0xbbc69e1d	-0.006061329
81	0x3b73554c	0.0037129698
82	0xbb7f5794	-0.0038962113
83	0xbbfbb39a	-0.0076813223
84	0xbb9bf878	-0.0047598444
85	0x3b8b7e44	0.0042569954
86	0xbbccbb32	-0.0062479014
87	0xb9a18330	-0.00030806055
88	0xbb8973e4	-0.0041947234
89	0x3aa05670	0.0012232792
90	0xbba796ac	-0.005114397
91	0xbbf10552	-0.0073553706
92	0xbb525b1e	-0.0032097767
93	0x3c746392	0.014916318
94	0xbb496f36	-0.0030736453
95	0xbb9011b2	-0.0043966407
96	0xbb116c73	-0.0022189885
97	0x3b083f80	0.0020789802
98	0xba764966	-0.00093950925
99	0xbb419863	-0.0029540292
100	0xbafd9176	-0.0019345719
101	0x3b0936c8	0.0020937193
102	0xba7b7a58	-0.0009593121
103	0x39b0701b	0.0003365286
104	0xbb0142a4	-0.0019723559
105	0x3aa891c2	0.0012860822
106	0xbb224039	-0.0024757518
107	0xbb2d10ff	-0.0026407836
108	0xba91751d	-0.0011097525
109	0x3b854fa0	0.00406833
110	0xb82abaf0	-4.0705258e-05
111	0xba9073ce	-0.0011020841
112	0x3a57a42a	0.00082260615
113	0xba99ed99	-0.0011743783
114	0x39a451bd	0.00031341417
115	0x3a74775f	0.0009325649
116	0x3a1725c1	0.00057658186
117	0xb9db4582	-0.00041822722
118	0x3adc5130	0.0016808864
119	0x39c97099	0.000384216
120	0x3a725d32	0.00092454546
121	0xba27a7f3	-0.0006395571
122	0x3aa05132	0.0012231229
123	0x3a65d588	0.00087674754
124	0x39298a66	0.00016168653
125	0xbb69cb01	-0.0035673978
126	0x3a932e50	0.0011229012
127	0x3ab72b18	0.0013974635
128	0xbb230b27	-0.0024878473
129	0xb94d4a0c	-0.00019577908
130	0xbb2795a2	-0.0025571366
131	0xbb45f620	-0.0030206516
132	0xbadfcd47	-0.0017074727
133	0x3a871629	0.0010306287
134	0xbb827e64	-0.003982352
135	0xba101197	-0.0005495785
136	0xba3d2b72	-0.00072162517
137	0xbaa24a78	-0.0012381813
138	0xba337772	-0.0006846107
139	0xbb5200f7	-0.0032044032
140	0xbad9043e	-0.001655705
141	0x3be6ae9c	0.007039858
142	0xbb1cefbe	-0.0023946608
143	0xbafcc0b8	-0.0019283509
144	0x3b08ab31	0.002085399
145	0xbb5803cb	-0.0032961245
146	0x3a06fe78	0.0005149613
147	0x3b23902c	0.002495776
148	0x3ad3d90a	0.0016162705
149	0xbac2da6f	-0.0014866124
150	0x3b4634fd	0.0030243986
151	0x3a124d9d	0.0005581023
152	0x3b27765d	0.0025552728
153	0xbb086f1e	-0.0020818184
154	0x3b5da647	0.0033821033
155	0x3b11ba32	0.0022236225
156	0x39e73d1c	0.00044105283
157	0xbbf7b07c	-0.0075588804
158	0x3af1c8e1	0.0018446707
159	0x3b41be14	0.0029562758
160	0x3b6d30a2	0.0036192317
161	0xbbb3464a	-0.0054710256
162	0x3a86bedc	0.0010280269
163	0x3b8d3f70	0.004310541
164	0x3b35849e	0.0027697454
165	0xbb21d9d4	-0.0024696486
166	0x3bb60556	0.0055548353
167	0x3a87cd5e	0.0010360887
168	0x3b8c69bb	0.004285065
169	0xbb5bf920	-0.0033565238
170	0x3bb969b2	0.005658352
171	0x3b7e4295	0.003879701
172	0x3a5559ba	0.00081386755
173	0xbc5b0ae2	-0.013369294
174	0x3b60986a	0.0034270533
175	0x3ba9082c	0.005158445
176	0x3b52743b	0.0032112736
177	0xbb8446d6	-0.0040367646
178	0x3a3e0ff1	0.00072503
179	0x3b90b5ae	0.004416189
180	0x3b455419	0.003010994
181	0xbb6db5ff	-0.0036271808
182	0x37cdeb20	2.4547393e-05
183	0xba7532ac	-0.0009353559
184	0x3b6312b9	0.003464861
185	0xbb434744	-0.0029797116
186	0x3b915cd2	0.004436114
187	0x3b745d50	0.0037287064
188	0x3abf2ec8	0.0014586085
189	0xbb978fa5	-0.004625278
190	0xba89bc5c	-0.0010508406
191	0x3a9c7d39	0.0011939175
192	0xbb593ed7	-0.0033149028
193	0x3bde65af	0.006787024
194	0x3a04c5eb	0.00050648925
195	0xbb951682	-0.0045498023
196	0xbb5628b9	-0.0032678081
197	0x3b8bb2cc	0.0042632576
198	0x39a6452c	0.00031713524
199	0x3a789ab9	0.00094835047
200	0xbba5a51f	-0.0050550844
201	0x3bb2e52a	0.0054594474
202	0xbbdbb26f	-0.0067046206
203	0xbb657dbc	-0.003501757
204	0xba52edf2	-0.0008046321
205	0x3bc04008	0.005867008
206	0x3aab7a3c	0.0013082693
207	0xbb0cf278	-0.0021506827
208	0xbb42f687	-0.0029748993
209	0x3aba926a	0.0014234309
210	0xbb0dc844	-0.002163426
211	0xbb72e9b6	-0.0037065572
212	0xbb134eb9	-0.0022477342
213	0x3af0ba7c	0.0018366124
214	0xbb72f06c	-0.0037069572
215	0xb9b7afa4	-0.00035035342
216	0xbaee3aa7	-0.0018175439
217	0x39242ec0	0.00015657675
218	0xbb0e87c5	-0.0021748405
219	0xbb6e826f	-0.0036393662
220	0xbad5480a	-0.001627208
221	0x3c02887a	0.007967109
222	0xbb04761f	-0.0020212007
223	0xbb1a868a	-0.0023578727
224	0x3b8bc28b	0.0042651347
225	0xbb825612	-0.0039775455
226	0x3b243e84	0.0025061676
227	0x3ba30d7e	0.0049759736
228	0x3b44797d	0.002997964
229	0xbb0ab4a2	-0.0021164794
230	0x3bffede1	0.00781034
231	0x3acc2af0	0.0015576761
232	0x3b6e27b1	0.0036339576
233	0xbacd36cd	-0.0015656591
234	0x3b9869de	0.004651292
235	0x3b9f7974	0.0048667733
236	0x3ac74950	0.0015204344
237	0xbc833fbf	-0.016021607
238	0x3ba4f468	0.0050340183
239	0x3bbe3256	0.0058043404
240	0xb800fd54	-3.075351e-05
241	0x379cdc0e	1.869912e-05
242	0xb798613e	-1.8165094e-05
243	0xb82a9ee1	-4.0679126e-05
244	0xb7d94662	-2.590119e-05
245	0x37dbd9d7	2.6208274e-05
246	0xb7904376	-1.7197552e-05
247	0x367d3076	3.7728146e-06
248	0xb7b4fc24	-2.1575084e-05
249	0x370a211d	8.233151e-06
250	0xb7dab4ce	-2.6071819e-05
251	0xb81ec82f	-3.785657e-05
252	0xb79577d4	-1.7817983e-05
253	0x38698e7f	5.568424e-05
254	0xb66ebcac	-3.5574585e-06
255	0xb75f8ff6	-1.3325354e-05

exp_avg_sq f4 [16, 16]
0	0x36efd7fc	7.147899e-06
1	0x37150213	8.881575e-06
2	0x372e1ee6	1.0378402e-05
3	0x378623c2	1.5990696e-05
4	0x36daa3f8	6.5159948e-06
5	0x3712be19	8.746539e-06
6	0x37145dbe	8.8433135e-06
7	0x36974c4e	4.5090337e-06
8	0x3584f2a2	9.905382e-07
9	0x3714e2e7	8.874317e-06
10	0x363abfd7	2.7827825e-06
11	0x3781cec3	1.547428e-05
12	0x371fd59a	9.5268715e-06
13	0x37451d0d	1.1748879e-05
14	0x3733408b	1.0684259e-05
15	0x3729279d	1.0082408e-05
16	0x36ffe44e	7.6261704e-06
17	0x37133a01	8.775388e-06
18	0x372b3785	1.0205321e-05
19	0x379302c2	1.752505e-05
20	0x36f87723	7.4048453e-06
21	0x3736b35b	1.0889805e-05
22	0x375c5e82	1.3135026e-05
23	0x36c34f67	5.8206965e-06
24	0x359b354f	1.1563915e-06
25	0x37125e80	8.724281e-06
26	0x3644519a	2.9253774e-06
27	0x3788b8b6	1.6298476e-05
28	0x3728a446	1.0051828e-05
29	0x378d57e1	1.6849432e-05
30	0x37798a36	1.4873736e-05
31	0x37503a5f	1.2411357e-05
32	0x3a430d0e	0.0007440605
33	0x3a644975	0.0008708456
34	0x3a896e68	0.0010485174
35	0x3ad98146	0.0016594313
36	0x3a2e6e84	0.00066540414
37	0x3a625b1e	0.00086347933
38	0x3a48546f	0.0007641976
39	0x39ed0d87	0.0004521424
40	0x38a3a160	7.802504e-05
41	0x3a5d72fc	0.0008447615
42	0x39832d9b	0.00025020246
43	0x3ad34e49	0.0016121353
44	0x3a82c7b8	0.0009977734
45	0x3a8e9019	0.0010876685
46	0x3a80d8b3	0.0009830206
47	0x3a8469f9	0.0010102383
48	0x36a77887	4.991019e-06
49	0x36bfde08	5.7180914e-06
50	0x36dd5684	6.596385e-06
51	0x373afdbb	1.114554e-05
52	0x369e4ea2	4.717921e-06
53	0x36e746d8	6.8925838e-06
54	0x370a351a	8.237805e-06
55	0x36822bde	3.8794087e-06
56	0x353c1ab8	7.007434e-07
57	0x36bee2c8	5.688842e-06
58	0x35fb6e85	1.8733123e-06
59	0x372e9933	1.0406878e-05
60	0x36da9264	6.5139484e-06
61	0x37336352	1.0692356e-05
62	0x371a208e	9.186695e-06
63	0x3705bdaf	7.971582e-06
64	0x3a2efa09	0.00066748314
65	0x3a49a335	0.0007691861
66	0x3a73f39d	0.00093060156
67	0x3ac3c309	0.0014935444
68	0x3a1d8fad	0.0006010484
69	0x3a4efb65	0.0007895737
70	0x3a3d016d	0.000720999
71	0x39d9e153	0.00041557345
72	0x388faf12	6.851381e-05
73	0x3a4356a4	0.000745157
74	0x3965e8e7	0.00021925905
75	0x3abd5318	0.001444432
76	0x3a6a51d3	0.00089385844
77	0x3a866c5f	0.0010255686
78	0x3a70e6c6	0.00091896614
79	0x3a72c0c1	0.000926029
80	0x3ac795f3	0.0015227183
81	0x3ae2067e	0.0017244366
82	0x3b079b70	0.0020692013
83	0x3b6191c6	0.0034419163
84	0x3ab84b4a	0.0014060524
85	0x3afdbe08	0.0019359002
86	0x3b01417d	0.0019722872
87	0x3a86f828	0.0010297345
88	0x393a111b	0.00017744715
89	0x3adc766c	0.001681996
90	0x3a07a60c	0.0005174584
91	0x3b568aff	0.0032736657
92	0x3b0493c4	0.0020229677
93	0x3b2f29c4	0.0026727775
94	0x3b1d240e	0.002397779
95	0x3b12ee93	0.0022420033
96	0x393f8eb7	0.00018268345
97	0x3955cfff	0.00020390748
98	0x397d5f58	0.00024163479
99	0x39dad63d	0.0004173982
100	0x3935f8a3	0.0001735413
101	0x39839ffb	0.00025105462
102	0x39954182	0.00028468302
103	0x390dbc7a	0.00013517021
104	0x37ccc31b	2.4409548e-05
105	0x39526a72	0.00020066815
106	0x3888336f	6.4945656e-05
107	0x39cc57f4	0.00038975442
108	0x397c597d	0.0002406593
109	0x39c2aa84	0.00037129608
110	0x39ada531	0.00033120209
111	0x3996f815	0.00028795065
112	0x387189d5	5.7587244e-05
113	0x38871a01	6.442145e-05
114	0x38a36d54	7.7928096e-05
115	0x39091dbe	0.00013076418
116	0x386111e2	5.3660835e-05
117	0x389c2d99	7.447153e-05
118	0x38a43cee	7.8314784e-05
119	0x3824d844	3.930206e-05
120	0x36de83d2	6.6314615e-06
121	0x38840247	6.294675e-05
122	0x37a0a655	1.915094e-05
123	0x39021446	0.00012405319
124	0x38a02373	7.6359975e-05
125	0x38de59b8	0.00010602496
126	0x38c5f983	9.440167e-05
127	0x38b43fd9	8.5949614e-05
128	0x3970dde7	0.00022970849
129	0x398f7a35	0.00027366137
130	0x39abfa90	0.00032802345
131	0x3a05c265	0.00051025144
132	0x3955861c	0.00020363223
133	0x398848f3	0.00025994293
134	0x3968304b	0.00022143235
135	0x390e75db	0.0001358608
136	0x37c907b6	2.3964658e-05
137	0x398b2acd	0.00026544035
138	0x38a4668b	7.8392295e-05
139	0x3a02bb22	0.00049869914
140	0x39a21ab4	0.00030918943
141	0x39a7b0df	0.000319845
142	0x39978bb0	0.0002890504
143	0x39a09f91	0.00030636464
144	0x39b5f33e	0.0003470424
145	0x39ca3f61	0.00038575663
146	0x39f22722	0.00046186993
147	0x3a4fa2b4	0.0007920668
148	0x39aba8cc	0.00032741425
149	0x39f3a0c1	0.00046468343
150	0x3a05277e	0.0005079432
151	0x39824b50	0.00024851644
152	0x383200bd	4.2439195e-05
153	0x39c5541c	0.00037637434
154	0x38f7d579	0.0001181764
155	0x3a432e8b	0.0007445595
156	0x39f0fd7c	0.00045965228
157	0x3a31dcca	0.00067849143
158	0x3a1de9c0	0.0006023906
159	0x3a0ca2f5	0.00053648587
160	0x3a8bc57b	0.0010663712
161	0x3a9994b3	0.001171729
162	0x3ab8e2f3	0.0014105722
163	0x3b1f6ce6	0.0024326383
164	0x3a83b32a	0.0010047902
165	0x3abb1e51	0.0014276003
166	0x3acc3490	0.001557963
167	0x3a48b252	0.00076559663
168	0x39051662	0.00012692207
169	0x3a95ab61	0.0011418873
170	0x39ba7b70	0.00035568653
171	0x3b15b5de	0.0022843997
172	0x3ab8d46b	0.0014101391
173	0x3b089ca8	0.0020845328
174	0x3af27fcd	0.0018501222
175	0x3ad82aed	0.0016492285
176	0x39cb80bf	0.000388151
177	0x39dc46df	0.00042014473
178	0x3a01f7ef	0.00049579045
179	0x3a6ba6a0	0.00089893676
180	0x39c78f90	0.000380632
181	0x3a178fd3	0.00057816243
182	0x3a3bf451	0.000716989
183	0x39a4d926	0.00031442306
184	0x386fa014	5.7131125e-05
185	0x39db137e	0.00041785458
186	0x39134a4b	0.00014046689
187	0x3a577715	0.0008219344
188	0x3a04ac24	0.00050610513
189	0x3a6ea8df	0.0009104143
190	0x3a53bc30	0.00080770534
191	0x3a2c3e8b	0.0006570599
192	0x3a2005ec	0.0006104398
193	0x3a275952	0.0006383854
194	0x3a458bc0	0.0007535778
195	0x3abb6f38	0.0014300114
196	0x3a20cf6f	0.00061344256
197	0x3a7d284c	0.0009657189
198	0x3aa706bb	0.0012743095
199	0x3a0aacdd	0.0005290041
200	0x38c61d0b	9.4467854e-05
201	0x3a275f4a	0.00063847436
202	0x3966dd2d	0.00022016904
203	0x3aa87a6c	0.0012853867
204	0x3a4ef5bc	0.00078948936
205	0x3ad165f9	0.0015975825
206	0x3ab85785	0.0014064169
207	0x3a8f22b7	0.001092038
208	0x39cb5d39	0.00038788634
209	0x39ea0f8a	0.00044643536
210	0x3a0be489	0.00053364836
211	0x3a64d924	0.0008729866
212	0x39ba1685	0.00035493463
213	0x39fcf086	0.0004824439
214	0x39fadb18	0.00047846953
215	0x3986a271	0.000256795
216	0x383bd544	4.4782893e-05
217	0x39e4494a	0.00043542153
218	0x390ba936	0.00013319109
219	0x3a5adc17	0.0008348836
220	0x3a0785af	0.0005169762
221	0x3a2bd35c	0.00065546273
222	0x3a1a0be0	0.00058764033
223	0x3a139da5	0.0005631096
224	0x3aa5cd1a	0.0012649626
225	0x3ab9b249	0.0014167513
226	0x3ae06a15	0.0017121459
227	0x3b3b7fd6	0.0028610132
228	0x3a990b54	0.001167635
229	0x3ad1ece9	0.0016016039
230	0x3ad3e400	0.0016165972
231	0x3a5f07e1	0.0008507949
232	0x3912b92d	0.00013992628
233	0x3ab43b3c	0.0013750563
234	0x39da676d	0.00041657258
235	0x3b32759b	0.0027230743
236	0x3adc76fb	0.0016820127
237	0x3b116716	0.0022186688
238	0x3b01c5a5	0.0019801643
239	0x3af3b22d	0.0018592529
240	0x34e2b0a6	4.222431e-07
241	0x34fb51d3	4.6811928e-07
242	0x3510a4d6	5.388405e-07
243	0x3579f885	9.312137e-07
244	0x34d38309	3.9397153e-07
245	0x351d97f6	5.870819e-07
246	0x352d5da2	6.4583776e-07
247	0x34b2051d	3.3158804e-07
248	0x336b3a98	5.4768492e-08
249	0x34f46cf5	4.5527818e-07
250	0x341fbce9	1.4876754e-07
251	0x356914db	8.682961e-07
252	0x35152d95	5.5573156e-07
253	0x35626ff6	8.4354485e-07
254	0x3546758a	7.393179e-07
255	0x3533b055	6.6939293e-07

exp_avg f4 [16]
0	0x3a0f9ad6	0.00054780894
1	0x399e2048	0.0003016016
2	0xbb920b11	-0.0044568856
3	0xb84822fc	-4.7716298e-05
4	0x3ac90132	0.0015335439
5	0x3bd04921	0.006356374
6	0x3b3e7544	0.0029061595
7	0xb8c1ee68	-9.247364e-05
8	0x3b19c8b0	0.0023465566
9	0xba60b5c8	-0.00085720094
10	0xbabe2496	-0.0014506753
11	0xbb9a0913	-0.0047007888
12	0x3b86d4ee	0.0041147387
13	0x3b3d9cc9	0.0028932563
14	0xbaeb3414	-0.0017944598
15	0x382e13ce	4.1503277e-05

exp_avg_sq f4 [16]
0	0x386fc84e	5.716859e-05
1	0x3888b462	6.518584e-05
2	0x3bbfda7a	0.005854902
3	0x382cbdbe	4.1184707e-05
4	0x3badaa70	0.0052998587
5	0x3c4b571c	0.012410905
6	0x3ac91372	0.0015340878
7	0x39f83268	0.00047339802
8	0x3aeaf635	0.0017926159
9	0x3b3dc372	0.0028955606
10	0x3c11a94e	0.008890463
11	0x3b5cef6a	0.0033712038
12	0x3bb2765a	0.0054462375
13	0x3b4d92a4	0.0031367922
14	0x3c28ea21	0.010309727
15	0x3666ece0	3.441055e-06

exp_avg f4 [1, 16]
0	0x399de7c8	0.00030118064
1	0xbc9b4dc4	-0.01895798
2	0x3c6bec28	0.014399566
3	0x3c9511fd	0.018197054
4	0x3b7fbcf7	0.0039022544
5	0xbb9da81b	-0.0048112995
6	0xbb937d12	-0.0045009935
7	0x3bbd12b4	0.005770052
8	0x3a8fbf66	0.0010967075
9	0x3cda0f19	0.026618527
10	0x3c4ba028	0.012428321
11	0x3bd50ea1	0.006501988
12	0xbbce9ef4	-0.00630557
13	0x3c737ef6	0.014861813
14	0x3c8492d3	0.016183292
15	0x3a651786	0.0008739162

exp_avg_sq f4 [1, 16]
0	0x3ac6372e	0.0015122646
1	0x3c4e36fa	0.01258635
2	0x3c15605e	0.009117214
3	0x3a848145	0.0010109326
4	0x3bcc6dda	0.0062386813
5	0x3b1cea25	0.0023943272
6	0x3c0bbda6	0.008529102
7	0x3c0e2a8e	0.008677138
8	0x3c670837	0.01410108
9	0x3bf8d88d	0.0075941742
10	0x3bfddb74	0.007747108
11	0x3ccbfb82	0.024900202
12	0x3cf19f14	0.0294948
13	0x3b7677ce	0.003760803
14	0x3babedcc	0.0052468535
15	0x399fa700	0.00030451268

exp_avg f4 [16, 2]
0	0x42971946	75.54936
1	0xc0ad196b	-5.409353
2	0x42217034	40.359573
3	0xc180c62a	-16.09676
4	0xc2390045	-46.250263
5	0x41b2cd29	22.350176
6	0x4058f020	3.389656
7	0xc1896496	-17.174114
8	0x4335724c	181.44647
9	0x42662917	57.540127
10	0x423b9b60	46.901733
11	0xc1937562	-18.432316
12	0x42c7d9a9	99.92512
13	0xc15eca5d	-13.924405
14	0xc3a67f9f	-332.99704
15	0xc28542e0	-66.630615
16	0xc3f27c09	-484.96902
17	0x418597eb	16.699179
18	0xc43c081a	-752.1266
19	0x41486f0b	12.52711
20	0xc473bf0e	-974.9852
21	0x41afb25c	21.96209
22	0xc391c5b5	-291.5446
23	0x419cba98	19.59111
24	0x43fedf55	509.74478
25	0x42c8975b	100.295616
26	0xc43145c9	-709.0904
27	0xc2bd7cdd	-94.74387
28	0xc45c4d82	-881.21106
29	0xc19783c9	-18.939348
30	0xc17c98bf	-15.787292
31	0x41b4ede1	22.616152

exp_avg_sq f4 [16, 2]
0	0x47851409	68136.07
1	0x449dec0a	1263.3762
2	0x4716cc42	38604.258
3	0x44253e24	660.97095
4	0x473f785f	49016.37
5	0x443a337f	744.8046
6	0x46010467	8257.101
7	0x434f8005	207.50008
8	0x4851aff5	214719.83
9	0x46954bc5	19109.885
10	0x475cb686	56502.523
11	0x444371bb	781.77704
12	0x47eb79e5	120563.79
13	0x44c48df4	1572.436
14	0x4a1a70db	2.5303588e+06
15	0x48260aa0	170026.5
16	0x4a28eb00	2.767552e+06
17	0x470b667b	35686.48
18	0x4aec4ae0	7.742832e+06
19	0x47d4ce5d	108956.73
20	0x4b4e948f	1.3538447e+07
21	0x4850b67b	213721.92
22	0x497f0dbd	1.0446998e+06
23	0x465831ba	13836.432
24	0x4a5b5f9a	3.5942145e+06
25	0x4853c647	216857.11
26	0x4ab6f868	5.995572e+06
27	0x4877437c	253197.94
28	0x4b19b6d5	1.0073813e+07
29	0x487c04f7	258067.86
30	0x46ce78a1	26428.314
31	0x443756d4	733.3567

exp_avg f4 [16]
0	0xc30b533b	-139.32512
1	0xc39f28a4	-318.3175
2	0x43e207f4	452.06213
3	0xc3a72db6	-334.35712
4	0x44614142	901.01965
5	0xc3afe542	-351.79108
6	0xc3932010	-294.2505
7	0xc440a3a3	-770.5568
8	0x43f2b782	485.43365
9	0x440cb260	562.7871
10	0x44521950	840.3955
11	0x43de665e	444.79974
12	0x44af63e7	1403.122
13	0xc4999ad4	-1228.8384
14	0x430e485c	142.28265
15	0x43d903e7	434.0305

exp_avg_sq f4 [16]
0	0x479d6b54	80598.66
1	0x4757e3ac	55267.67
2	0x47846501	67786.01
3	0x46c19fbc	24783.867
4	0x49db6e41	1.7975761e+06
5	0x477e26b1	65062.69
6	0x47d69c10	109880.125
7	0x4b41345a	1.266185e+07
8	0x4a1a676c	2.529755e+06
9	0x4aecbf09	7.7577005e+06
10	0x4b6bf264	1.5463012e+07
11	0x495e53c3	910652.2
12	0x4b7fbef8	1.6760568e+07
13	0x4b94177f	1.9410686e+07
14	0x4b88e925	1.7945162e+07
15	0x47673451	59188.316

exp_avg f4 [16, 16]
0	0xc4847776	-1059.7332
1	0xc4a76838	-1339.2568
2	0x44c3667b	1563.2025
3	0xc4c33f32	-1561.9749
4	0xc3d05e60	-416.7373
5	0xc4acceb9	-1382.4601
6	0xc4ad8771	-1388.2325
7	0x44ad625a	1387.0735
8	0x44aa80c2	1364.0237
9	0x44ab2a9c	1369.3315
10	0x449ba19a	1245.05
11	0x44bd11f8	1512.5615
12	0xc4740638	-976.09717
13	0x44740556	976.0834
14	0x44a0da0c	1286.814
15	0x44bb1733	1496.725
16	0xc1d044cb	-26.03359
17	0xc1ca7879	-25.308825
18	0x41d8e5d5	27.112223
19	0xc1ee4e06	-29.788097
20	0x4164470a	14.2673435
21	0xc1af6c86	-21.92799
22	0xc1b4eed2	-22.616611
23	0xc1e50213	-28.626013
24	0x410bcf97	8.738181
25	0x3e02500e	0.12725851
26	0xbffd7a4d	-1.9802948
27	0x417cd75a	15.802576
28	0x41d4a543	26.580694
29	0xc1af9492	-21.947544
30	0xc18b99a2	-17.450016
31	0x41ee763c	29.807732
32	0xc453dad1	-847.419
33	0xc485f89c	-1071.769
34	0x449c64fe	1251.156
35	0xc49c3982	-1249.7971
36	0xc3a9f942	-339.94733
37	0xc48a67b8	-1107.2412
38	0xc48af449	-1111.6339
39	0x448b6aee	1115.3416
40	0x4488bf20	1093.9727
41	0x448967ea	1099.2473
42	0x447a1942	1000.39465
43	0x44979434	1212.6313
44	0xc444ed00	-787.7031
45	0x4444c89b	787.13446
46	0x44814ba8	1034.3643
47	0x4495b572	1197.6702
48	0xc1cb9c2e	-25.45126
49	0xc1c63217	-24.774458
50	0x41d46c7b	26.552969
51	0xc1e941e0	-29.157166
52	0x415e0cd7	13.878135
53	0xc1abe7ba	-21.488148
54	0xc1b145e5	-22.159128
55	0xc1de644c	-27.798973
56	0x410a9349	8.660958
57	0x3e921ebc	0.28539073
58	0xbfe5371b	-1.7907442
59	0x4178d329	15.551553
60	0x41ce8e7a	25.819569
61	0xc1aa546e	-21.291225
62	0xc186c764	-16.847359
63	0x41e958f5	29.168436
64	0xc21aff1a	-38.749123
65	0xc2171675	-37.77193
66	0x42225dc3	40.591564
67	0xc231e4d6	-44.473473
68	0x41b4fd3d	22.623652
69	0xc2022957	-32.54037
70	0xc206c340	-33.690674
71	0xc22dacc7	-43.418728
72	0x41449917	12.287375
73	0xbfac7c1e	-1.3475378
74	0xc0949ea7	-4.6443667
75	0x41b39fc7	22.453016
76	0x4220a850	40.164368
77	0xc20624d1	-33.535954
78	0xc1d8b5fd	-27.088861
79	0x42319e04	44.404312
80	0x41dbb694	27.46415
81	0x41d62056	26.765789
82	0xc1e5a329	-28.704668
83	0x41fc00b6	31.500347
84	0xc16fa553	-14.977862
85	0x41b9d0b8	23.226913
86	0x41bfa340	23.954712
87	0x41eefbc7	29.872938
88	0xc116a989	-9.41639
89	0xbec1f6e5	-0.37883678
90	0x3ff0f8c3	1.8825916
91	0xc186964f	-16.823393
92	0xc1ddf46f	-27.744352
93	0x41b6f7f1	22.871065
94	0x41905e76	18.046124
95	0xc1fc0279	-31.501207
96	0xc20d1c90	-35.277893
97	0xc209f923	-34.493298
98	0x42145ef4	37.092728
99	0xc2226be0	-40.605347
100	0x419fbe1e	19.96783
101	0xc1eed974	-29.856178
102	0xc1f6e9d9	-30.864183
103	0xc21a3ff7	-38.562466
104	0x413da20a	11.85206
105	0xbe3997a2	-0.1812425
106	0xc04d6b8a	-3.2096887
107	0x41a90eb9	21.132189
108	0x420eed0b	35.731487
109	0xc1ed163b	-29.635855
110	0xc1bc1653	-23.5109
111	0x422222ac	40.53386
112	0x41cc5018	25.539108
113	0x41c6e60c	24.862328
114	0xc1d5332c	-26.649986
115	0x41ea167c	29.260979
116	0xc15f448c	-13.954235
117	0x41ac7c6b	21.560751
118	0x41b1e4c6	22.236706
119	0x41df47d8	27.91008
120	0xc10ad779	-8.677606
121	0xbe836099	-0.25659636
122	0x3fea4811	1.8303243
123	0xc1795a99	-15.584619
124	0xc1cf5ab3	-25.919287
125	0x41ab0c0c	21.380882
126	0x418768fc	16.926262
127	0xc1ea2943	-29.270147
128	0x41d5c083	26.719
129	0x41cfc9ed	25.973597
130	0xc1de92a5	-27.821604
131	0x41f48da8	30.569168
132	0xc169e064	-14.617283
133	0x41b41033	22.50791
134	0x41b9b256	23.212078
135	0x41eaea36	29.36436
136	0xc10fb6ee	-8.982161
137	0xbe22ea87	-0.15909778
138	0x40000ead	2.0008957
139	0xc181e82d	-16.238367
140	0xc1da271d	-27.269098
141	0x41b412a7	22.509108
142	0x418f1c01	17.888674
143	0xc1f4ba90	-30.591095
144	0xc1c0bdfe	-24.09277
145	0xc1bb9077	-23.44554
146	0x41c90150	25.12564
147	0xc1dcc001	-27.593752
148	0x415245af	13.142013
149	0xc1a2a83c	-20.332146
150	0xc1a7bce1	-20.967226
151	0xc1d2c10f	-26.344267
152	0x4102e675	8.181264
153	0x3e7fda11	0.2498553
154	0xbfdb19b8	-1.7117224
155	0x416b56f2	14.708727
156	0x41c3be99	24.468065
157	0xc1a16fb8	-20.17955
158	0xc17fadc0	-15.979919
159	0x41dcd9fe	27.606441
160	0x41c92634	25.143654
161	0x41c3a220	24.454163
162	0xc1d1928e	-26.19656
163	0x41e63f4a	28.780903
164	0xc15aaa81	-13.666627
165	0x41a9ac7d	21.209223
166	0x41aeee8e	21.866482
167	0x41dc0bd8	27.505783
168	0xc108a005	-8.539067
169	0xbe94718b	-0.28992876
170	0x3fdf5440	1.7447586
171	0xc175f885	-15.373174
172	0xc1cc6cec	-25.553185
173	0x41a8837a	21.064198
174	0x4185761e	16.682674
175	0xc1e66915	-28.80131
176	0xc20a5e3f	-34.592037
177	0xc20756a8	-33.834625
178	0x42119447	36.394802
179	0xc21f5195	-39.82967
180	0x419d54b4	19.666359
181	0xc1ea3739	-29.276964
182	0xc1f2307a	-30.27367
183	0xc2175e5f	-37.84216
184	0x41396f04	11.589603
185	0xbe85dcdb	-0.26145062
186	0xc04fa550	-3.2444649
187	0x41a54ac3	20.661505
188	0x420c3791	35.054264
189	0xc1e8c487	-29.09596
190	0xc1b8cdf2	-23.10056
191	0x421f018a	39.751503
192	0x4213573b	36.835186
193	0x42102326	36.034325
194	0xc21b0fd7	-38.76547
195	0x4229aec4	42.42067
196	0xc1a7a595	-20.95585
197	0x41f96fc5	31.179575
198	0x4200f8e0	32.243042
199	0x422123aa	40.28483
200	0xc1457f01	-12.343507
201	0x3e911e29	0.28343323
202	0x405dbf10	3.4647865
203	0xc1aff91c	-21.996635
204	0xc215434b	-37.315716
205	0x41f7ce3c	30.9757
206	0x41c4b702	24.58936
207	0xc22956cb	-42.33476
208	0xc2086c05	-34.105488
209	0xc2055b11	-33.338932
210	0x420f5c14	35.83992
211	0xc21cfa26	-39.244286
212	0x41996634	19.174904
213	0xc1e70059	-28.87517
214	0xc1eeb3fd	-29.837885
215	0xc214cdce	-37.20098
216	0x4138751c	11.528591
217	0xbcea8612	-0.028628383
218	0xc03c4f33	-2.942334
219	0x41a440ee	20.531704
220	0x4209ef1e	34.483513
221	0xc1e48718	-28.565964
222	0xc1b4f658	-22.620285
223	0x421cbc48	39.18387
224	0x420ec7e2	35.695198
225	0x420bb543	34.927013
226	0xc21652f5	-37.581013
227	0x42247782	41.116707
228	0xc1a2ed30	-20.365814
229	0x41f1b8fa	30.21532
230	0x41fa02c3	31.251348
231	0x421c3c50	39.0589
232	0xc13f07d0	-11.939407
233	0x3ea9cca5	0.33163944
234	0x405b18ce	3.423389
235	0xc1aa33cc	-21.275291
236	0xc210b1a3	-36.173473
237	0x41f056ae	30.042324
238	0x41bee33e	23.860958
239	0xc2241cc5	-41.028095
240	0xc2082d8f	-34.04449
241	0xc2050d70	-33.263123
242	0x420f0794	35.7574
243	0xc21ca1ae	-39.15789
244	0x419a39a4	19.278145
245	0xc1e63f4f	-28.780912
246	0xc1ee0377	-29.751692
247	0xc21544bd	-37.317127
248	0x41360aac	11.377605
249	0xbe76ec44	-0.24113566
250	0xc04980d1	-3.1484873
251	0x41a2d37d	20.353266
252	0x420a4fb6	34.577843
253	0xc1e57f10	-28.687042
254	0xc1b6689f	-22.801085
255	0x421c6353	39.096996
