Source/Baseline/Binary_search_method/logs/ppo-ur5-ComGrasp/ppo-ur5-ComGrasp_s0/pyt_save/model.pt (torch_old, 6274 bytes, 30 tensors)

pi.mu_net.0.weight f4 [4, 2]
0	0xbe07ecd6	-0.1327394
1	0x3e92582d	0.28582898
2	0xbf40fabb	-0.75382584
3	0xbf1ef5ce	-0.6209382
4	0xbe3516b2	-0.17684439
5	0x3e1acad4	0.15116435
6	0x3dddae8f	0.1082431
7	0x3f2b3910	0.66883945

pi.mu_net.0.bias f4 [4]
0	0xbdf40f28	-0.11916953
1	0x3dd1c455	0.102425255
2	0xbe3b0df0	-0.18267035
3	0xbd7d3d9f	-0.061826345

pi.mu_net.2.weight f4 [2, 4]
0	0xbf204118	-0.62599325
1	0xbee8de31	-0.4548202
2	0xbe9ce2b3	-0.30641708
3	0x3da09940	0.0784173
4	0x3ec5e66f	0.3865237
5	0x3ecf28f4	0.40460932
6	0xbe6feadf	-0.2342944
7	0xbe53ca37	-0.20682608

pi.mu_net.2.bias f4 [2]
0	0x3e5639b5	0.20920451
1	0x3eb95743	0.36199388

pi.mu_net.4.weight f4 [1, 2]
0	0xbe85db12	-0.261437
1	0x3efc62cc	0.49294126

v.v_net.0.weight f4 [4, 2]
0	0xbf497270	-0.7869024
1	0xbe8a2011	-0.2697759
2	0xbf877ae2	-1.0584376
3	0xbfc2f898	-1.5232115
4	0xbf5f9cd7	-0.87348694
5	0xbf7bc99c	-0.98354506
6	0xbf36d54c	-0.71419215
7	0xbfa79e6f	-1.3095225

v.v_net.0.bias f4 [4]
0	0xbf88c0ad	-1.06838
1	0xbfaba8e0	-1.3410912
2	0xbf99fb05	-1.202973
3	0xbf9082a3	-1.1289867

v.v_net.2.weight f4 [2, 4]
0	0x40255603	2.5833747
1	0x40333858	2.800314
2	0x4023b583	2.5579536
3	0x4020415d	2.5039895
4	0xc01f438a	-2.4884973
5	0xc01070df	-2.256889
6	0xc03c35d6	-2.940786
7	0xc0513df0	-3.2694054

v.v_net.2.bias f4 [2]
0	0xbf6c0937	-0.9220156
1	0x3f583fb2	0.8447219

v.v_net.4.weight f4 [1, 2]
0	0x41225103	10.144778
1	0xc1201f9d	-10.007718

exp_avg f4 [4, 2]
0	0x3eb7f3d8	0.35928226
1	0xbc0cda67	-0.008596993
2	0x3dff310a	0.12460525
3	0xbb7f4aa1	-0.0038954394
4	0x3c31f976	0.010862699
5	0x38a08cab	7.655596e-05
6	0xbdd12922	-0.102129236
7	0x3b2a65b7	0.0026000568

exp_avg_sq f4 [4, 2]
0	0x3d29df01	0.04147244
1	0x37434e17	1.1641087e-05
2	0x3c1758c2	0.00923747
3	0x36a12fad	4.803724e-06
4	0x3a607ec0	0.0008563809
5	0x34955f81	2.78229e-07
6	0x3bc47817	0.005995761
7	0x35d88955	1.6133223e-06

exp_avg f4 [4]
0	0xbec2bb2d	-0.3803343
1	0xbe2dedf5	-0.16985305
2	0x3a67ac5e	0.00088376354
3	0x3de87cc2	0.11351921

exp_avg_sq f4 [4]
0	0x3ca4c926	0.020115446
1	0x3bcf5008	0.006326679
2	0x3a0a97e9	0.00052869186
3	0x3b39ea05	0.0028368246

exp_avg f4 [2, 4]
0	0x3b8c2c22	0.004277722
1	0x3e5a959b	0.21346132
2	0xba96f44a	-0.0011516896
3	0xbd4af494	-0.049549654
4	0x3a8bcd4a	0.0010666039
5	0xbe7ee9c7	-0.24893866
6	0x3c26f2bc	0.010189708
7	0x3d765fca	0.060149945

exp_avg_sq f4 [2, 4]
0	0x39acc332	0.00032951828
1	0x3c0b9479	0.008519285
2	0x3a12e5f4	0.00056037237
3	0x39ee317d	0.0004543177
4	0x3b3e57e2	0.0029044081
5	0x3cec1a5c	0.028821163
6	0x3baee947	0.0053378674
7	0x3a8a39dc	0.0010545808

exp_avg f4 [2]
0	0x3eab6b59	0.33480337
1	0xbee42768	-0.44561315

exp_avg_sq f4 [2]
0	0x3c4cf1a9	0.012508788
1	0x3d2c87a0	0.04212153

exp_avg f4 [1, 2]
0	0x3ddba13c	0.107241124
1	0xbf402e78	-0.75070906

exp_avg_sq f4 [1, 2]
0	0x3d9ca361	0.076483496
1	0x3d813aa1	0.06310011

exp_avg f4 [4, 2]
0	0xc60435ef	-8461.483
1	0x42f41c7b	122.055626
2	0xc602969e	-8357.654
3	0x42f16a8b	120.70809
4	0xc60f58a7	-9174.163
5	0x4304477f	132.27928
6	0xc612003d	-9344.06
7	0x430676c2	134.4639

exp_avg_sq f4 [4, 2]
0	0x4b388283	1.2092035e+07
1	0x45c57e9d	6319.8267
2	0x4b36066f	1.1929199e+07
3	0x45c2793e	6223.1553
4	0x4b52ee41	1.3823553e+07
5	0x45de1564	7106.674
6	0x4b4513e3	1.2915683e+07
7	0x45c52587	6308.691

exp_avg f4 [4]
0	0x45c143d6	6184.4795
1	0x45bef865	6111.0493
2	0x45d1802e	6704.0225
3	0x45d536bc	6822.842

exp_avg_sq f4 [4]
0	0x4b2862f8	1.1035384e+07
1	0x4b26378f	1.0893199e+07
2	0x4b3e9aa8	1.2491432e+07
3	0x4b2c35a8	1.1285928e+07

exp_avg f4 [2, 4]
0	0x42ba0ff9	93.0312
1	0x43387465	184.45467
2	0x42630533	56.755077
3	0xc2fde40b	-126.9454
4	0xc2b4ee05	-90.46488
5	0xc33007fa	-176.03116
6	0xc2647795	-57.11678
7	0x42e36050	113.68811

exp_avg_sq f4 [2, 4]
0	0x45b4a964	5781.174
1	0x45b79266	5874.3
2	0x450c10b9	2241.0452
3	0x44a7c1a1	1342.0509
4	0x45a00104	5120.127
5	0x45a81eb6	5379.839
6	0x44f53737	1961.7255
7	0x4490f098	1159.5186

exp_avg f4 [2]
0	0x449df91b	1263.7845
1	0xc4929686	-1172.7039

exp_avg_sq f4 [2]
0	0x48d03ea3	426485.1
1	0x48c1a36d	396571.4

exp_avg f4 [1, 2]
0	0xc3a6a369	-333.27664
1	0x43aac22a	341.5169

exp_avg_sq f4 [1, 2]
0	0x477e13d6	65043.836
1	0x477e7d0a	65149.04
