Source/Baseline/Heuristic_method/logs/ppo-ur5-ComGrasp/ppo-ur5-ComGrasp_s0/pyt_save/model.pt (torch_old, 13768 bytes, 30 tensors)

pi.mu_net.0.weight f4 [16, 2]
-0.18761955 0.42397305 -0.4967505 -0.76603 -0.38463503 0.059195712 -0.16172746 0.59451514
-0.07970046 0.20811953 -0.13198605 -0.1056054 -0.5082128 -0.4450965 -0.14337888 0.12845206
0.23825914 0.464909 -0.4415123 -0.4528133 0.2849596 0.67369825 -0.3481981 0.40604883
-0.36101693 -0.076672465 0.48341337 -0.6903709 -0.3691529 -0.08588929 -0.16865364 0.73710316
00000000: 571f 40be ff12 d93e 1556 febe 8b1a 44bf
00000010: e2ee c4be 3477 723d e29b 25be 2532 183f
00000020: ff39 a3bd 491d 553e 5a27 07be a547 d8bd
00000030: 3c1a 02bf b0e3 e3be ead1 12be f088 033e
00000040: 34fa 733e 8d08 ee3e e60d e2be 25d7 e7be
00000050: 3ae6 913e 7d77 2c3f 0547 b2be a2e5 cf3e
00000060: 36d7 b8be 7406 9dbd f581 f73e 26bc 30bf
00000070: 9c01 bdbe b9e6 afbd 8ab3 2cbe cbb2 3c3f

pi.mu_net.0.bias f4 [16]
-0.31641942 -0.4825192 -0.5289611 -0.5596785 -0.398764 0.5722246 0.32392538 0.3636821
0.048316225 -0.42648426 0.14939289 -0.6568451 -0.4964055 -0.38147298 0.49065566 0.44538987
00000000: ba01 a2be c20c f7be ff69 07bf 1747 0fbf
00000010: cc2a ccbe 507d 123f 8cd9 a53e 8a34 ba3e
00000020: 3ce7 453d 255c dabe 73fa 183e 0027 28bf
00000030: dd28 febe 6d50 c3be 3837 fb3e 240a e43e

pi.mu_net.2.weight f4 [16, 16]
-0.13678007 -0.019590626 0.14606933 0.22788669 0.08212782 0.054450393 0.1835478 -0.12054167
0.043100107 -0.2055497 -0.16857442 -0.14664896 0.093132846 0.081549466 -0.13340795 0.10501644
0.13977164 0.092990525 0.10608404 0.059420407 0.15879756 0.27264807 -0.19360535 -0.031055951
-0.021767797 0.3261211 0.10003762 0.27434215 0.11694329 -0.2216654 0.04548826 -0.10634546
-0.18870085 0.2140839 0.19245851 -0.20795079 0.07917747 -0.09345311 -0.0285363 -0.17756553
0.11574798 -0.15281911 0.10302574 0.14560713 0.19437227 0.09555338 -0.27627033 -0.22664182
0.13103236 0.09649299 -0.14470257 -0.12956722 0.2594314 0.16640614 -0.15273243 -0.03923068
-0.27421603 0.03403455 -0.2257172 -0.15532139 0.023391701 0.06835382 -0.11126745 0.16634186
-0.16280213 0.25071892 0.19432083 -0.21473153 -0.05468178 0.015607306 -0.0010548453 0.07789864
0.0801708 0.03441089 -0.13940728 0.13195403 -0.22642273 -0.12132509 -0.07252121 -0.10487795
-0.106320046 -0.15681247 -0.016480703 0.03879129 -0.16850229 0.016007429 0.1663317 0.022875002
-0.041174598 0.022095889 0.0062303008 0.17357221 0.25594732 0.16157871 0.25395462 0.026526265
-0.23430757 -0.04045312 0.22828862 -0.012329677 -0.13266496 -0.15119311 -0.21411707 -0.14323322
-0.13670847 0.21109918 0.057578813 -0.2124089 0.19554056 -0.22189984 -0.013151844 -0.04134069
-0.044625312 0.021446066 -0.1648739 -0.20881458 -0.025642207 0.017290305 -0.12807722 0.1313243
-0.28549248 0.049299818 0.15617831 -0.06550213 0.2676751 0.099355176 -0.21646442 0.18670584
-0.05393835 -0.094500415 0.2120115 -0.22289531 0.014115506 -0.02002095 0.16096106 0.11967142
0.09639261 0.10158367 -0.07826608 -0.053352486 -0.2040584 0.13970473 0.21742769 0.22087224
-0.17342089 -0.07198682 -0.24379158 -0.13946334 -0.15773834 0.07357879 -0.12541912 -0.037249573
0.07637176 0.08348089 -0.1199308 -0.21016312 -0.18885925 0.15620363 -0.08764743 0.18629675
0.08681438 -0.046074342 -0.06763369 -0.057441667 0.0121660745 -0.061483085 0.025695592 0.007522744
-0.13653125 -0.20326558 0.265101 -0.2443321 -0.06353047 0.22456609 0.09877345 -0.010560947
-0.22271262 0.029057499 -0.2533403 -0.07400507 -0.08699619 -0.067724526 -0.014335872 0.14618462
0.1277042 0.13331552 0.2446276 -0.20343527 0.05446712 -0.15432577 -0.1402514 0.022739429
0.13344297 0.4266061 0.11649914 0.034416866 0.15856224 -0.21431588 0.212265 -0.1418742
-0.17678788 0.18978383 -0.33748296 0.1520533 0.36230686 -0.10066032 -0.11269407 -0.04243817
-0.2626383 0.15246482 -0.088052 -0.17647061 -0.14399147 0.16591464 0.11589984 0.23548663
0.05079817 -0.04854358 -0.105892345 0.08897324 0.22352776 0.074057855 -0.10561692 -0.07729985
-0.21675947 0.013176517 -0.17110613 -0.20911516 0.22096817 -0.18164441 -0.0019032762 0.037248455
0.043462835 -0.20434426 -0.16835429 0.18742296 0.026888484 0.18992066 -0.08488293 0.042605955
-0.020013416 0.100768894 -0.06224018 0.11235899 0.10659189 0.018926429 0.043652505 -0.09026039
0.034853764 -0.0728363 -0.029749228 -0.026369398 -0.046321757 -0.047020853 -0.061376248 0.111838974
00000000: 1310 0cbe 857c a0bc 3393 153e 215b 693e
00000010: a132 a83d 6007 5f3d f4f3 3b3e 8dde f6bd
00000020: bd89 303d 9f7b 52be c69e 2cbe 252b 16be
00000030: 6fbc be3d 6803 a73d 189c 08be dc12 d73d
00000040: 4c20 0f3e d171 be3d 9742 d93d d062 733d
00000050: d49b 223e 8798 8b3e 7b40 46be 0d69 febc
00000060: 6152 b2bc 58f9 a63e 86e0 cc3d 9376 8c3e
00000070: f77f ef3d 41fc 62be e651 3a3d a6cb d9bd
00000080: cc3a 41be cf38 5b3e d813 453e 0df1 54be
00000090: cc27 a23d 5864 bfbd f5c4 e9bc bdd3 35be
000000a0: 470d ed3d 9d7c 1cbe 29ff d23d 091a 153e
000000b0: 8609 473e 7eb1 c33d 4e73 8dbe cb14 68be
000000c0: 592d 063e 1e9e c53d e92c 14be 45ad 04be
000000d0: 31d4 843e 5f66 2a3e e465 1cbe 59b0 20bd
000000e0: 0b66 8cbe d067 0b3d 6922 67be 920c 1fbe
000000f0: f49f bf3c 16fd 8b3d 30e0 e3bd 8555 2a3e
00000100: 9ab5 26be 3b5e 803e 0afc 463e 95e2 5bbe
00000110: 01fa 5fbd c9b5 7f3c bc42 8aba 5289 9f3d
00000120: 9730 a43d 6ff2 0c3d c8c0 0ebe f51e 073e
00000130: 5cdb 67be 4a79 f8bd 0086 94bd 40ca d6bd
00000140: 53be d9bd 7393 20be 8a02 87bc 9ee3 1e3d
00000150: dd8b 2cbe 0322 833c db52 2a3e 5b64 bb3c
00000160: b2a6 28bd 7002 b53c 8d27 cc3b eabc 313e
00000170: 870b 833e e474 253e 5706 823e 9c4d d93c
00000180: 53ee 6fbe 2cb2 25bd 7ec4 693e 6a02 4abc
00000190: 53d9 07be 5ed2 1abe 8141 5bbe bbab 12be
000001a0: 4efd 0bbe 622a 583e c3d7 6b3d b881 59be
000001b0: c93b 483e b639 63be d57a 57bc db54 29bd
000001c0: 08c9 36bd a9af af3c b4d4 28be 7dd3 55be
000001d0: 9b0f d2bc 66a4 8d3c ad26 03be e179 063e
000001e0: 122c 92be 9bee 493d 35ed 1f3e fb25 86bd
000001f0: b60c 893e ba7a cb3d d9a8 5dbe d12f 3f3e
00000200: 76ee 5cbd 6f89 c1bd 8b19 593e ab3e 64be
00000210: b944 673c fa02 a4bc fad2 243e 4a16 f53d
00000220: 7d69 c53d 190b d03d f749 a0bd 2388 5abd
00000230: aff4 50be c20e 0f3e 5da5 5e3e 552c 623e
00000240: 3f95 31be d36d 93bd 80a4 79be 7acf 0ebe
00000250: 2986 21be 7ab0 963d df6d 00be 0293 18bd
00000260: cc68 9c3d 07f8 aa3d 479e f5bd 0035 57be
00000270: 5264 41be d8f3 1f3e 7f80 b3bd 93c4 3e3e
00000280: bdcb b13d 73b8 3cbd 8883 8abd f447 6bbd
00000290: 3754 473c b0d5 7bbd 907f d23c 5a81 f63b
000002a0: d9ce 0bbe da24 50be 51bb 873e 3232 7abe
000002b0: 431c 82bd a7f4 653e bc49 ca3d d207 2dbc
000002c0: c70e 64be fe09 ee3c d2b5 81be f88f 97bd
000002d0: 0f2b b2bd 28b3 8abd 01e1 6abc 6cb1 153e
000002e0: e4c4 023e dd83 083e a87f 7a3e 5651 50be
000002f0: ea18 5f3d 9307 1ebe 109e 0fbe 0a48 ba3c
00000300: 46a5 083e 1d6c da3e 1a97 ee3d b3f8 0c3d
00000310: 245e 223e 9f75 5bbe ff5b 593e 7847 11be
00000320: e207 35be b156 423e 91ca acbe dcb3 1b3e
00000330: 4980 b93e ff26 cebd 26cc e6bd a6d3 2dbd
00000340: 8778 86be bd1f 1c3e 9b54 b4bd b6b4 34be
00000350: 8072 13be 87e5 293e e55c ed3d 6823 713e
00000360: be11 503d a2d5 46bd 16de d8bd 9a37 b63d
00000370: 76e4 643e a5ab 973d af4d d8bd 624f 9ebd
00000380: 32f6 5dbe 51e2 573c 7236 2fbe 4922 56be
00000390: 7b45 623e fe00 3abe 5a77 f9ba d691 183d
000003a0: 1606 323d 9f3f 51be 1165 2cbe ceeb 3f3e
000003b0: 3d45 dc3c 907a 423e 1ad7 adbd 9583 2e3d
000003c0: 2df3 a3bc ec5f ce3d 8fef 7ebd 781c e63d
000003d0: d94c da3d 990b 9b3c f8cc 323d 70da b8bd
000003e0: d2c2 0e3d 332b 95bd a7b4 f3bc a304 d8bc
000003f0: e2bb 3dbd f098 40bd a965 7bbd d50b e53d

pi.mu_net.2.bias f4 [16]
0.06708378 -0.17414111 -0.002350996 0.09253786 0.1012937 -0.013572959 -0.18444672 -0.040482655
0.109357454 -0.09336537 0.09962361 0.15725161 -0.13873431 0.013770957 0.088997915 0.0058152303
00000000: 3963 893d 0c52 32be 2b13 1abb 7d84 bd3d
00000010: 1273 cf3d 1e61 5ebc 9adf 3cbe 24d1 25bd
00000020: cdf6 df3d 5836 bfbd 7707 cc3d 9106 213e
00000030: 5e10 0ebe 949f 613c 8a44 b63d b08d be3b

pi.mu_net.4.weight f4 [1, 16]
-0.0036536036 0.036046583 -0.20479503 0.027577952 0.20465285 0.16328584 0.08585142 0.03081879
0.12955888 -0.09572027 -0.20915148 -0.16886522 0.26783195 0.16258843 -0.13707045 -0.0041020457
00000000: 4c71 6fbb 95a5 133d cab5 51be 28eb e13c
00000010: 8490 513e 6734 273e dfd2 af3d b077 fc3c
00000020: 15ab 043e fd08 c4bd ce2b 56be 01eb 2cbe
00000030: 4521 893e 957d 263e 325c 0cbe 746a 86bb

v.v_net.0.weight f4 [16, 2]
0.5818502 1.7976958 -0.534789 -1.0593003 0.632138 1.4561273 -0.55560786 -1.2304472
0.36857563 1.2575898 -0.4913771 -1.1588691 -0.5956603 -1.1444404 0.6842845 0.7062199
0.6580559 0.9396975 0.6518292 0.6246269 0.651824 0.3532794 0.69090384 0.36689955
-0.6600853 -1.6179972 0.66419125 1.3838425 0.7400029 1.4138042 -0.49423257 -1.5333134
00000000: 22f4 143f e51a e63f efe7 08bf 2797 87bf
00000010: ccd3 213f 6162 ba3f 513c 0ebf 4b7f 9dbf
00000020: f2b5 bc3e b4f8 a03f c795 fbbe d355 94bf
00000030: 327d 18bf 067d 92bf 452d 2f3f d4ca 343f
00000040: 5a76 283f 0490 703f 47de 263f 8ce7 1f3f
00000050: f0dd 263f 0ae1 b43e 13df 303f 42da bb3e
00000060: 5afb 28bf 881a cfbf 7008 2a3f c021 b13f
00000070: d470 3d3f 89f7 b43f 0d0c fdbe 9d43 c4bf

v.v_net.0.bias f4 [16]
0.92027396 -1.1109567 1.1532387 -1.1186849 0.49033442 -1.155964 -1.0721494 1.2118406
1.1927613 1.1696168 1.1899675 1.2618666 -1.0708765 1.1268139 1.2763109 -0.7205032
00000000: 1397 6b3f d433 8ebf 539d 933f 1131 8fbf
00000010: 1d0d fb3e a1f6 93bf 313c 89bf 981d 9b3f
00000020: 67ac 983f 01b6 953f db50 983f d884 a13f
00000030: 7b12 89bf 703b 903f 285e a33f e672 38bf

v.v_net.2.weight f4 [16, 16]
-0.77862555 1.3469727 -2.8742561 1.3770884 -0.109596156 0.9837289 2.5988224 -2.8410902
-3.1242464 -2.911575 -2.7137985 -2.7661166 1.424736 -2.0532255 -2.501946 0.7285589
1.0686419 -1.2614714 3.299791 -1.298638 0.053407773 -0.6592082 -2.5025604 2.7141783
3.2207484 2.6799228 2.9481308 3.213417 -1.4879972 1.7953547 2.7013497 -0.65451294
-0.77311665 1.0612487 -2.7180176 1.3210362 -0.13659374 0.88400686 2.6385412 -2.7561545
-3.3040605 -2.8959403 -3.1834288 -3.071524 1.5307916 -2.2201602 -2.7879515 0.4663078
-1.0443965 1.154394 -3.0284472 1.3743151 -0.24956356 0.93509066 2.3420963 -3.0533493
-3.2705781 -2.845692 -2.7739692 -3.1407378 1.6675905 -2.0573182 -2.7377648 0.5534199
0.93534356 -0.8412426 3.2280667 -1.0773695 0.37849635 -0.9842462 -2.4813602 2.919928
3.278202 2.7057257 3.0006092 2.8277926 -1.7811933 2.166821 2.684978 -0.5403368
-0.8123514 1.082815 -3.2426755 1.131556 -0.3336335 0.9265832 2.9549549 -2.588529
-3.063608 -2.6816883 -3.1838613 -3.1634328 1.4969703 -2.016849 -2.587313 0.3622621
0.75581384 -1.2277328 3.1151154 -1.3157496 0.315345 -0.6521599 -2.413759 2.7947564
2.9712088 2.7392519 2.9917185 3.0990906 -1.645537 2.1981583 2.745946 -0.6220528
-1.2717125 1.2244326 -2.8315542 1.051397 -0.13982806 0.9339727 2.8150473 -2.658021
-3.2597785 -2.7942972 -2.9355857 -3.090625 1.6618026 -2.1075604 -2.69473 0.5972867
-1.094314 1.1933275 -2.9581237 1.2873602 -0.23595068 1.02711 2.6448908 -2.609332
-3.0463078 -2.6282709 -3.0610514 -3.091429 1.2991472 -1.6582018 -2.7425878 0.5687813
-1.1475941 1.516224 -2.507779 1.1578757 -0.060361154 0.75876665 2.3683424 -2.884523
-3.0658877 -2.8092325 -2.7691305 -2.9473035 1.4404889 -2.0057979 -3.0625675 0.36803484
-0.9556996 1.081629 -3.1064918 1.3882018 -0.204887 0.6945735 2.5405786 -2.525084
-3.2283733 -2.7508879 -2.9844215 -3.080035 1.4732597 -1.8115225 -2.74191 0.5146544
0.6732293 -0.98322815 3.051979 -1.3157111 0.35644305 -0.77971715 -2.5544448 3.0664067
3.183423 3.0609596 3.1284878 2.849416 -1.6261382 2.002999 3.0617192 -0.46485698
-1.1422732 1.1736814 -2.715859 1.2760178 -0.3348556 0.6313053 2.5965092 -2.7940288
-3.1512141 -2.720223 -2.8358657 -2.781463 1.713839 -2.0543456 -2.990393 0.20550473
0.9992655 -1.1574651 3.0816839 -1.7424439 0.11351308 -0.8331842 -2.3293507 2.5331488
2.8979015 2.5663679 3.1329417 2.8438795 -1.5220678 2.0810194 2.6367764 -0.34049693
-1.0712746 1.3181539 -3.116152 1.5306866 -0.30020726 0.91730416 2.7667348 -2.6773977
-2.9755855 -2.56401 -2.890968 -3.0015469 1.6621966 -1.8823321 -3.0554354 0.53670615
0.7446928 -0.8430534 2.9720314 -1.5793202 0.075669974 -0.73666084 -2.5411642 2.9729695
3.1339846 2.972482 2.9674015 2.9136035 -1.7841307 1.8777732 2.9905562 -0.5551506
00000000: 0154 47bf 9a69 ac3f d0f3 37c0 6f44 b03f
00000010: f373 e0bd a8d5 7b3f 1b53 2640 6cd4 35c0
00000020: a7f3 47c0 3f57 3ac0 e0ae 2dc0 0e08 31c0
00000030: c05d b63f 0c68 03c0 e21f 20c0 d682 3a3f
00000040: 42c9 883f e577 a1bf c72f 5340 c539 a6bf
00000050: 1cc2 5a3d dec1 28bf f329 20c0 19b5 2d40
00000060: be20 4e40 db83 2b40 2dae 3c40 a0a8 4d40
00000070: b176 bebf 2fce e53f eae2 2c40 298e 27bf
00000080: f9ea 45bf ffd6 873f 00f4 2dc0 b717 a93f
00000090: 3bdf 0bbe 464e 623f dcdd 2840 d664 30c0
000000a0: ba75 53c0 1657 39c0 4cbd 4bc0 d993 44c0
000000b0: fbf0 c33f 1b17 0ec0 cc6d 32c0 e5bf ee3e
000000c0: c9ae 85bf 2fc3 933f 14d2 41c0 8fe9 af3f
000000d0: 978d 7fbe 1a62 6f3f e8e4 1540 136a 43c0
000000e0: 2751 51c0 d11f 36c0 b688 31c0 d901 49c0
000000f0: 9b73 d53f 1aab 03c0 8a37 2fc0 edac 0d3f
00000100: ad72 6f3f ad5b 57bf a598 4e40 3ee7 89bf
00000110: 46ca c13e 8ff7 7bbf 9bce 1ec0 1ae0 3a40
00000120: 10ce 5140 9c2a 2d40 fb09 4040 8efa 3440
00000130: 24fe e3bf 32ad 0a40 aed6 2b40 8353 0abf
00000140: 43f6 4fbf af99 8a3f ff87 4fc0 d4d6 903f
00000150: 03d2 aabe 8e34 6d3f fb1d 3d40 76aa 25c0
00000160: 2712 44c0 c8a0 2bc0 62c4 4bc0 af75 4ac0
00000170: b99c bf3f 0e14 01c0 8996 25c0 6b7a b93e
00000180: 047d 413f 5926 9dbf 0d5e 4740 7c6a a8bf
00000190: e674 a13e f4f3 26bf 077b 1ac0 4add 3240
000001a0: 4928 3e40 e74f 2f40 5178 3f40 8057 4640
000001b0: f5a0 d2bf a0ae 0c40 94bd 2f40 da3e 1fbf
000001c0: 7ac7 a2bf 35ba 9c3f 2f38 35c0 2d94 863f
000001d0: 162f 0fbe d618 6f3f bc29 3440 041d 2ac0
000001e0: 36a0 50c0 c4d5 32c0 a3e0 3bc0 cdcc 45c0
000001f0: f3b5 d43f 45e2 06c0 7576 2cc0 c8e7 183f
00000200: 7b12 8cbf f5be 983f e651 3dc0 38c8 a43f
00000210: 0e9d 71be 5778 833f e445 2940 4cff 26c0
00000220: b5f6 42c0 9735 28c0 44e8 43c0 f9d9 45c0
00000230: 754a a63f f53f d4bf 8f86 2fc0 a79b 113f
00000240: 5de4 92bf a113 c23f 737f 20c0 4535 943f
00000250: 423d 77bd 883e 423f ec92 1740 069c 38c0
00000260: 8137 44c0 77ca 33c0 6f39 31c0 9fa0 3cc0
00000270: f161 b83f fe5e 00c0 1b01 44c0 106f bc3e
00000280: bba8 74bf d272 8a3f c3d0 46c0 99b0 b13f
00000290: e6cd 51be 92cf 313f d798 2240 fa9a 21c0
000002a0: ab9d 4ec0 8c0e 30c0 c300 3fc0 4b1f 45c0
000002b0: c693 bc3f f8df e7bf 747b 2fc0 64c0 033f
000002c0: c158 2c3f d7b4 7bbf a053 4340 3969 a8bf
000002d0: b47f b63e 8b9b 47bf 067c 23c0 0240 4440
000002e0: 34bd 4b40 c3e6 4340 2539 4840 d55c 3640
000002f0: 4c25 d0bf 2331 0040 35f3 4340 bc01 eebe
00000300: 0236 92bf 313b 963f a2d0 2dc0 8d54 a33f
00000310: 3172 abbe 399d 213f 352d 2640 5ed1 32c0
00000320: 7ead 49c0 2218 2ec0 d37e 35c0 7d03 32c0
00000330: 145f db3f 667a 03c0 9962 3fc0 d56f 523e
00000340: ddcf 7f3f d127 94bf 4f3a 4540 6708 dfbf
00000350: 8c79 e83d 8f4b 55bf 1514 15c0 1c1f 2240
00000360: 3877 3940 5f3f 2440 1e82 4840 1f02 3640
00000370: 1ed3 c2bf 6c2f 0540 f2c0 2840 9d55 aebe
00000380: 871f 89bf 44b9 a83f 096f 47c0 8aed c33f
00000390: c4b4 99be 72d4 6a3f 2f12 3140 7c5a 2bc0
000003a0: fe6f 3ec0 bd18 24c0 9f05 39c0 5819 40c0
000003b0: dcc2 d43f 42f0 f0bf 418c 43c0 9365 093f
000003c0: 30a4 3e3f 59d2 57bf c335 3e40 2a27 cabf
000003d0: dcf8 9a3d ce95 3cbf 6fa2 22c0 2245 3e40
000003e0: 3493 4840 253d 3e40 e8e9 3d40 7b78 3a40
000003f0: 655e e4bf df5a f03f 4665 3f40 5a1e 0ebf

v.v_net.2.bias f4 [16]
-0.55656844 0.629721 -0.58112544 -0.63291824 0.72092456 -0.6038741 0.6945821 -0.67317134
-0.57395333 -0.56851757 -0.6345682 0.66436815 -0.6907812 0.5236104 -0.6148162 0.6250143
00000000: 457b 0ebf 6535 213f a3c4 14bf ee06 22bf
00000010: 838e 383f 7e97 1abf 22d0 313f f554 2cbf
00000020: 9bee 12bf 5e8a 11bf 1073 22bf 0814 2a3f
00000030: 09d7 30bf 550b 063f 9864 1dbf f000 203f

v.v_net.4.weight f4 [1, 16]
6.1199174 -5.99237 5.94505 5.821694 -5.940607 6.0354466 -6.0454493 5.9121275
6.1403346 5.887695 6.0079393 -5.88506 6.0836544 -6.16536 5.862492 -5.941631
00000000: 5dd6 c340 7fc1 bfc0 d93d be40 514b ba40
00000010: 7419 bec0 6122 c140 5274 c1c0 2630 bd40
00000020: 9f7d c440 ff67 bc40 0a41 c040 6952 bcc0
00000030: 4cad c240 a14a c5c0 8999 bb40 d721 bec0

exp_avg f4 [16, 2]
0.0048120907 -0.00014181773 0.0500618 -0.0010625435 0.06768926 -0.0013388866 0.0023914229 -6.958341e-05
-0.021159213 0.00023465934 0.016502226 -0.00012924545 0.022536436 -0.0004108751 0.016603982 -9.6553966e-05
-0.028751597 0.0005286323 0.06680449 -0.0013426507 -0.089204244 0.0016694411 0.058220927 -0.0011459377
0.04898289 -0.0010061818 -0.022357397 0.00039392232 0.021741709 -0.00017805923 0.0013243112 7.7662626e-05
00000000: beae 9d3b e8b4 14b9 9a0d 4d3d 0b45 8bba
00000010: aba0 8a3d 947d afba 6bb9 1c3b 4fed 91b8
00000020: 1656 adbc e30e 7639 ad2f 873c 1086 07b9
00000030: 559e b83c b96a d7b9 1305 883c 047d cab8
00000040: 7888 ebbc ea93 0a3a cbd0 883d e2fb afba
00000050: b7b0 b6bd 26d1 da3a 1179 6e3d 4a33 96ba
00000060: 48a2 483d dce1 83ba dc26 b7bc 5c87 ce39
00000070: ab1b b23c 69b5 3ab9 8394 ad3a cede a238

exp_avg_sq f4 [16, 2]
6.672018e-05 2.3295707e-08 0.0007284 3.5326673e-07 0.0019054621 9.2395476e-07 5.529523e-05 2.6422152e-08
0.0006269753 2.3352493e-07 0.0006045736 1.992384e-07 0.0008905803 5.0613414e-07 0.0007629323 2.3122573e-07
0.00038729818 1.7083167e-07 0.001721256 8.874333e-07 0.0036260842 1.759493e-06 0.0013331639 5.875682e-07
0.0008790474 3.7656557e-07 0.00097153994 5.4130766e-07 0.0017182569 6.6138773e-07 0.00010748147 2.82482e-08
00000000: 20ec 8b38 cd1b c832 19f2 3e3a 9ca8 bd34
00000010: b3c0 f93a b005 7835 cdec 6738 edf6 e232
00000020: 9a5b 243a d8be 7a34 3f7c 1e3a 3cee 5534
00000030: d575 693a 46dd 0735 85ff 473a d846 7834
00000040: 480e cb39 da6d 3734 c49b e13a f437 6e35
00000050: 99a3 6d3b b827 ec35 8fbd ae3a 61b9 1d35
00000060: df6f 663a c72a ca34 f1ae 7e3a 614e 1135
00000070: 2237 e13a 388a 3135 ad67 e138 73a6 f232

exp_avg f4 [16]
-0.0068731327 -0.047438595 -0.059923273 -0.0033641607 0.009463272 -0.004717435 -0.017176894 -0.0030819618
0.02345603 -0.059404574 0.073726684 -0.05185967 -0.045485348 0.016356537 -0.006442896 0.0038067356
00000000: 0438 e1bb f94e 42bd 1b72 75bd 4079 5cbb
00000010: d70b 1b3c b794 9abb 8fb6 8cbc bdfa 49bb
00000020: dc26 c03c 3652 73bd 04fe 963d ce6a 54bd
00000030: d84e 3abd 25fe 853c ee1e d3bb 6d7a 793b

exp_avg_sq f4 [16]
4.2018375e-05 0.0005617973 0.0014262107 4.4013977e-05 0.00038713493 0.00034425422 0.0007139617 0.00040970123
0.00027133655 0.0013181493 0.0027158805 0.0009480256 0.00062183954 0.0007719204 0.0010979658 5.3426502e-05
00000000: e33c 3038 9445 133a b1ef ba3a a69b 3838
00000010: 5ff8 ca39 057d b439 2929 3b3a 2bcd d639
00000020: 2d42 8e39 c0c5 ac3a eafc 313b ec84 783a
00000030: f202 233a b35a 4a3a 9ee9 8f3a 4516 6038

exp_avg f4 [16, 16]
-3.808712e-05 0.00024432753 3.769086e-06 -0.00042005826 -0.0003697525 0.00092548475 0.0012546112 0.00075764593
-0.0004207821 0.00024530297 -0.00036268245 -0.00023886541 5.4387942e-06 -0.0012840561 0.0012020363 0.0008936555
0.0010246143 -0.001070672 0.00096109475 0.004444504 0.0037810402 -0.008324625 -0.010085053 -0.0066212
0.0030563688 -0.0011168846 0.0023992383 0.0030686634 0.0009235382 0.0104373805 -0.010056898 -0.0078396285
0.00051406387 0.011907624 0.002919935 -0.013181644 -0.011970731 0.033069205 0.04805749 0.027599072
-0.017039593 0.01181945 -0.015343406 -0.0059635867 0.0029111765 -0.04885571 0.044968218 0.03246432
0.000244404 -0.0016286524 -3.547901e-05 0.002769545 0.0024395254 -0.0061166855 -0.00831526 -0.0050095757
0.0027896212 -0.0016348325 0.0024074335 0.0015700578 -4.638589e-05 0.008506795 -0.007955284 -0.0059087398
0.0017400534 -0.01214566 -0.00032260688 0.020499395 0.018063843 -0.045447517 -0.06196185 -0.037248675
0.020808188 -0.012205431 0.017972015 0.0116054 -0.00040828483 0.06339097 -0.059248663 -0.04393611
0.0016699629 -0.009449846 0.000101023936 0.016890092 0.0148354 -0.036885615 -0.049812384 -0.030156612
0.01661145 -0.0095078405 0.014261154 0.009754718 2.4862878e-05 0.051003933 -0.047783073 -0.035580948
0.00091504736 -0.004783414 0.000108357475 0.008711858 0.007644404 -0.0188968 -0.025345167 -0.015429
0.008444393 -0.0048048943 0.0072336243 0.005048627 7.1710485e-05 0.025962304 -0.024370734 -0.018202577
0.0003649215 -0.0018493074 5.9667407e-05 0.0034142695 0.0029936929 -0.00739172 -0.009914561 -0.0060340636
0.003295844 -0.0018607795 0.0028195325 0.001990667 4.4111315e-05 0.010157876 -0.009534228 -0.007120069
0.00027359647 -0.0071328287 -0.0010704496 0.00970039 0.008668107 -0.02280021 -0.032076497 -0.01885334
0.011078064 -0.0071168924 0.009779739 0.004982584 -0.0010888502 0.03271206 -0.030343 -0.022207377
-0.0026839753 0.003101376 -0.0025021974 -0.012110489 -0.01031849 0.02294345 0.028155316 0.018295035
-0.008576125 0.0032427835 -0.006782264 -0.008321839 -0.0023951256 -0.029114418 0.027950054 0.021663025
-0.0050675618 0.008046887 -0.0042718616 -0.02552541 -0.021879505 0.049744163 0.062258508 0.039872818
-0.019394511 0.008290683 -0.015663784 -0.01697691 -0.0040725097 -0.06423458 0.06135623 0.047171686
-0.0032693213 0.0069220094 -0.0023513304 -0.018461881 -0.015921718 0.03690218 0.046843346 0.02970637
-0.014904048 0.0070374655 -0.012251334 -0.011837419 -0.002234188 -0.04823725 0.045917507 0.035109583
0.009410894 -0.0037328089 0.010000406 0.033190764 0.02786315 -0.05801461 -0.06629661 -0.045498107
0.018880801 -0.004175221 0.013856892 0.024444375 0.00966525 0.0690319 -0.06757562 -0.053969048
0.0013082196 -0.009662351 -0.00035722973 0.016044836 0.014152259 -0.035696343 -0.048735183 -0.029271109
0.016404973 -0.009699184 0.01419222 0.009019421 -0.0004199759 0.049848184 -0.046576153 -0.03452146
-0.0018259755 0.0072925147 -0.0007048178 -0.01470058 -0.012831556 0.031226374 0.04147735 0.025414696
-0.013622653 0.007371215 -0.01154829 -0.008830281 -0.0006242428 -0.042541794 0.040018052 0.030006845
-4.2650037e-05 0.0002734823 4.1484827e-06 -0.0004705456 -0.00041417623 0.0010368449 0.0014048677 0.0008488194
-0.00047139562 0.00027458413 -0.00040625283 -0.00026758053 6.0331326e-06 -0.001438042 0.0013466007 0.0010011783
00000000: bcbf 1fb8 1619 8039 68f0 7c36 443b dcb9
00000010: 57db c1b9 3b9c 723a c471 a43a c29c 463a
00000020: 6b9c dcb9 029c 8039 6a26 beb9 f277 7ab9
00000030: e37e b636 c64d a8ba a58d 9d3a 3544 6a3a
00000040: 5a4c 863a ca55 8cba faf1 7b3a 34a3 913b
00000050: 54cb 773b 0264 08bc c73b 25bc a7f6 d8bb
00000060: 5c4d 483b 6e64 92ba 8a3c 1d3b a11b 493b
00000070: 9919 723a 8c01 2b3c b0c5 24bc c971 00bc
00000080: 3ec2 063a 3218 433c 615c 3f3b d2f7 57bc
00000090: e320 44bc 9373 073d eed7 443d 7317 e23c
000000a0: 9e96 8bbc 5ea6 413c e962 7bbc 316a c3bb
000000b0: 70c9 3e3b ed1c 48bd 9830 383d 4ff9 043d
000000c0: 5923 8039 8278 d5ba 4ccf 14b8 4181 353b
000000d0: 72e0 1f3b 7a6e c8bb ba3c 08bc 5e27 a4bb
000000e0: 14d2 363b e047 d6ba 08c6 1d3b 66ca cd3a
000000f0: 788e 42b8 1660 0b3c e156 02bc 1a9e c1bb
00000100: 8112 e43a 97fe 46bc 9023 a9b9 59ee a73c
00000110: a0fa 933c 2d27 3abd b5cb 7dbd 1192 18bd
00000120: ef75 aa3c 4af9 47bc 0c3a 933c 9324 3e3c
00000130: 100f d6b9 20d3 813d baae 72bd 5af6 33bd
00000140: a8e2 da3a 87d3 1abc d0dc d338 175d 8a3c
00000150: 2d10 733c 5f15 17bd 1208 4cbd 000b f7bc
00000160: bc14 883c c6c6 1bbc 9ea7 693c 41d2 1f3c
00000170: a090 d037 80e9 503d 2fb8 43bd 54bd 11bd
00000180: cadf 6f3a 2fbe 9cbb fa3d e338 2ebc 0e3c
00000190: e97d fa3b 76cd 9abc aba0 cfbc ebc9 7cbc
000001a0: 5a5a 0a3c 6072 9dbb 0a08 ed3b f46e a53b
000001b0: 4663 9638 e6ae d43c 22a5 c7bc 921d 95bc
000001c0: ef52 bf39 7664 f2ba 6443 7a38 f0c1 5f3b
000001d0: d531 443b 3e36 f2bb af70 22bc 65b9 c5bb
000001e0: 16ff 573b 66e5 f3ba e8c7 383b da75 023b
000001f0: 2a04 3938 386d 263c 7335 1cbc 784f e9bb
00000200: 7f71 8f39 81ba e9bb 544e 8cba 62ee 1e3c
00000210: ad04 0e3c 82c7 babc a562 03bd 5272 9abc
00000220: c580 353c d234 e9bb 333b 203c f244 a33b
00000230: c0b7 8eba 15fd 053d e291 f8bc 3fec b5bc
00000240: a2e5 2fbb 7440 4b3b e8fb 23bb 136b 46bc
00000250: e20e 29bc e7f3 bb3c faa5 e63c 78df 953c
00000260: e082 0cbc e184 543b c13d debb 5358 08bc
00000270: 8af7 1cbb 5c81 eebc 83f7 e43c a876 b13c
00000280: ca0d a6bb 17d7 033c f9fa 8bbb aa1a d1bc
00000290: a63c b3bc 89c0 4b3d c702 7f3d ae51 233d
000002a0: 3de1 9ebc a5d5 073c 5651 80bc 2913 8bbc
000002b0: b072 85bb 6b8d 83bd ac50 7b3d 1937 413d
000002c0: 1c42 56bb 06d2 e23b c718 1abb 5f3d 97bc
000002d0: 436e 82bc be26 173d cfde 3f3d c65a f33c
000002e0: 1c30 74bc 8a9a e63b d2b9 48bc bcf1 41bc
000002f0: 746b 12bb 6c94 45bd ff13 3c3d 11cf 0f3d
00000300: 2630 1a3c 24a2 74bb bed8 233c 0af3 073d
00000310: 4341 e43c baa0 6dbd 84c6 87bd 395c 3abd
00000320: e9ab 9a3c 4bd0 88bb 0408 633c 923f c83c
00000330: ff5a 1e3c 9960 8d3d 1665 8abd a60e 5dbd
00000340: 9178 ab3a d64e 1ebc 904a bbb9 7670 833c
00000350: e0de 673c 5436 12bd 8b9e 47bd f7c9 efbc
00000360: b963 863c 54e9 1ebc 7c86 683c 32c6 133c
00000370: 3630 dcb9 9c2d 4c3d a3c6 3ebd 6066 0dbd
00000380: 9255 efba 0cf6 ee3b 86c3 38ba b4da 70bc
00000390: 723b 52bc 74ce ff3c 27e4 293d 7b32 d03c
000003a0: 8c31 5fbc 3c8a f13b 0a35 3dbc e2ac 10bc
000003b0: 3aa4 23ba 4e40 2ebd f8e9 233d ead0 f53c
000003c0: 21e3 32b8 2c62 8f39 3233 8b36 90b3 f6b9
000003d0: cb25 d9b9 bee6 873a 8a23 b83a 4e83 5e3a
000003e0: a625 f7b9 0ff6 8f39 55fe d4b9 0d4a 8cb9
000003f0: 3770 ca36 af7c bcba 6c80 b03a f839 833a

exp_avg_sq f4 [16, 16]
5.1200135e-07 1.3872042e-06 1.2461819e-06 1.0530763e-06 5.4554044e-07 8.961898e-07 1.1605237e-06 4.810536e-07
3.3862392e-07 1.238426e-06 5.389444e-07 1.4224304e-06 1.1457026e-06 1.0968948e-06 8.994885e-07 6.858916e-07
9.431203e-06 2.3915856e-05 2.188085e-05 2.459038e-05 1.3870074e-05 3.3995737e-05 4.263536e-05 2.0004198e-05
7.011052e-06 2.107114e-05 9.521395e-06 2.8135239e-05 2.0181315e-05 4.365108e-05 3.9509738e-05 2.7515436e-05
0.00075684703 0.0021074705 0.0019269281 0.0014713848 0.0007490576 0.00088972785 0.0010673595 0.00038353517
0.00044273262 0.0018783979 0.00078036543 0.002150167 0.0017701387 0.000946452 0.0006987974 0.0005615173
1.38429e-05 3.832745e-05 3.4548266e-05 2.7280994e-05 1.42294775e-05 1.9946236e-05 2.5298588e-05 9.652175e-06
8.662222e-06 3.401853e-05 1.4505106e-05 3.8819417e-05 3.1842465e-05 2.3367731e-05 1.833486e-05 1.3792453e-05
0.00084106624 0.0023100816 0.0021106594 0.0017103198 0.00089036307 0.0012847277 0.0015623862 0.0006206342
0.00050575944 0.0020515723 0.0008584631 0.0024045592 0.0019416616 0.0014624519 0.0011734708 0.000888418
0.0005730989 0.0015639538 0.0014327373 0.0011954872 0.00062584324 0.00096189737 0.001150639 0.00047905874
0.00034434136 0.0013872931 0.00057789485 0.0016509322 0.0013175093 0.0010940791 0.0009033291 0.0006807542
0.00012672803 0.00033950663 0.00031181757 0.00027062523 0.0001430482 0.0002363062 0.0002855281 0.00012200029
7.812999e-05 0.00030151464 0.00012760717 0.00036368732 0.00028714942 0.0002753325 0.00023154865 0.00017194364
8.166064e-06 2.232472e-05 1.9809575e-05 1.5001648e-05 7.866269e-06 1.03683615e-05 1.494531e-05 4.946645e-06
5.4148704e-06 1.9886023e-05 8.902025e-06 2.170943e-05 1.8373355e-05 1.348403e-05 9.864057e-06 7.2264006e-06
0.00027758416 0.0007725586 0.00070559024 0.00054513186 0.00027907448 0.00034902606 0.00042387372 0.00015557311
0.00016437522 0.0006880191 0.00028675783 0.0007903832 0.00064830715 0.00038185163 0.00028857338 0.00022623461
0.00010073831 0.0002632402 0.00024252584 0.0002456053 0.00013513496 0.0002930488 0.00035899587 0.00016573753
6.705698e-05 0.00023176627 9.911075e-05 0.00030113765 0.00022317731 0.00036357972 0.00032489066 0.00022982672
0.0004689028 0.0012365311 0.0011344439 0.0011035134 0.000603593 0.0012450581 0.0015370026 0.00069356896
0.00031094096 0.0010909789 0.0004690944 0.0013834598 0.0010449226 0.00154188 0.0013602726 0.00096457225
0.00028521632 0.00076283445 0.0006967245 0.0006503652 0.00035256427 0.0006842055 0.0008401 0.00037401257
0.00018833869 0.000675107 0.0002904613 0.0008337251 0.0006412769 0.00083256466 0.0007264513 0.00052090915
0.00015255742 0.0003160919 0.00029088752 0.0005809379 0.00036309523 0.0012447236 0.0016165802 0.0007850017
0.00017396023 0.0002769086 0.00016547911 0.0004892677 0.00027119415 0.0017088606 0.0015958551 0.0010642299
0.000518108 0.0014245176 0.0013006988 0.0010474797 0.000544455 0.0007728973 0.000942467 0.00037067095
0.00031205406 0.0012657967 0.0005306156 0.0014777982 0.0011966531 0.0008781384 0.0006996782 0.0005312116
0.0003875941 0.0010551648 0.00096792757 0.000826284 0.00043486556 0.0007044287 0.00083723274 0.0003584758
0.00023330642 0.0009345194 0.0003875974 0.001125838 0.0008896034 0.00080613187 0.0006785217 0.0005073472
5.611099e-07 1.4295654e-06 1.3091288e-06 1.1517591e-06 6.048493e-07 9.643517e-07 1.1701397e-06 5.059231e-07
3.3779415e-07 1.2745629e-06 5.45375e-07 1.5251604e-06 1.2112337e-06 1.1156693e-06 9.1971674e-07 7.1523993e-07
00000000: 7770 0935 f92f ba35 7c42 a735 6d57 8d35
00000010: 4171 1235 b291 7035 4ac3 9b35 c021 0135
00000020: 1ecc b534 fe37 a635 faab 1035 56ea be35
00000030: 0bc6 9935 0539 9335 6174 7135 1d1e 3835
00000040: b53a 1e37 e99e c837 c58c b737 7047 ce37
00000050: 84b3 6837 a596 0e38 5fd3 3238 b0ce a737
00000060: 7a40 eb36 eec1 b037 15be 1f37 f703 ec37
00000070: 0b4b a937 fe15 3738 42b7 2538 f3d0 e637
00000080: 2567 463a 7d1d 0a3b fa90 fc3a 7bdb c03a
00000090: 685c 443a a03c 693a a4e6 8b3a 3815 c939
000000a0: 911e e839 9334 f63a 7091 4c3a d1e9 0c3b
000000b0: 0004 e83a 521b 783a 802f 373a ca32 133a
000000c0: ce3e 6837 c9c1 2038 ebe7 1038 7dd9 e437
000000d0: 24bb 6e37 3752 a737 4e38 d437 c7ef 2137
000000e0: f653 1137 1eaf 0e38 f55a 7337 08d2 2238
000000f0: 968e 0538 d205 c437 d0cd 9937 2266 6737
00000100: 007b 5c3a bd64 173b fd52 0a3b cf2c e03a
00000110: 4167 693a 4f64 a83a fbc8 cc3a 0eb2 223a
00000120: f194 043a ac73 063b 7c0a 613a cf95 1d3b
00000130: 5a7f fe3a beaf bf3a 25cf 993a b9e4 683a
00000140: 043c 163a 95fd cc3a b0ca bb3a e5b1 9c3a
00000150: a10f 243a d727 7c3a 0ad1 963a 2d2a fb39
00000160: b788 b439 d5d5 b53a de7d 173a 1864 d83a
00000170: 47b0 ac3a 3467 8f3a 64cd 6c3a a474 323a
00000180: 4ce2 0439 cfff b139 727b a339 b4e2 8d39
00000190: 35ff 1539 f6c8 7739 efb2 9539 68da ff38
000001a0: b8d9 a338 9c14 9e39 4ace 0539 49ad be39
000001b0: 8b8c 9639 815a 9039 decb 7239 c54b 3439
000001c0: fa00 0937 f945 bb37 bd2c a637 96af 7b37
000001d0: 5ef9 0337 c6f3 2d37 9ebd 7a37 5bfb a536
000001e0: 62b1 b536 e9d0 a637 e859 1537 a51c b637
000001f0: 7b20 9a37 7839 6237 cd7d 2537 4f7a f236
00000200: b788 9139 8885 4a3a 5cf7 383a 2ee7 0e3a
00000210: be50 9239 7cfd b639 5e3b de39 5721 2339
00000220: 235c 2c39 2e5c 343a fc57 9639 b831 4f3a
00000230: 28f3 293a 4233 c839 aa4b 9739 6439 6d39
00000240: 7843 d338 8003 8a39 894e 7e39 96c4 8039
00000250: 04b3 0d39 58a4 9939 9c37 bc39 d4c9 2d39
00000260: f1a0 8c38 4906 7339 aed9 cf38 03e2 9d39
00000270: b404 6a39 d89e be39 1656 aa39 a4fd 7039
00000280: 12d7 f539 1913 a23a 9fb1 943a c4a3 903a
00000290: 713a 1e3a 3831 a33a 4075 c93a a0d0 353a
000002a0: ca05 a339 2dff 8e3a c9f0 f539 3555 b53a
000002b0: c9f5 883a e818 ca3a 2d4b b23a 59db 7c3a
000002c0: 1689 9539 f4f8 473a 64a4 363a 457d 2a3a
000002d0: 60d8 b839 415c 333a 283a 5c3a 1e17 c439
000002e0: c87c 4539 aaf9 303a 0e49 9839 588e 5a3a
000002f0: 5d1b 283a 7840 5a3a 526f 3e3a 9f8d 083a
00000300: d2f7 1f39 23b9 a539 4382 9839 154a 183a
00000310: d15d be39 fe25 a33a 6ee3 d33a 93c8 4d3a
00000320: 1869 3639 0b2e 9139 7684 2d39 3342 003a
00000330: 102f 8e39 d9fb df3a 032c d13a a17d 8b3a
00000340: a4d1 073a e1b6 ba3a 367c aa3a 964b 893a
00000350: c2b9 0e3a 439c 4a3a e40f 773a 9d56 c239
00000360: 309b a339 17e9 a53a 0319 0b3a aeb2 c13a
00000370: 04d9 9c3a df32 663a 9c6a 373a 0241 0b3a
00000380: 0036 cb39 754d 8a3a 85bc 7d3a fb9a 583a
00000390: abfe e339 69a9 383a bd79 5b3a cff1 bb39
000003a0: b7a3 7439 89fa 743a 7136 cb39 db90 933a
000003b0: 4634 693a 9852 533a d2de 313a 7fff 043a
000003c0: 2e9f 1635 7edf bf35 53b5 af35 2496 9a35
000003d0: ed5c 2235 df6e 8135 b20d 9d35 c5ce 0735
000003e0: 135a b534 a611 ab35 e265 1235 1db4 cc35
000003f0: ac91 a235 1bbe 9535 74e2 7635 eafe 3f35

exp_avg f4 [16]
0.0013988967 -0.013234358 0.048217427 -0.009238975 -0.06854409 -0.05588513 -0.0287017 -0.011230307
-0.033831667 0.036313273 0.07804144 0.05747949 -0.09439597 -0.05379108 0.047696535 0.001567089
00000000: 2f5b b73a ecd4 58bc a37f 453d 125f 17bc
00000010: d860 8cbd cee7 64bd d41f ebbc 52ff 37bc
00000020: 1393 0abd 3abd 143d 31d4 9f3d 9d6f 6b3d
00000030: ad52 c1bd 0954 5cbd 715d 433d c866 cd3a

exp_avg_sq f4 [16]
3.5882995e-06 0.0001084485 0.0045099864 8.8625726e-05 0.005664871 0.0040737935 0.00095507235 4.682835e-05
0.0017047988 0.001003721 0.004386067 0.0025049075 0.0033432094 0.003445329 0.0028863368 3.8947037e-06
00000000: 84ce 7036 d86e e338 82c8 933b 93dc b938
00000010: 62a0 b93b 757d 853b d25d 7a3a 8f69 4438
00000020: 8e73 df3a 4a8f 833a ffb8 8f3b 6029 243b
00000030: bf19 5b3b 07cb 613b b228 3d3b 40af 8236

exp_avg f4 [1, 16]
-0.005682927 0.04011161 0.21394412 -0.049797118 -0.0871432 -0.08147798 0.08880454 0.036032055
-0.18229577 0.036730226 0.011071622 -0.0857121 0.064545795 -0.08806117 0.08709942 -0.0074998806
00000000: d937 babb 124c 243d 2b14 5b3e 10f8 4bbd
00000010: 2278 b2bd eddd a6bd 28df b53d 5996 133d
00000020: beab 3abe 6f72 163d c065 353c d389 afbd
00000030: 9630 843d 6a59 b4bd 2e61 b23d 8fc1 f5bb

exp_avg_sq f4 [1, 16]
0.00021702271 0.04492187 0.021141961 0.0017322568 0.0041955374 0.0044626067 0.015456639 0.0014698739
0.020770399 0.03066594 0.027202126 0.034002535 0.075239465 0.0043630386 0.008452707 0.00032353756
00000000: 9790 6339 ffff 373d e831 ad3c e50c e33a
00000010: b87a 893b 0f3b 923b d83d 7d3c c9a8 c03a
00000020: af26 aa3c 2337 fb3c fed6 de3c 3e46 0b3d
00000030: 2617 9a3d d2f7 8e3b 397d 0a3c 7aa0 a939

exp_avg f4 [16, 2]
-29.514034 0.15183365 41.108395 -0.23069936 -100.85821 0.54517597 46.783028 -0.26061794
-6.1321254 0.029776819 29.274982 -0.16728303 85.667915 -0.45957243 -89.744835 0.47461295
-104.23819 0.55917865 -90.99732 0.48469248 -99.00033 0.53143877 -99.61669 0.5349947
47.696724 -0.24381778 -63.194435 0.3297199 -88.312675 0.46156326 15.115836 -0.07647788
00000000: be1c ecc1 487a 1b3e ff6e 2442 743c 6cbe
00000010: 67b7 c9c2 a790 0b3f d221 3b42 b76f 85be
00000020: 5f3a c4c0 84ee f33c 2a33 ea41 3e4c 2bbe
00000030: f955 ab42 144d ebbe 5b7d b3c2 7800 f33e
00000040: f479 d0c2 5526 0f3f a1fe b5c2 9d29 f83e
00000050: 2b00 c6c2 5f0c 083f bf3b c7c2 6af5 083f
00000060: 72c9 3e42 5eab 79be 1ac7 7cc2 0cd1 a83e
00000070: 17a0 b0c2 0552 ec3e 77da 7141 6fa0 9cbd

exp_avg_sq f4 [16, 2]
2.4741095e+06 463.4312 2.8006892e+06 480.5631 1.9456678e+07 3435.759 3.7383952e+06 643.7055
165754.72 34.291958 1.3488859e+06 229.82736 1.5455249e+07 2782.0164 1.7800198e+07 3189.6855
2.1873464e+07 3877.849 1.765887e+07 3164.3032 1.9661922e+07 3498.111 1.961056e+07 3455.2083
6.5400745e+06 1206.4592 9.967581e+06 1816.1401 1.820808e+07 3259.617 746712.94 144.24902
00000000: f601 174a 32b7 e743 c5f0 2a4a 1448 f043
00000010: 5371 944b 25bc 5645 6d2c 644a 27ed 2044
00000020: aede 2148 f72a 0942 afa8 a449 ced3 6543
00000030: 11d4 6b4b 43e0 2d45 03ce 874b f85a 4745
00000040: 9ce1 a64b 965d 7245 fbb9 864b dac4 4545
00000050: 3102 964b c7a1 5a45 e09d 954b 55f3 5745
00000060: 5596 c74a b2ce 9644 dd17 184b 7c04 e344
00000070: a8ea 8a4b dfb9 4b45 8f4d 3649 c03f 1043

exp_avg f4 [16]
11.706477 -17.090128 41.080624 -19.36931 2.3700416 -12.300182 -34.75172 36.117706
42.278378 36.765892 40.17051 40.429447 -18.847614 25.24826 35.30992 -5.949246
00000000: bb4d 3b41 95b8 88c1 8f52 2442 59f4 9ac1
00000010: c3ae 1740 8ccd 44c1 c301 0bc2 8878 1042
00000020: 0f1d 2942 4610 1342 9aae 2042 c1b7 2142
00000030: eac7 96c1 70fc c941 5c3d 0d42 3960 bec0

exp_avg_sq f4 [16]
1.1690355e+06 1.2503962e+06 8.84495e+06 1.6726969e+06 83573.23 599606.56 7.11366e+06 8.170886e+06
9.970533e+06 8.105251e+06 8.982469e+06 8.903718e+06 3.060049e+06 4.6255055e+06 8.3538955e+06 360030.5
00000000: 5cb4 8e49 e2a2 9849 96f6 064b c72f cc49
00000010: 9d3a a347 6963 1249 7817 d94a 0c5b f94a
00000020: 6523 184b 465a f74a c50f 094b 26dc 074b
00000030: 44c5 3a4a c328 8d4a cff0 fe4a d0cb af48

exp_avg f4 [16, 16]
0.4244529 -0.06457924 0.28596064 -0.11244549 0.3568507 0.119121775 -0.28898358 0.37719917
0.3210685 0.3378893 0.31660625 0.3393347 -0.4653029 0.41359603 0.44416705 -0.4229914
-0.3288737 0.08012548 -0.24001965 0.11481475 -0.26089337 -0.04910607 0.23850958 -0.30729493
-0.2664881 -0.27720487 -0.26249248 -0.2820249 0.36485323 -0.3303177 -0.35878292 0.31816444
0.2938795 -0.087538145 0.22419308 -0.117250845 0.22514603 0.021020787 -0.22084378 0.28243294
0.24742348 0.2557832 0.24358547 0.2620038 -0.32821164 0.3002759 0.32814878 -0.27936792
0.2743462 -0.07666769 0.20655006 -0.10489553 0.21119428 0.026757631 -0.20383064 0.26186743
0.22854437 0.23667446 0.22494529 0.24212871 -0.30631304 0.27932405 0.30508977 -0.26164538
-0.31498864 0.07628285 -0.22977419 0.10958581 -0.24935047 -0.04763694 0.22827296 -0.29444134
-0.25522527 -0.26549542 -0.25135645 -0.27018377 0.34969023 -0.31653714 -0.3439888 0.30451462
0.35369587 -0.069182955 0.24793947 -0.10789956 0.28838617 0.07712691 -0.24834026 0.3224565
0.27693525 0.28972912 0.27287465 0.29299164 -0.3903502 0.35009775 0.3783567 -0.34710813
-0.33582613 0.078529306 -0.24312818 0.114226975 -0.2678793 -0.05484998 0.24197263 -0.31225482
-0.2702638 -0.2814514 -0.2662273 -0.28600818 0.37218732 -0.33632 -0.36494464 0.32582626
0.29540205 -0.07602019 0.218341 -0.10692137 0.23104225 0.0382067 -0.21628727 0.2785885
0.24215448 0.25142175 0.23841351 0.25644952 -0.32878226 0.29851907 0.32513908 -0.28392538
0.42898116 -0.06207743 0.28712294 -0.110725366 0.36200362 0.12495016 -0.2905407 0.37976912
0.3227186 0.33995235 0.31824526 0.34107223 -0.46993142 0.41709012 0.44758558 -0.4283735
0.3483768 -0.097714566 0.26137716 -0.13325436 0.27308136 0.033838097 -0.258637 0.3303972
0.28871426 0.29921043 0.28447562 0.3053314 -0.38698572 0.35272267 0.38376433 -0.33454582
0.38206357 -0.07685508 0.2686827 -0.11839865 0.31241724 0.080412626 -0.2691429 0.34846953
0.29972288 0.3134583 0.29543215 0.31690928 -0.4211616 0.37804848 0.40822828 -0.37522137
-0.26270208 0.08426523 -0.20433387 0.11040447 -0.19707425 -0.010079021 0.20041063 -0.25596073
-0.22507578 -0.23204373 -0.2214664 -0.23852232 0.29468474 -0.27082947 -0.29706448 0.24730936
0.35218316 -0.0929341 0.26093757 -0.1293995 0.2777872 0.042507447 -0.25872165 0.331684
0.2888682 0.29987878 0.28460237 0.30556694 -0.39089817 0.35520136 0.38610047 -0.33944142
-0.42373288 0.079452015 -0.29423398 0.12593757 -0.35041103 -0.0975547 0.29562196 -0.38316432
-0.3286942 -0.34440878 -0.3240996 -0.34737086 0.46589375 -0.41700536 -0.4492441 0.4184223
0.2973346 -0.067852855 0.21465197 -0.09969497 0.23616207 0.05082936 -0.21356203 0.27648342
0.23893385 0.24889387 0.23526438 0.25303668 -0.33004072 0.29799756 0.32371724 -0.2881212
-0.2806235 0.09623234 -0.2216385 0.12354908 -0.20931649 -0.0019898238 0.21695341 -0.27561137
-0.2434125 -0.25045687 -0.2395808 -0.257805 0.31487343 -0.29051083 -0.31883404 0.26316053
00000000: e451 d93e 1f42 84bd 6f69 923e d249 e6bd
00000010: 23b5 b63e 1ef6 f33d a8f5 93be 4020 c13e
00000020: 1763 a43e d4ff ac3e 371a a23e 47bd ad3e
00000030: 2f3c eebe dcc2 d33e dd69 e33e 5492 d8be
00000040: 2262 a8be d418 a43d b6c7 75be ff23 eb3d
00000050: d193 85be 7223 49bd db3b 743e c355 9dbe
00000060: 2171 88be cced 8dbe 6a65 86be 9165 90be
00000070: 0bce ba3e 671f a9be 65b2 b7be 73e6 a23e
00000080: 6077 963e 3347 b3bd df92 653e 3621 f0bd
00000090: ae8c 663e c933 ac3c df24 62be 0d9b 903e
000000a0: 955c 7d3e 04f6 823e 786e 793e 5d25 863e
000000b0: 5b0b a8be c3bd 993e 1e03 a83e 5009 8fbe
000000c0: 1b77 8c3e f303 9dbd dc81 533e 78d3 d6bd
000000d0: 5043 583e d232 db3c fbb8 50be 7d13 863e
000000e0: 8907 6a3e ca5a 723e 0f58 663e 97f0 773e
000000f0: 10d5 9cbe 9003 8f3e ba34 9c3e 62f6 85be
00000100: 3146 a1be 2f3a 9c3d ed49 6bbe 866e e03d
00000110: bb55 7fbe f41e 43bd 63c0 693e 04c1 96be
00000120: e3ac 82be 04ef 87be cbb1 80be 8755 8abe
00000130: 990a b33e 2811 a2be 4d1f b0be 57e9 9b3e
00000140: a017 b53e cbaf 8dbd d8e3 7d3e 72fa dcbd
00000150: 5aa7 933e b7f4 9d3d e94c 7ebe 0519 a53e
00000160: 75ca 8d3e 6057 943e 3ab6 8b3e 0003 963e
00000170: fbdb c7be 0340 b33e f8b7 c13e 28b8 b1be
00000180: 67f1 abbe f9d3 a03d 98f6 78be d5ef e93d
00000190: 7a27 89be 5faa 60bd acc7 773e dddf 9fbe
000001a0: 0460 8abe 661a 90be f24e 88be aa6f 92be
000001b0: 568f be3e 2332 acbe 06da babe b3d2 a63e
000001c0: f03e 973e 79b0 9bbd c894 5f3e 97f9 dabd
000001d0: 5796 6c3e a17e 1c3d 697a 5dbe 27a3 8e3e
000001e0: 58f7 773e 5aba 803e ac22 743e 5a4d 833e
000001f0: 2656 a8be 7ed7 983e a178 a63e ab5e 91be
00000200: 6ba3 db3e e744 7ebd c701 933e fbc3 e2bd
00000210: 8a58 b93e dfe5 ff3d c0c1 94be 1971 c23e
00000220: 5f3b a53e 3c0e ae3e 0bf1 a23e 05a1 ae3e
00000230: da9a f0be d68c d53e f029 e53e c553 dbbe
00000240: 725e b23e 931e c8bd 3ad3 853e d573 08be
00000250: 52d1 8b3e d199 0a3d 126c 84be d229 a93e
00000260: 5bd2 933e 1c32 993e caa6 913e 6654 9c3e
00000270: fe22 c6be 1198 b43e c27c c43e 9749 abbe
00000280: d69d c33e 3266 9dbd c790 893e fe7a f2bd
00000290: 27f5 9f3e 60af a43d 19cd 89be 996a b23e
000002a0: 4775 993e 9b7d a03e e242 973e ef41 a23e
000002b0: 7ea2 d7be 928f c13e 4c03 d13e 041d c0be
000002c0: e380 86be 4093 ac3d e63c 51be bd1b e23d
000002d0: d5cd 49be 7a22 25bc 7238 4d3e 490d 83be
000002e0: 447a 66be df9c 6dbe 17c8 62be 323f 74be
000002f0: ebe0 963e 29aa 8abe d618 98be aa3e 7d3e
00000300: 5a51 b43e 3c54 bebd 9c99 853e 4d81 04be
00000310: 203a 8e3e 4a1c 2e3d 2a77 84be 7cd2 a93e
00000320: 88e6 933e b689 993e 67b7 913e 4573 9c3e
00000330: ce23 c8be f4dc b53e f6ae c53e 44cb adbe
00000340: 84f3 d8be bdb7 a23d d6a5 96be c7f5 003e
00000350: 1369 b3be c2ca c7bd c35b 973e 1d2e c4be
00000360: 9b4a a8be 5956 b0be 62f0 a5be 98da b1be
00000370: a089 ee3e ba81 d5be 5303 e6be 733b d63e
00000380: 3e3c 983e 70f6 8abd bacd 5b3e e02c ccbd
00000390: 78d4 713e 7232 503d 01b0 5abe 3c8f 8d3e
000003a0: 13ab 743e 09de 7e3e 25e9 703e 068e 813e
000003b0: 19fb a8be 2393 983e 44be a53e 9f84 93be
000003c0: e2ad 8fbe 7615 c53d 34f5 62be 4d07 fd3d
000003d0: 1057 56be b467 02bb 0929 5e3e ef1c 8dbe
000003e0: 2041 79be e23b 80be ab54 75be 04ff 83be
000003f0: 1737 a13e d6bd 94be 373e a3be fabc 863e

exp_avg_sq f4 [16, 16]
124.60877 90.83125 10.855539 61.942593 422.1181 345.56235 13.928951 17.236704
11.979722 14.87244 12.4103155 13.762413 74.67878 35.45402 21.57841 285.46503
116.673874 85.264 9.876979 58.10491 396.68677 324.3864 12.834251 15.65292
10.847953 13.552367 11.267439 12.434157 69.515816 32.747086 19.503849 267.9775
112.70485 84.19642 9.56945 57.49473 385.9585 318.61395 12.219903 14.908443
10.447628 12.908392 10.795791 12.078648 66.812 31.268005 18.609959 260.15405
106.56129 78.686035 8.869174 53.634277 364.2078 299.15204 11.459415 14.010166
9.7222595 12.10842 10.0689945 11.229893 63.208813 29.562426 17.513617 245.73357
115.98211 81.008446 9.489403 54.894005 389.42126 312.26364 12.890716 15.614556
10.527262 13.526621 11.067689 11.849503 69.544136 32.97105 19.365232 264.21793
119.01191 85.75366 10.013664 58.347095 402.925 327.6565 13.141369 16.081478
11.052337 13.902444 11.508049 12.626217 71.13275 33.619514 20.056263 272.60065
120.208664 85.51685 10.0188875 58.093674 405.45428 327.7707 13.347746 16.225006
11.070629 14.051938 11.5794325 12.550439 71.94531 34.058975 20.161978 274.6387
111.500404 81.07844 9.264712 55.181213 379.00296 309.38324 12.123327 14.80806
10.195066 12.801089 10.600225 11.694531 66.38943 31.196085 18.479683 256.16306
126.45679 90.55562 10.88404 61.627697 426.3 346.16583 14.215262 17.518467
12.053189 15.126618 12.546411 13.744616 75.96607 36.162624 21.877802 288.74527
115.09521 85.52875 10.105322 58.44674 391.9389 323.2018 12.859959 15.701561
11.04491 13.6173115 11.427923 12.683478 68.628365 32.421246 19.547523 264.52734
121.19408 86.49311 10.339048 58.82834 408.3025 330.7184 13.646416 16.637655
11.421485 14.412675 11.927494 12.94851 72.70821 34.56712 20.676882 276.58154
109.94309 79.894775 9.01425 54.35178 374.15353 304.90085 11.899806 14.396971
9.892831 12.477292 10.308636 11.312512 65.292336 30.58665 17.903128 252.76631
124.47149 88.24706 10.524218 59.96058 418.62805 337.95038 14.038014 16.995712
11.618233 14.752039 12.172818 13.098831 74.66285 35.488068 21.049835 283.73294
127.28441 94.13786 11.25406 64.32213 432.73694 356.30746 14.272489 17.597742
12.356307 15.215905 12.769157 14.22478 76.11092 36.08357 21.993505 292.21243
108.007034 79.819824 9.041709 54.42256 369.2006 303.50674 11.612514 14.297244
9.931592 12.331115 10.26741 11.509778 64.13098 30.029646 17.924732 249.10338
113.19159 84.09285 9.572586 57.388386 386.95126 318.49988 12.331062 14.947208
10.445171 12.968279 10.823687 12.015225 67.120476 31.435022 18.595894 260.93958
00000000: b137 f942 9aa9 b542 4ab0 2d41 37c5 7742
00000010: 1e0f d343 fbc7 ac43 fcdc 5e41 c5e4 8941
00000020: f1ac 3f41 84f5 6d41 a790 4641 d832 5c41
00000030: 895b 9542 ebd0 0d42 95a0 ac41 86bb 8e43
00000040: 0659 e942 2b87 aa42 1b08 1e41 6e6b 6842
00000050: e857 c643 7631 a243 1859 4d41 5c72 7a41
00000060: 3791 2d41 7fd6 5841 6e47 3441 4ff2 4641
00000070: 1908 8b42 04fd 0242 e207 9c41 1ffd 8543
00000080: e268 e142 9164 a842 781c 1941 9bfa 6542
00000090: b0fa c043 964e 9f43 b984 4341 fc88 6e41
000000a0: 7c29 2741 c688 4e41 8fbb 2c41 2442 4141
000000b0: be9f 8542 e024 fa41 32e1 9441 b813 8243
000000c0: 611f d542 405f 9d42 23e8 0d41 8089 5642
000000d0: 991a b643 7693 9543 c459 3741 a429 6041
000000e0: 608e 1b41 17bc 4141 9a1a 2141 a4ad 3341
000000f0: d3d5 7c42 d97f ec41 e31b 8c41 cbbb 7543
00000100: d7f6 e742 5304 a242 98d4 1741 7693 5b42
00000110: ecb5 c243 bf21 9c43 5f40 4e41 39d5 7941
00000120: aa6f 2841 0a6d 5841 4115 3141 9097 3d41
00000130: 9916 8b42 5be2 0342 ffeb 9a41 e51b 8443
00000140: 1906 ee42 e081 ab42 f837 2041 6d63 6942
00000150: 6676 c943 08d4 a343 0c43 5241 dea6 8041
00000160: 5fd6 3041 6970 5e41 f820 3841 fc04 4a41
00000170: f843 8e42 627a 0642 3a73 a041 e24c 8843
00000180: d66a f042 a108 ab42 5d4d 2041 ec5f 6842
00000190: 26ba ca43 a6e2 a343 5e90 5541 d0cc 8141
000001a0: 4c21 3141 bdd4 6041 5b45 3941 99ce 4841
000001b0: 00e4 8f42 643c 0842 bb4b a141 c151 8943
000001c0: 3500 df42 2928 a242 433c 1441 90b9 5c42
000001d0: 6180 bd43 0eb1 9a43 26f9 4141 d0ed 6c41
000001e0: fe1e 2341 43d1 4c41 869a 2941 cd1c 3b41
000001f0: 63c7 8442 9591 f941 64d6 9341 df14 8043
00000200: e0e9 fc42 7a1c b542 0725 2e41 c382 7642
00000210: 6626 d543 3a15 ad43 b771 6341 d225 8c41
00000220: ddd9 4041 a106 7241 19be 4841 f2e9 5b41
00000230: a1ee 9742 87a6 1042 bd05 af41 655f 9043
00000240: bf30 e642 b80e ab42 66af 2141 76c9 6942
00000250: 2ef8 c343 d599 a143 64c2 4d41 9839 7b41
00000260: f4b7 3041 82e0 5941 c6d8 3641 87ef 4a41
00000270: b941 8942 5baf 0142 5461 9c41 8043 8443
00000280: 5e63 f242 79fc ac42 be6c 2541 3850 6b42
00000290: b826 cc43 f55b a543 b857 5a41 eb19 8541
000002a0: 67be 3641 519a 6641 04d7 3e41 192d 4f41
000002b0: 9b6a 9142 bb44 0a42 416a a541 704a 8a43
000002c0: dde2 db42 20ca 9f42 5e3a 1041 3968 5942
000002d0: a713 bb43 4f73 9843 9b65 3e41 fe59 6641
000002e0: 0949 1e41 fda2 4741 2cf0 2441 0d00 3541
000002f0: ad95 8242 76b1 f441 9b39 8f41 2dc4 7c43
00000300: 67f1 f842 7f7e b042 3263 2841 a2d7 6f42
00000310: 6450 d143 a6f9 a843 b59b 6041 38f7 8741
00000320: 48e4 3941 5a08 6c41 ddc3 4241 d094 5141
00000330: 6153 9542 c8f3 0d42 1066 a841 d1dd 8d43
00000340: 9e91 fe42 9646 bc42 a110 3441 eea4 8042
00000350: 545e d843 5b27 b243 1d5c 6441 2dc8 8c41
00000360: 6fb3 4541 5974 7341 784e 4c41 b398 6341
00000370: cb38 9842 9355 1042 b3f2 af41 311b 9243
00000380: 9a03 d842 c0a3 9f42 d7aa 1041 b4b0 5942
00000390: ad99 b843 ddc0 9743 dbcc 3941 83c1 6441
000003a0: cde7 1e41 3f4c 4541 5047 2441 0d28 3841
000003b0: 1043 8042 b73c f041 da65 8f41 771a 7943
000003c0: 1862 e242 8a2f a842 5029 1941 b58d 6542
000003d0: c379 c143 fc3f 9f43 084c 4541 c427 6f41
000003e0: 6c1f 2741 127e 4f41 d22d 2d41 5d3e 4041
000003f0: af3d 8642 ed7a fb41 64c4 9441 4478 8243

exp_avg f4 [16]
-1.2355595 0.8291284 -0.67349213 -0.6473575 0.7946986 -0.96228063 0.8602488 -0.7253275
-1.2617778 -0.82967556 -1.0340213 0.57449055 -0.8612994 1.1731094 -0.7653986 0.590838
00000000: d026 9ebf c241 543f fb69 2cbf 39b9 25bf
00000010: 5e71 4b3f 0658 76bf 4439 5c3f 10af 39bf
00000020: ef81 a1bf 9e65 54bf cf5a 84bf d011 133f
00000030: 1e7e 5cbf 7328 963f 2af1 43bf 2941 173f

exp_avg_sq f4 [16]
5788.8555 5431.772 5307.027 5004.8213 5291.6484 5509.137 5525.871 5193.8096
5824.656 5378.0757 5564.9507 5117.843 5692.957 5939.988 5079.645 5308.6973
00000000: d8e6 b445 2dbe a945 37d8 a545 9266 9c45
00000010: 305d a545 1929 ac45 f8ae ac45 7a4e a245
00000020: 3f05 b645 9b10 a845 9be7 ad45 beee 9f45
00000030: a8e7 b145 e79f b945 29bd 9e45 94e5 a545

exp_avg f4 [1, 16]
123.66582 -123.62981 123.61748 123.60561 -123.62221 123.63538 -123.6305 123.6132
123.665924 123.652626 123.65458 -123.60146 123.64447 -123.67091 123.61173 -123.61516
00000000: e654 f742 7642 f7c2 263c f742 1336 f742
00000010: 923e f7c2 5145 f742 d142 f7c2 f539 f742
00000020: f454 f742 254e f742 254f f742 f333 f7c2
00000030: f849 f742 8257 f7c2 3539 f742 f63a f7c2

exp_avg_sq f4 [1, 16]
100020.79 100036.64 100033.414 100077.52 100087.65 100056.85 100059.15 100077.25
100033.14 99976.44 100022.1 100078.56 100025.375 99983.4 100084.836 100026.19
00000000: 655a c347 5262 c347 b560 c347 c376 c347
00000010: d37b c347 6d6c c347 936d c347 a076 c347
00000020: 9260 c347 3844 c347 0d5b c347 4877 c347
00000030: b05c c347 b347 c347 6b7a c347 185d c347
