Source/Baseline/Deep_learning_method/model_train/model-lstm-16-1347.pt (torch_old, 87311 bytes, 15 tensors)

fc_tactile.0.weight f4 [16, 2]
00000000: a2cf 663e 3533 113f a8c9 32be 7819 7e3f
00000010: 8da1 ca3e e9fd fd3e be55 b7bd a70d 80bf
00000020: ca35 0fbe b07a 7c3e 409e e63e f394 2ebf
00000030: 08f7 6cbb 3c23 893e 24fa 16be 3c9a 863f
00000040: 6151 37bf 6f01 37bf 15c7 283f 9013 b2bf
00000050: c6b2 20bc ae2a a43f cc0d fdbe 8eb3 a8be
00000060: 5198 93be fbd0 d3be 34bb 1d3d c047 c83f
00000070: ae17 01bf f622 79be e025 0c3e ed9f d7be
0.22540143 0.5671876 -0.17459738 0.9925761 0.39576378 0.4960778 -0.08951901 -1.0004166
-0.13985363 0.24656177 0.4504261 -0.6819603 -0.0036157984 0.26784694 -0.14743859 1.0515819
-0.7160855 -0.7148656 0.65928775 -1.391222 -0.009808248 1.2825525 -0.4942459 -0.3294949
-0.28827146 -0.41370377 0.03850861 1.5646896 -0.5042676 -0.24329743 0.13686323 -0.421142

fc_tactile.0.bias f4 [16]
00000000: 1518 a4bc 3a30 fc3d 5e74 7b3e a92e 493e
00000010: 6314 89bc fc78 033d 5dfe b3bc 8933 cd3d
00000020: 316c 10bf e2d2 2fbf 5ffe 24bd b19c 2dbf
00000030: 0d37 07bf 1c5b b5bc d003 30bf b885 adbe
-0.020031014 0.12313886 0.2455611 0.19646706 -0.016733354 0.0320978 -0.021971876 0.10019595
-0.56415087 -0.68681157 -0.04028165 -0.6781722 -0.52818376 -0.02213817 -0.6875582 -0.33891082

lstm_actuator.weight_ih_l0 f4 [128, 32]
00000000: a1ae cd3f 64c2 033e 442a 2cbf 4b33 c3bd
00000010: 3353 84bf f44b 7abe 914e bc3f 145f 84be
00000020: cff2 a7be 6033 90bd 8e22 8abf 2d11 83bd
00000030: 69b8 773f 5f2d bb3d 3e84 e6bd 5fae f13d
00000040: 728a 6fbf f7c2 6cbe 3e31 783f 2073 323c
00000050: dbfc 86be 8110 ee3d a64b afbf c19b a13d
00000060: 77f8 913f 45b4 f63d a003 3abf 5ef8 743b
00000070: e444 6fbf 6955 d43d 90e5 8d3f c1c1 b13d
00000080: bffa 343e aaf0 a3be 2685 d9be fce2 9e3e
00000090: 9ebc 79be 5336 0ebf b8bb fcbe 4442 663e
000000a0: c43f 35bf dd3c 9f3e e0d7 6bbe 1546 853c
000000b0: 7572 ae3d 64e2 a03e a539 95be d211 0d3e
000000c0: ffd9 38be 9117 e73e 0e4c a13e 8ffc a33d
000000d0: ae28 b3be 19e4 c83c 5b23 a0bb 7b47 39bf
000000e0: 042c 263f fbd7 0b3e 60ca 89be 83b7 883e
000000f0: 7e27 30be 742c 36be 7fd8 a93d 4cc6 713d
00000100: 923e 91bf 016c 40be 7703 1cbe fefc c2be
00000110: ed78 98be 9141 133e 912c 2dbf 6ee8 17be
00000120: bdb7 88bf ebd2 0ebf b998 cfbe 5e71 f83d
00000130: 9f39 56bf 17e9 b63d f34d c3be 1dfd 63bf
00000140: 5d02 cabe 3966 fabd e5d7 81bf 9893 763b
00000150: 0ed5 b2be 8e30 17bf e480 bfbe 4e24 38be
00000160: ae42 22bf d359 eabd 0ba2 49bf ed45 8abf
00000170: 3323 ffbe b1ac 32be 4efc 72bf cb76 92bd
00000180: 587e 6c3e fdc1 85be a4fe 1a3f 3cc1 2a3e
00000190: d70b 083e 42aa 9abe 8214 8fbe f1df ddbd
000001a0: f41d 243f 04ce 883e 3c7c 4bbe b6c8 36bf
000001b0: 566b 92be b8a1 583e f804 723f a8b6 3e3e
000001c0: 14cf 2bbc f350 5dbf b3bc f7bd 0432 a8bd
000001d0: e491 853f e5da db3c aead 2fbd 9403 32bf
000001e0: 711c 213e a568 fcbd 6590 773f b352 503e
000001f0: f68f 33be 6194 52bf d70a 7fbe d5e2 9abd
00000200: 305f 93be 08f8 c8be a46a 3cbf fe79 723c
00000210: 3b09 98be 7d2e 203f 82d1 d23e 04f9 2a3e
00000220: bb91 23bf 5234 babd f8f8 c6be d0a2 a13e
00000230: af88 8f3e 49f4 863e 1296 31bf 16d8 39be
00000240: 401f 27be bb95 a13f b5d1 923e 8739 933e
00000250: c1d7 35bf d71e 22be 3216 fabe 4d65 523f
00000260: 4766 6a3f de2e 743d 370f 43bf 0528 3fbe
00000270: 8ad1 95be 8968 af3f 5c91 b13e d30e da3c
00000280: 375b 093f e955 d6bd 6419 2d3f d464 6e3e
00000290: f014 923c 06ce 94bf b2cd 59bf d328 9b3e
000002a0: 8f39 ea3e cfc9 fbbb cebf 4d3e 43ae 883e
000002b0: d665 9cbf 9b6b 04bd d603 0f3f f08c 463d
000002c0: 32fe d93d 1016 08bf c5db 5bbf 3402 373e
000002d0: 375c 0b3f c080 383e 62fe 433e 4d45 1ebf
000002e0: cff7 52be bc41 b93c d298 393f a041 463e
000002f0: ef88 5b3e 78cf 8b3e 93d7 39bf 15f7 0d3e
00000300: 739a 85be c906 bb3d 77e5 c73e be7c c93c
00000310: adc6 3b3f 0833 98bd 3108 8dbe ae24 91be
00000320: 6d26 eb3e 1d74 f53d a3a3 b03e e71c 2e3d
00000330: 4d78 e9bb 4ef2 99be b72f 8e3e 6478 1a3e
00000340: 250c df3c 3a48 3a3d 0046 c53d 33f5 9abb
00000350: 5e76 db3c b16e e7bd 3a05 f2be ac46 533e
00000360: 6808 dd3c 0205 9a3d fac9 9d3e 50a4 ac3d
00000370: 2c55 063e fe13 a93d fb71 ed3d 121a 833e
00000380: 96af be3e 4438 253e 733a b8be 0e1d 983e
00000390: 82f3 aebe 8add 8fbe 6217 53be 065a b03e
000003a0: 53f4 edbe 1872 42be 46b9 02bf 9bf5 623f
000003b0: 5676 893f f1ef a43d 1d8d 34be a6f7 99be
000003c0: 92ec fbbe 4a01 943f 9efd b83e 6301 b23d
000003d0: e6d7 93be 40ef 02bf 0015 c4be 39b1 b03e
000003e0: 720b 4f3f 2980 01bd 03eb 89be 4b53 06bf
000003f0: 1eea f7be dc26 183f ac76 1a3f f9a3 8fbd
1.6068918 0.12867123 -0.6725199 -0.09531268 -1.033789 -0.24443036 1.4711477 -0.2585379
-0.32802436 -0.07041049 -1.0791795 -0.063997604 0.9676576 0.09139513 -0.11255692 0.11800837
-0.93570626 -0.23121248 0.9695014 0.010891706 -0.26364788 0.116242416 -1.3694961 0.07891036
1.140395 0.120461024 -0.7266178 0.0037379484 -0.93464494 0.10367853 1.1085682 0.08679534
0.17673777 -0.3201955 -0.42484397 0.3103255 -0.24388358 -0.5555164 -0.49361968 0.22486216
-0.70800424 0.31101122 -0.23031569 0.01626877 0.08517925 0.31422722 -0.29145542 0.13776329
-0.18051909 0.45135167 0.31503338 0.08007156 -0.34991974 0.024522828 -0.004887027 -0.72374696
0.6491091 0.13656609 -0.26912212 0.26702508 -0.17202565 -0.17790395 0.082932465 0.059027
-1.134722 -0.187912 -0.15235697 -0.38083643 -0.2977976 0.1438048 -0.6764613 -0.14834759
-1.0681072 -0.55790585 -0.40546206 0.12130998 -0.8368167 0.08931177 -0.38145408 -0.89058095
-0.39454928 -0.12226529 -1.0144011 0.0037624594 -0.34928173 -0.59058464 -0.37403023 -0.17982599
-0.63382995 -0.11442914 -0.7876288 -1.080259 -0.49831542 -0.17448689 -0.94916236 -0.07151564
0.23095071 -0.26124564 0.605448 0.16675276 0.13285767 -0.3020802 -0.27945334 -0.10833729
0.64108205 0.26719677 -0.1987161 -0.7140001 -0.28597516 0.21155441 0.9453883 0.18624365
-0.010486383 -0.86451644 -0.120965384 -0.08212665 1.0435147 0.026837775 -0.042890243 -0.6953671
0.15733506 -0.12324647 0.96704704 0.20344047 -0.17535385 -0.8225766 -0.24906479 -0.07562796
-0.2878356 -0.39251733 -0.7360022 0.014799593 -0.29694542 0.62570935 0.41175467 0.16696554
-0.6389424 -0.090920106 -0.38861823 0.3156953 0.2803397 0.2635825 -0.69369614 -0.18148836
-0.16320515 1.2623819 0.2867562 0.28754827 -0.7103234 -0.15832077 -0.4884506 0.8218582
0.9156231 0.05961501 -0.7619509 -0.1866761 -0.29261428 1.3703777 0.34681213 0.026618397
0.5365481 -0.10465605 0.6761687 0.2328065 0.01783225 -1.1625373 -0.8507949 0.30304584
0.4574704 -0.0076839696 0.20092699 0.2669545 -1.2218578 -0.032329183 0.5586523 0.048474252
0.10644187 -0.53158665 -0.85882217 0.17871934 0.54437584 0.18017864 0.19140008 -0.61824495
-0.20602344 0.022614352 0.7249881 0.19360971 0.21438955 0.27306724 -0.72594565 0.13863786
-0.26094398 0.091321535 0.39042255 0.024595615 0.7335003 -0.074316084 -0.27545312 -0.28348297
0.45927754 0.119850375 0.34499845 0.042508032 -0.0071249367 -0.30067676 0.2777078 0.15084988
0.02722747 0.045479037 0.09632492 -0.004728937 0.02678984 -0.113004096 -0.47269613 0.20632428
0.026981547 0.075204864 0.30818158 0.084297776 0.13118428 0.08255766 0.11594006 0.25605828
0.37243336 0.16134745 -0.35982093 0.29709667 -0.34170157 -0.28098708 -0.20614389 0.34443682
-0.46475467 -0.18988836 -0.51063955 0.88656014 1.0739238 0.08053578 -0.17631955 -0.30071753
-0.49203926 1.1562893 0.36130995 0.08691671 -0.28875655 -0.51146317 -0.38297272 0.3451021
0.8087684 -0.031616364 -0.26937112 -0.52470845 -0.48420805 0.59434295 0.6033733 -0.07013697

lstm_actuator.weight_hh_l0 f4 [128, 32]
00000000: 301d 2a3e 2d2b cbbd 0cbf 47be 389f 84bd
00000010: df1f 31bd a159 27be 6bca 7e3e 6e15 3cbb
00000020: 674a 133f a64f 97be aeca 0c3e 14bc 29bf
00000030: d552 58bf 1509 1cbe 9a29 a23d 5153 a93d
00000040: 93c7 65bd 1809 0dbe b5b7 993f 09b4 763d
00000050: 7727 a03d e1aa b4be b4e0 b5be febf 3d3e
00000060: 0135 9cbe aef1 bdbe b15c 163d 277c 3bbe
00000070: 8bd3 173e 5a19 c0bd d6f9 cabe bbba 8bbe
00000080: a335 4dbe 6a1b a53d a596 a33e cf56 b3bd
00000090: 1c7e 9dbe 0476 533e 65cd bcbd 9c62 3cbf
000000a0: a385 2e3f 8a5b b5be 9589 85be 88d7 49be
000000b0: cdbe 423e a04a 473e a87a 2abd 593e 52bf
000000c0: 70ae 25bc d804 89be 4c8f eabe e655 7ebe
000000d0: ea0d dfbb 45e7 4cbf 425f b6bd a781 283e
000000e0: 8789 243e e7cf 8ebe 3e7c f13b 459e 5a3e
000000f0: 0aed d9be 86f5 26bf 0f2c f8bd 1312 263f
00000100: 3d03 24be e5c2 63be 4bdd 6d3e c434 fabe
00000110: 511f 52be 6903 133f 3a73 933d 1cfc 45be
00000120: 4a60 343f 7ceb debe 6146 6cbe 0c75 83be
00000130: 45d9 2c3f 0f8b 8b3f 0f28 83bf 4c99 9d3d
00000140: 549b 413d cf85 98be 64c4 4cbf 0991 0cbd
00000150: c05a ec3e 3651 dcbe c89e 013d 0b7d 283e
00000160: 3202 ddbd 28d9 483e 5536 073e 4c23 ea3d
00000170: 5045 983e 7388 1bbf caf3 44be 5934 a83c
00000180: 83de 00be 83b4 ad3d bf4f 04bd 467c 43be
00000190: c53e e33c 892d 24bf 1e83 f4bd 1357 433c
000001a0: 5c38 02bd 7d67 773e e3a0 173f 617e 20be
000001b0: f7e7 aa3d d723 ecbe 0618 43be 7594 033d
000001c0: 093d 073d 6e52 85be ef1b 79bd 4a71 5fbe
000001d0: 2919 00bf 5b7b 79bd 843c a93d f4f7 dc3e
000001e0: c3aa b4be f458 8dbe 9c46 c03e 3ff4 b43e
000001f0: 24a7 9d3c f981 c03e 3718 9ebe 36f4 98be
00000200: 4bca 39bd 079f b8bd 0977 7ebe 73ac 46be
00000210: 7213 13be 3e79 113f c6d7 433d 71f7 1ebe
00000220: 78c8 173f 5e77 a2be b511 1fbf 523b 0bbe
00000230: 4057 f13e 3e77 09be f342 a3bd c041 bb3c
00000240: acf3 c83d bba6 99bd 7956 63be 83f6 4fbe
00000250: 021f 8a3e 0620 9cbe 29fb 5dbd 83fe 18bf
00000260: 5d19 c53e 383a e83e 31ae 773e bb7b c4be
00000270: 085d 65bd af0d 2fbf b51f f33e 69b0 243f
00000280: e07f 093e 4faa 9a3e 4681 80be 38d2 9abe
00000290: 0590 303d 06d9 16bf c485 32be 7a97 95bc
000002a0: 8cfd 82be 5533 cc3e 6cca afbe 49e7 9e3e
000002b0: fd71 febe baf7 a6be ca9b ed3e 12d9 023c
000002c0: 0b43 b7bd a59f cebe 6cae 89be f30a 7abe
000002d0: 6e66 f23e 3ee4 093e 64be 243e 7443 c83e
000002e0: a465 20bf a3b1 1abf 65c5 c7be 2ba0 8b3c
000002f0: 3b63 b8bd 7866 e73e c95b 0b3f b0d3 e5be
00000300: 79d2 6abe 9e9f d93d 5f6b 75bc db44 5dbb
00000310: 429f ea3d e849 6f3e 72b2 41be d854 55be
00000320: f301 a63d 7401 a2bd 1f8f a33b 5248 a23e
00000330: 8cda b53f a308 853e 1d50 76be 4523 37be
00000340: 827a d73e 0986 3bbe b64d 00be ce3f 75bb
00000350: 3958 853d 31c1 d63d 4690 543e de03 2bbf
00000360: 4a4f 3a3f a874 013f 8f1f 0a3e 4ec6 9d3e
00000370: b034 a5be 38e0 76bd fda5 c83e c7cd 163f
00000380: c82f d8be 1607 37bd 6343 5ebe 8a03 3bbe
00000390: 46cc 6bbe cef1 c83e 917f b9bc 2f08 a0be
000003a0: 3925 cb3e 4547 7cbe a04e 02be 7e08 f4be
000003b0: a2c1 343e bd1d 193f 9315 8abe 9db0 00bf
000003c0: 4e57 b6bd 401c 923e f835 64be 1286 953e
000003d0: 77a6 d6bd 4e11 0dbf c0dc ddbd 26d0 18be
000003e0: 7761 c13e 4e75 f5bb d9b0 e9be aa67 a7be
000003f0: f177 afbe 0f2c d5be a61f d03e 26ad 0e3f
0.16612697 -0.099203445 -0.19506472 -0.06475681 -0.043243285 -0.16342784 0.24881904 -0.0028699297
0.57535404 -0.29552954 0.13749191 -0.6630261 -0.8450139 -0.1523784 0.07918091 0.082678445
-0.056098532 -0.13773 1.2009188 0.06023029 0.07820027 -0.3528662 -0.35522997 0.1853027
-0.3050919 -0.3709845 0.03670949 -0.18309079 0.14826791 -0.093798354 -0.39643735 -0.27290902
-0.20039992 0.080618694 0.3195087 -0.08756792 -0.30760276 0.20650488 -0.092188634 -0.73587966
0.68172663 -0.354214 -0.2608153 -0.19711125 0.19018097 0.19462061 -0.04162088 -0.82126385
-0.01011239 -0.26761508 -0.45812452 -0.24837455 -0.0068070786 -0.8004039 -0.08904888 0.16455708
0.16068088 -0.27892992 0.007369547 0.21349438 -0.4256366 -0.6521839 -0.121177785 0.6487133
-0.1601686 -0.22242315 0.23228948 -0.48868382 -0.20519759 0.5742708 0.07199712 -0.19334453
0.70459425 -0.43539035 -0.23073722 -0.25675237 0.67519027 1.0901812 -1.02466 0.07695255
0.047267273 -0.29789588 -0.7998717 -0.034318004 0.46162987 -0.4303071 0.031645566 0.1645395
-0.10791434 0.19614089 0.1320432 0.114325136 0.2974038 -0.6075508 -0.19233623 0.020532774
-0.12584881 0.084816955 -0.032302614 -0.19090375 0.027739892 -0.6413198 -0.11939071 0.011922616
-0.03179203 0.24160571 0.5922987 -0.1567321 0.08345025 -0.46121094 -0.19052133 0.032124
0.033017192 -0.2603945 -0.060817655 -0.2182056 -0.5003839 -0.060908657 0.082634956 0.43157923
-0.3528653 -0.27606928 0.3755387 0.35342595 0.019244738 0.3759916 -0.3087785 -0.29873818
-0.045358937 -0.09014707 -0.24850096 -0.19401722 -0.14362887 0.56825626 0.0478132 -0.15524079
0.59290266 -0.31731695 -0.62136394 -0.13596848 0.4713688 -0.13424394 -0.07971754 0.0228585
0.09812102 -0.075025044 -0.22200955 -0.2030888 0.26976782 -0.30493182 -0.054194603 -0.59763354
0.38495913 0.45356917 0.24187542 -0.3837565 -0.055996925 -0.68380255 0.47485128 0.6433168
0.13427687 0.3020806 -0.25098628 -0.3023851 0.043106098 -0.589249 -0.1743384 -0.018260706
-0.25584066 0.39882913 -0.34334123 0.31035832 -0.4969634 -0.32610875 0.4640792 0.007986324
-0.08948334 -0.40356174 -0.26890886 -0.2441824 0.47343773 0.13465974 0.16088253 0.39113963
-0.6265509 -0.604273 -0.39017788 0.017044147 -0.09003302 0.45195365 0.5443693 -0.44888067
-0.22931851 0.10626148 -0.014979213 -0.0033762965 0.11456157 0.23368037 -0.18915728 -0.20833147
0.081058405 -0.079104334 0.0049914266 0.316958 1.420732 0.25983152 -0.24053998 -0.17884548
0.42085654 -0.18312849 -0.12529644 -0.0037422064 0.06510968 0.10486067 0.20758161 -0.66802776
0.72777236 0.5056863 0.13488601 0.30815357 -0.3226676 -0.060272425 0.3918914 0.5890774
-0.42223954 -0.044684492 -0.21705393 -0.18263069 -0.23027143 0.39246982 -0.022643836 -0.31256244
0.39676836 -0.24636562 -0.12725306 -0.4766273 0.1765199 0.59811 -0.26969585 -0.5026949
-0.08903371 0.28537178 -0.22286212 0.2920385 -0.104809694 -0.5510453 -0.1083312 -0.14923152
0.37769672 -0.0074907904 -0.45642737 -0.32696277 -0.34271196 -0.41635177 0.40649146 0.55732954

lstm_actuator.bias_ih_l0 f4 [128]
00000000: 04d5 ec3d fe56 97be ad04 8fbe 1f7d 913e
00000010: 19cc b2be ef41 803e 7c2a 253e dfee 053c
00000020: 3a0c 863e 54de 823e e7ff 503d eff3 c93d
00000030: 4b2f fc3d 23bf 3bbd e8e0 553d b51f c2be
00000040: f439 4d3d a63d 42be 1803 713c 79db db3e
00000050: b7b3 2e3d 3c37 a0bd 7f09 383e 4d29 ee3d
00000060: ac49 463e aec3 a23e 8ac6 82be 9ed6 393e
00000070: d9dd a93e 83c6 8b3e 5a95 403d b3ad 623e
00000080: 08d3 eabd 9a24 fd3d 2be7 9b3d 7a9a 263e
00000090: fe4a 5abe e44b d73e a732 bebe 3562 03be
000000a0: e5f2 c83e 1113 693e eafc 8c3e 49e7 b7bd
000000b0: f17b f1bb 9bc4 ef3d 961c abbd 9a94 f2be
000000c0: cdac 363d 1712 343e 3c0f b4bd 34ca 5fbc
000000d0: e9b4 c8bc cef1 753d 7971 92bc 5d83 a13e
000000e0: 4787 2d3e 72c4 e5bd 4931 f2bd 0886 8cbe
000000f0: 526c bebd aec5 d33e a4d0 f3bd 11a1 d8bd
00000100: d49e 8e3e 9284 fabd c1c4 8cbe 3277 7f3d
00000110: 6e28 c1bd bed2 8dbb 17c1 873d e04c 5f3e
00000120: 6aaf 5fbe e1de 30be ce2d 97bd ec5d c73e
00000130: e100 8abe fc6f 9cbe b7f4 793e aa6f 973e
00000140: 90d4 df3e 49c0 83bc 1692 d2be 5454 a2be
00000150: 57b3 bd3d aaa7 3fbe aa24 353e 4ce6 893e
00000160: 52d9 cdbe f1b5 9cbe 112b c53e d003 5d3e
00000170: e71d c2bd 0911 c03e 6a29 863e 7546 b5be
00000180: 4b2e 0abe 91b7 b2bd 91c3 1cbe dab0 27be
00000190: ba73 f7be b91e 793e 16c4 e53d e94b a33d
000001a0: b1d3 3b3e 7db1 823e e582 833d efc5 923e
000001b0: f92a bcbc e4b6 543e 1ef6 9c3e 2726 f3bd
000001c0: b534 9bbe 1140 273e 6655 35bc 8aef 9fbd
000001d0: a33d 96bd 0614 3f3e 704a d03d 4189 803d
000001e0: 9d7a 133e 5003 4dbd 0dae b3be 27da 05be
000001f0: 12df a93d 4355 373e 9f10 4ebe f68e 64be
0.11564067 -0.29558557 -0.27933255 0.28415772 -0.3492134 0.25050303 0.16129488 0.008174627
0.26181203 0.25560248 0.051025297 0.0986098 0.12313708 -0.04583658 0.05221644 -0.37914816
0.050104097 -0.1896883 0.01471021 0.42940882 0.04265186 -0.07823035 0.17972372 0.11628971
0.19364041 0.31789917 -0.25542098 0.18148276 0.3317707 0.2729989 0.047017433 0.22136573
-0.11466032 0.12360497 0.07612451 0.16269866 -0.2131767 0.42050087 -0.3714802 -0.12830432
0.39247814 0.2276118 0.27536708 -0.08979661 -0.0073695113 0.117074214 -0.08355062 -0.47379
0.04459839 0.17585026 -0.08791968 -0.013659049 -0.024500327 0.060045056 -0.017876374 0.31545535
0.16946135 -0.112191096 -0.11825807 -0.27446008 -0.09298004 0.41361755 -0.119050294 -0.10577596
0.2785555 -0.12232317 -0.2749386 0.062369533 -0.094315395 -0.004328101 0.06628626 0.21806669
-0.21844259 -0.17272522 -0.073817834 0.38938844 -0.26953796 -0.30554187 0.24409758 0.2957738
0.4371686 -0.0160829 -0.4112708 -0.31704962 0.09262722 -0.18716303 0.17689767 0.26933515
-0.40204865 -0.3060756 0.3850942 0.21583486 -0.0947836 0.37512997 0.2620347 -0.35405317
-0.13494222 -0.08726419 -0.15308978 -0.16376057 -0.4833048 0.24328126 0.11219041 0.07973463
0.18342473 0.25526038 0.064214505 0.28666636 -0.02296971 0.20772892 0.30656523 -0.11872511
-0.3031365 0.16333033 -0.011067724 -0.0780936 -0.07335975 0.18659982 0.10170448 0.06276179
0.14402242 -0.050051987 -0.35093728 -0.130715 0.082945004 0.17903619 -0.20123528 -0.2232016

lstm_actuator.bias_hh_l0 f4 [128]
00000000: 7d74 063d 8928 8bbe 42d1 60be 8c37 533d
00000010: 681d 02bf 0380 783e e4dc 653d 6018 393d
00000020: 2b85 d43e c6f6 243e 8b6a ccbd 8307 b43e
00000030: b9bf be3e 3aaa 00be d624 8d3e 481f febe
00000040: f00b ff3d 1e9f 13be 4e1d 723d decb e23e
00000050: df59 dbbd b436 98bc a5f8 003d 0c2c b23c
00000060: 9c36 323e 89bb d03b bcee 34be dbf3 d23d
00000070: 7e4a 193e a3f0 fa3e f525 3f3d 4de6 393e
00000080: 4510 ff3d d9f2 163e c1e7 b8bb a14c c93e
00000090: 3a39 69be cdf5 f43e 2d97 b1be a7cb e0bd
000000a0: 6d40 fe3e f063 0ebc 0ef9 3c3c 8b37 5b3d
000000b0: ae80 2fbe 0407 943d 70d5 8ebe c152 c9be
000000c0: 3fbf 7ebe 782c 803e 76ae adbd 84b2 543e
000000d0: b3da ccbd 89a6 40be c3a4 193d 96fc 8c3d
000000e0: bb89 eb3d 0960 15bd 1c82 d3be 53ed d1bc
000000f0: 7cc2 51ba 072c af3e c5cc edbd 2651 373c
00000100: 2aaf ae3a 1cc3 2dbe cc91 81be bac4 e83d
00000110: b775 5d3c bf39 5f3e 3b41 8c3e 02a2 cd3b
00000120: dbfc 1fbe 5bbf 56be 7d9c a7be 11d7 5c3e
00000130: 5bad 84bc 384f 32be da2a a33e 1362 663d
00000140: 5f2d e53e 4c31 133e e1ce babe 3111 1ebe
00000150: 0c27 6139 8511 4cbe abd7 2f3e 3820 b93e
00000160: 5462 d5bd 7a5f ffbd 5498 993e 97b8 d53d
00000170: 52da 9ebe ce62 c63e a022 643e b738 adbe
00000180: 31fe b7be 1e8a af3d 7c73 de3b 80b4 4abe
00000190: 30ec 04bf fc24 c13e 5246 413e 7ca8 743e
000001a0: e8ed d93e d0e3 e63e 6d6d dfbd 6f6e 9d3e
000001b0: 980e 973c d81b 5e3e 50f7 383e 4a83 d5bd
000001c0: e7a8 a4be 702c c23e cf36 c7bd 6b5f 82be
000001d0: 313a 9d3d ce5e c23e 3e53 533c 9d42 903e
000001e0: 050e f83e 483d 37bd 3dcd b0be 741d 65be
000001f0: 5159 4f3d 8aeb 523e 64b5 e0bd d44a bfbd
0.032825936 -0.27179363 -0.21954826 0.051566646 -0.5082612 0.24267583 0.05611886 0.04518926
0.4150785 0.16109762 -0.09981259 0.3516198 0.37255648 -0.12564936 0.27567166 -0.4963324
0.12453449 -0.14416167 0.05910998 0.44296163 -0.10710501 -0.018580772 0.031487126 0.021749519
0.17403644 0.006370012 -0.17669195 0.10300418 0.14969823 0.49011716 0.046667058 0.18154259
0.12454275 0.14741077 -0.0056428616 0.39316276 -0.22775736 0.4784378 -0.3468565 -0.109763436
0.49658528 -0.008690819 0.011533989 0.053519767 -0.17138931 0.072279006 -0.27897215 -0.3932095
-0.24877642 0.25033927 -0.084805414 0.20771223 -0.10002651 -0.18813528 0.037510645 0.068841144
0.115008794 -0.03646854 -0.41310203 -0.02562586 -0.0008001698 0.34213278 -0.11611322 0.011188781
0.001332735 -0.1696896 -0.25306547 0.113656476 0.013516835 0.21799372 0.27393517 0.0062754164
-0.156238 -0.20971434 -0.3273658 0.21566416 -0.016195944 -0.17413032 0.3186863 0.056245875
0.44761178 0.14374274 -0.3648596 -0.15436246 0.00021472218 -0.19928558 0.17172115 0.36157393
-0.10419145 -0.124693826 0.2999903 0.10435598 -0.3102594 0.38747257 0.22278833 -0.33832332
-0.3593612 0.08571266 0.006788669 -0.19795418 -0.51922894 0.3772353 0.18874481 0.23892397
0.4256432 0.45095682 -0.10909543 0.30748317 0.018439576 0.21690309 0.18063092 -0.10425432
-0.32160112 0.37924528 -0.09727251 -0.25463423 0.07677115 0.37962955 0.012898264 0.28175822
0.48448196 -0.044736177 -0.34531584 -0.22374517 0.05062229 0.20597664 -0.109720975 -0.09340444

lstm_actuator.weight_ih_l1 f4 [128, 32]
00000000: bd07 463e 3dc7 f43e 17d3 0fbe 362e 48bc
00000010: 144b 313e cb19 af3d 3e83 b7be fe4c 41bc
00000020: ce65 0c3f 0ec0 0f3e 0237 193e 0ac8 e8be
00000030: a8fb 8b3e 3cbd ccbd abda acbe cf2d edbd
00000040: fb08 79be a3c3 2e3f 7cf4 cabd dc7e 873e
00000050: d61b 5ebe 06f1 7d3d e4be 1fbf e490 283e
00000060: f788 5e3d dcd4 603d cbfc c1bd 1280 d2be
00000070: 3153 14bd 8119 03bf 25e4 a1be 60cb 39be
00000080: dfcd 9dbe 9fd4 48be 98dd 64be 877d 2bbe
00000090: 608c 8bbe 7cbf 1b3f 483d c2bd 7a4c 5e3e
000000a0: 4b42 ab3e e48b a4be fc7a f13d 5f46 dabe
000000b0: 0690 2f3f ac45 01be d3f4 f6be 1e1f b63d
000000c0: 6489 c0bb 8fb8 213f d77a a43e 61e4 ae3e
000000d0: ccc5 b2be 4ff3 da3d cc5c 92be f0b6 313e
000000e0: ad6d 8a3e 5abc 9c3e 210e 2dbe 5a4c 53be
000000f0: e06b b13e c07a 41bd f6e4 453f 9ad1 b2be
00000100: 2db4 75be 4497 713e b164 3fbe 4bbd 2fbf
00000110: ee9d 6e3e 2895 56be 1945 4c3d 7238 90be
00000120: 4442 183f f834 ab3e 2273 b4bd 314f 94bc
00000130: 2802 f0be b961 0d3f ebda a63e 95f2 183e
00000140: aa37 823c 9f46 97be 1e35 843d b59a 273e
00000150: f23a 933d d84c 7abe e664 4fbe 5c30 b6bd
00000160: 2267 2f3e 0c4f 8dbe e1b2 abbd 2ab9 9ebd
00000170: 7dfe be3c 246a 8fbe 6912 883d 8e86 8abe
00000180: 0f44 b5be 6bd9 14bc 5976 78be f2db 753e
00000190: 4e14 983d e94d 85bd 75bf 04be af30 f33c
000001a0: 35ec cc3d 7066 d5bc 5577 8bbd 1a81 82b9
000001b0: 536a 2f3f 205e 8a3e 96b6 dabd fdf6 fcbd
000001c0: 36b6 9bbd 7e86 06bd 952b 6d3e f0a6 9abc
000001d0: c959 98be fb2d d43d 185a 0f3e e881 f93c
000001e0: 54d7 493d 2f61 8c3a f5d8 b3be a26a 4f3e
000001f0: 79c7 86be 9e77 163d 3521 78bf 4f7d 553e
00000200: ce80 e03d 7d28 53be 1e6f e2bd 7a14 0f3e
00000210: d3b0 abbe 19f2 04be 797f b13c 44d0 16bf
00000220: c20e c33e 5fdb 97bd ce38 813e 0171 bbbe
00000230: 7150 ffbc e376 a73d d7a0 b9bd aefd b53d
00000240: 1f72 adbd 41c7 7d3e afd7 40be db05 a73e
00000250: 0b5b 9abe 50e9 6dbe cc9c 513d 2cc6 2a3e
00000260: 198f 5a3e 4d97 a33e a109 f8bd e10f 8c3e
00000270: 1f11 033e c587 1d3e 5c69 603e 3095 f33b
00000280: f2de a5be f83d 43bd c7dd 123e c57b 5ebe
00000290: efa5 05bc a333 bd3e 5c50 05be 242e 91be
000002a0: 7440 3a3f 94cf 3bbf 4eda 5ebd 00d6 01bf
000002b0: c40a 413f 2843 013f b72a 77bf fe46 3bbe
000002c0: c3c6 c53d 2aeb c5bd 3214 87be 86c8 44be
000002d0: 3811 ca3e ee82 22be a2d0 e1bd e332 17be
000002e0: 346e c63e 5722 ee3d f9f4 613d f69c 52bd
000002f0: 7043 f63d a4cb 1dbf 89d1 143e 77b5 333f
00000300: e225 fa3c 3c61 9dbe 5298 c4be 3413 373d
00000310: 7e7c 9bbe 5ecc 3bbe e21a e83d 12a5 c1be
00000320: 8bb9 c63c 9750 163e 3144 643e dfa1 69bd
00000330: 5f5c 5fbd c1c8 d0bd f027 653c 3790 66bd
00000340: 60b7 2abf e709 92be 85ba c23e ef54 18bd
00000350: 3de4 f6bc 46aa 043e c260 5cbe 9553 ce3e
00000360: f83e c03e a60a 8abd b370 f3ba 4129 383d
00000370: 8a9f 2ebe a594 5ebc 0930 cdbd 87fd 24bd
00000380: 8060 a0be f871 98be dc68 c53e 8a9a f93c
00000390: 586f 8abe e29a 903e d963 313e 34fb 30b8
000003a0: 8210 703e 299b dcbe b198 82be ffe9 11bf
000003b0: 867b 463e c434 babd 4821 4bbf 4809 ab3e
000003c0: 15c8 5e3e 223e ec3e 8fcd cabe 9ec4 29be
000003d0: 7b49 b5bc 1f6f 50bd b7eb d1bc 610c 59be
000003e0: ea5b 90be 9497 563e a7c6 e33d 712e 073e
000003f0: e8fd 41bd a330 70be cc5d 85be e261 3bbb
0.1933889 0.47808257 -0.14045368 -0.012218049 0.17313796 0.085498415 -0.35842317 -0.0117981415
0.5484284 0.14038107 0.1496239 -0.45465118 0.27340436 -0.09997031 -0.3376058 -0.11581003
-0.24319832 0.6826727 -0.09909913 0.26463974 -0.21690306 0.061997436 -0.6240065 0.16461521
0.05432984 0.0548905 -0.094720446 -0.41113335 -0.03621215 -0.5121079 -0.31619373 -0.18143988
-0.3082113 -0.19612359 -0.22350156 -0.16747104 -0.27255535 0.60839057 -0.09484345 0.21708861
0.33449015 -0.32137978 0.117910355 -0.42631814 0.6857914 -0.12624234 -0.4823366 0.08892654
-0.0058757532 0.6317224 0.3212497 0.34158614 -0.34916532 0.10690939 -0.28586423 0.17354941
0.270368 0.3061245 -0.16899921 -0.20634595 0.34652615 -0.047236204 0.7730249 -0.34925538
-0.23994513 0.2359286 -0.18690754 -0.68648213 0.23302433 -0.20955336 0.049870584 -0.28168064
0.59476113 0.3343885 -0.08811022 -0.018104168 -0.46876645 0.5522724 0.32588896 0.14936288
0.015895683 -0.29546067 0.06455444 0.1636761 0.07188977 -0.24443376 -0.20253333 -0.088959426
0.17129186 -0.2759937 -0.08383728 -0.07750161 0.023314709 -0.28010666 0.066441365 -0.27055782
-0.35403487 -0.00908504 -0.24263896 0.24009684 0.07425748 -0.06509001 -0.1296366 0.0296863
0.100059904 -0.026049823 -0.0680987 -0.0002489172 0.6852161 0.27024937 -0.10679357 -0.12351797
-0.07603113 -0.032843105 0.23161156 -0.01887843 -0.29756 0.103603326 0.13999212 0.030457452
0.04927762 0.0010710115 -0.35126463 0.20255521 -0.2632406 0.03673517 -0.9692567 0.20848583
0.109620675 -0.20620914 -0.1105635 0.13972655 -0.33533344 -0.12982978 0.021667229 -0.5891154
0.38097197 -0.074148886 0.2523865 -0.36609653 -0.031166287 0.08176973 -0.09063881 0.08886276
-0.084690325 0.2478304 -0.18832277 0.32621655 -0.30147585 -0.23233533 0.051174924 0.16677159
0.2134365 0.3195137 -0.121112116 0.27355865 0.127995 0.15383823 0.21915191 0.007433556
-0.32396656 -0.04766652 0.14342414 -0.21726902 -0.008157237 0.36953458 -0.13018936 -0.28355515
0.727546 -0.73363614 -0.05440741 -0.50717163 0.7540705 0.504931 -0.9654955 -0.182888
0.096570514 -0.096639946 -0.26382595 -0.19217119 0.39466262 -0.15870258 -0.11026122 -0.14765505
0.38755953 0.116276436 0.055165265 -0.05141922 0.120245814 -0.61638856 0.14533056 0.7019877
0.030535642 -0.30738246 -0.3839746 0.044696048 -0.30368418 -0.18339679 0.113332525 -0.3782125
0.024258396 0.1467918 0.22291638 -0.057039138 -0.05453145 -0.10194541 0.013986573 -0.056289878
-0.6668606 -0.2852318 0.38032928 -0.037190374 -0.03013813 0.12955579 -0.21521285 0.40298143
0.3754804 -0.06740312 -0.0018573016 0.044961218 -0.17053047 -0.013585244 -0.100189276 -0.040280845
-0.31323624 -0.2977445 0.38556564 0.030469198 -0.27038074 0.28243166 0.17323245 -4.219562e-05
0.23443797 -0.43087128 -0.2550712 -0.56997675 0.19383058 -0.090920955 -0.7934766 0.3340552
0.21756013 0.46141154 -0.39609954 -0.1657891 -0.022129765 -0.050887223 -0.025625093 -0.21196128
-0.28195125 0.2095626 0.11121874 0.1320131 -0.047361284 -0.23456053 -0.26048124 -0.0028592278

lstm_actuator.weight_hh_l1 f4 [128, 32]
00000000: f56c 3abf a2fb 51bf 8cad 6a3b a49b 703d
00000010: 835f 1f3e 8f78 17bf b306 ffbd ceda 4ebd
00000020: 6169 1bbe bb43 44be ab51 733e 4b08 8cbe
00000030: 82f4 a0bd b1ac c53e 963d cbbe 60d9 73be
00000040: ea7d 1ebe 1200 a6be 0bab c93d eab4 fdbb
00000050: 3956 a8bd 7596 e7bd e3e4 0fbe 50be 5fbe
00000060: c2cf b3be a81a 013e 76d7 68bc c768 69bd
00000070: ccc2 88be 50e6 d9bd 6139 573e cf66 473d
00000080: 475f a4be b161 a3be ec8f 9dbe 0d0d bbbe
00000090: cd0b eabd 4ad8 5e3d 2a69 463e 5e1c 0e3e
000000a0: a90c 65be 116a 263e 60ca dbbd 2566 38bf
000000b0: ea1f 493e a9ad f3be 02a3 b5be 30c0 50be
000000c0: c04d bf3e bc6b f43c 334b 86be fcff 19be
000000d0: 1053 7dbe cc63 d2bd d975 0dbf 1418 863e
000000e0: 88c9 853e 2035 40be d19c 45bd 6504 c33c
000000f0: 4f4b f23d 0075 6c3d ffc0 a2bc 068b 02be
00000100: 9ea1 ab3e d108 3dbf 2c58 083f 62c1 88be
00000110: 1831 4ebd 8916 2ebf 8429 5d3e 1d10 ffbe
00000120: 8e52 42be c2f4 fdbe 73d7 ecbd 84c9 13bf
00000130: f976 5cbe 4344 07be 851b 36bf 0861 c1bd
00000140: eb12 1fbe 65bd 6fbe 2653 bcbd 6bf6 9bbe
00000150: 337f 4dbf 1fc8 293e 32a5 04bf a35b 0abe
00000160: e85d c9be 9af6 a3be 64cb 063e 6608 c13e
00000170: 45fe 2abe 5f82 803d 5eed 80be b723 4abd
00000180: 5eb9 96bc 0794 f53e dc03 733e 6c1c dbbe
00000190: 5fb5 c6bd 2a8e a7bc 8c1b db3d 3914 993e
000001a0: 556d e53b 6220 68bd 0c25 86be 0e4d 853e
000001b0: f60f 06be ad2c 23be bbbd 153f 92fd c33c
000001c0: eb7d 06bf a990 693e 818f 2a3e e2a6 9f3e
000001d0: 9be4 b03e ce88 92be fedb 9d3e 5fde fdbd
000001e0: 3e4a 01be 6dfd af3e ab05 92bc 8b0c 01bf
000001f0: afb4 d9bd fd80 253e 0949 d6bc f504 8e3e
00000200: 6314 af3e 27f3 9c3e 203b 6fbe 5aef f83e
00000210: 96b3 a3be 6847 113e 6335 a23e 4a50 bdbd
00000220: 86e4 c33c e863 ccbc 7467 8a3e 3e44 82be
00000230: bf51 9abd 3233 99bc af09 d0bd dd34 2ebe
00000240: dc23 ea3e de0b 9b3e 8641 bcbe 6c49 473e
00000250: f6dd 693e a779 3e3e 9e0e f63e de04 503e
00000260: fb85 2e3d 543d 74be b7ec bcbe 7b6e cd3c
00000270: 014d 47bc 876f 163e 209e 95bd 760c 003e
00000280: 7419 1c3f 6316 393f c884 0f3f e61a ea3e
00000290: 7140 91bd 8a28 8c3e d894 013d 46c7 76bd
000002a0: 8303 3abe cb77 0b3e 05c5 d13d e9a4 8f3c
000002b0: b23f 9f3e c106 563e 5f7f c53d c124 e63e
000002c0: 73c7 5b3c 8c55 c83e 494d 353e 6f39 af3e
000002d0: 1727 d5be 98a8 7bbd defa d93e 02ff 11bd
000002e0: ccba 88be fb5e 283e 6c4a e9be 1933 5cbd
000002f0: fafd 31be acc5 c53d 1d9d f73d c7a6 d03e
00000300: e11a 1e3e 40cf 6e3e 9bd5 7b3d 3468 c0be
00000310: a63f 703e adb1 5bbe 64aa 3fbf d9ad 873d
00000320: efb8 573d f8f7 00bf 8a43 aebe 7a5f e73e
00000330: 4a1e 743e b6d1 9bbd 8f65 903e c9d3 653e
00000340: f133 c0bd d586 823d 57fd 5b3e 8e45 a7bd
00000350: 7d07 163e c5b7 68be d7d4 ba3d 4606 babe
00000360: b705 04bf dc7d 41be 4180 963e cabc 67bd
00000370: 47d4 2dbf 330b b2bb fe9b 98be 3417 293e
00000380: df4b 9d3d f6f5 febd 5fc8 c03e 05de 2c3d
00000390: 62cb 47bb 2523 213d 24f5 60be a806 ffbe
000003a0: 0232 b73d 0188 92be b3fc 27bd 0a31 7cbd
000003b0: e559 223d d738 783e d64f 85be d826 1abd
000003c0: ce95 43be 98e3 a03e ba1c 813e 8432 8abe
000003d0: eb62 8cbd 1993 80bd 7f66 353d 6c66 00bc
000003e0: b49d 6e3c 3a95 043e 7c44 713d 9ac2 7cbe
000003f0: ca99 56be e59c ddbd 9aa9 b13c 56b4 b3bd
-0.72822505 -0.82024586 0.0035809008 0.05874218 0.15563779 -0.5916833 -0.1245245 -0.050501637
-0.15176918 -0.19166462 0.23761623 -0.27350077 -0.07859136 0.38608316 -0.39695424 -0.2381339
-0.1547772 -0.3242193 0.09847077 -0.007742514 -0.08219571 -0.11307994 -0.14052157 -0.21849942
-0.35119444 0.12607825 -0.014211526 -0.05698469 -0.26711118 -0.10639632 0.21017982 0.04868203
-0.3210394 -0.3191047 -0.30773866 -0.36533394 -0.11428032 0.054405488 0.19376054 0.13878009
-0.2236811 0.16251399 -0.10731959 -0.7203086 0.1964108 -0.4759343 -0.35475928 -0.20385814
0.37364006 0.029836528 -0.26229247 -0.15039057 -0.24738717 -0.10272941 -0.55257946 0.26190245
0.2613032 -0.18770266 -0.048245255 0.023805806 0.1183077 0.057728767 -0.019867418 -0.12748346
0.33521742 -0.7384158 0.5325954 -0.2671004 -0.05033979 -0.68003136 0.21597868 -0.4981698
-0.18976805 -0.49600798 -0.11564531 -0.57729363 -0.2152976 -0.13209634 -0.7113574 -0.09442335
-0.1553456 -0.23412092 -0.09195547 -0.3046144 -0.80272216 0.16580246 -0.5181457 -0.13511519
-0.39329457 -0.3202408 0.13163525 0.3770172 -0.16698559 0.06274866 -0.25181097 -0.049350467
-0.018398937 0.47964498 0.23731941 -0.42795122 -0.097025625 -0.020453531 0.106986135 0.2989824
0.007001559 -0.056671508 -0.2620014 0.2603535 -0.13092026 -0.15935011 0.5849263 0.023924623
-0.52535886 0.2280909 0.16656305 0.3118201 0.34549412 -0.2862 0.30831903 -0.123959295
-0.12625977 0.34373036 -0.017824968 -0.50409764 -0.10630166 0.16162486 -0.026157873 0.27738157
0.3419524 0.3065426 -0.23362398 0.4862011 -0.3197295 0.14187396 0.31681356 -0.092438295
0.02391268 -0.024949983 0.27032053 -0.2544269 -0.07535123 -0.01870117 -0.10158097 -0.17012353
0.45730484 0.3028249 -0.3676874 0.19461602 0.22838578 0.18601094 0.48058027 0.20314357
0.042608242 -0.2385152 -0.3689935 0.025077095 -0.012164355 0.14690982 -0.073055506 0.12504753
0.6097634 0.72299784 0.56061983 0.45723647 -0.07092369 0.2737468 0.03163609 -0.060248636
-0.18165402 0.13619916 0.102426566 0.01753469 0.31103283 0.20901014 0.09643435 0.44949916
0.013414252 0.39127767 0.17705263 0.34223506 -0.41631386 -0.06144008 0.4257421 -0.035643585
-0.26705015 0.16442482 -0.45564592 -0.053759668 -0.1738204 0.096568435 0.12090514 0.4075224
0.15439941 0.23321247 0.061483007 -0.375795 0.2346178 -0.21454497 -0.7486937 0.06624956
0.0526666 -0.5037837 -0.34035903 0.4519003 0.2383968 -0.076083586 0.28202483 0.22444071
-0.09384907 0.063733734 0.2148336 -0.081675634 0.14651294 -0.22726353 0.09122627 -0.3633291
-0.5157122 -0.18895668 0.29394725 -0.056576528 -0.67902035 -0.005433464 -0.29806513 0.16512758
0.07680487 -0.12449257 0.3765287 0.04220392 -0.0030486216 0.039340157 -0.21968514 -0.49809766
0.08945085 -0.28619388 -0.041012477 -0.061570205 0.03963651 0.24240433 -0.26037472 -0.0376347
-0.19100115 0.3142364 0.2521723 -0.26991665 -0.068548046 -0.06278057 0.0442872 -0.007836919
0.014563967 0.1294755 0.058903202 -0.2468361 -0.20957103 -0.10820941 0.021687318 -0.08774631

lstm_actuator.bias_ih_l1 f4 [128]
00000000: e7b4 c8bd 8543 50be 1caa 00be 074d 23be
00000010: 6d5d 01be 1bda d6bd 58f9 6bbd c121 8ebe
00000020: 3e0b 92be 3bef a43d 4635 7fbe 3151 7cbe
00000030: 5a57 603a 37fd ecbd 960f 61be 58ba fdbd
00000040: acc5 8dbd c6f2 90bd 6a60 66bd cab4 c0be
00000050: 6222 cbbe c236 44be 6f83 ddbe 5df2 0fbe
00000060: 399d 7dbe 3c89 84be 569d fabd 257f c2be
00000070: a19c dbbe 2e52 e03d 174a 41be 30bc 45be
00000080: 3307 d9bd b5e6 9b3e 5b25 033e ca2f abbe
00000090: 34f1 6d3e 68c0 613e 89e1 aabd e1d2 e0bd
000000a0: 7ab2 3a3e eb3d 0cbf 6d5e 993d fc46 0c3e
000000b0: d864 233d 267b 88be e9f3 5e3d ad89 fabe
000000c0: 35e3 de3d caa4 0cbe 163f cf3e c52e 1abe
000000d0: 9897 bfbc 4da4 c8be ee79 e4bd 8241 353d
000000e0: 7fae 76bd f6d4 0f3e e9d3 233e 07c0 933d
000000f0: 1087 8dbe ab20 00be 8f5c 36be 5e30 9d3d
00000100: 7a6a eb3c a827 ffbc 2a1c 51bc 1544 30be
00000110: 197b 08bd 3cda 00bd f271 46be 8a79 173d
00000120: 3afe 24be 744a 04be 158c c1bd 869c 88be
00000130: 0c01 193e b518 5dbe 05fd 48bd 94cc c4be
00000140: 0a07 0c3e 6785 77bd ca06 19be 305a 53bd
00000150: b1eb 80bc 14b5 5fbe dcb7 3e3d c6e4 da3d
00000160: d339 4ebe 6874 a1bd 3ca2 57be 27c8 9a3d
00000170: 6adf 78be aa98 3abe 20f4 83bd 9ff0 e3bd
00000180: 161c 8dbe 6973 2bbe 768a 86be 5f18 5bbe
00000190: e479 b3be 8677 58bd 5b60 e9bd 76b5 60be
000001a0: 42d2 c6be b94b 1abe 8686 66be 37a7 43be
000001b0: 8f94 adbc f65d b6bd ad6f 4ebe a384 d7be
000001c0: 91ea 8abe c59d cdbd 597c 52be bf68 80be
000001d0: 2789 57be a3b8 a4be 8803 1cbe 0673 e5bd
000001e0: 66be 99be 1574 85be 6b3e 18be eef1 06be
000001f0: 0c36 39be 2dbf 6bbe 7611 b9be cb8a 12bd
-0.098001294 -0.20338257 -0.12564892 -0.15947352 -0.12633295 -0.10490819 -0.05761084 -0.27760127
-0.28524202 0.08053442 -0.24922666 -0.24640347 0.0008557938 -0.115717344 -0.21978602 -0.12389058
-0.069224685 -0.07077555 -0.05624429 -0.3763793 -0.3967467 -0.19161513 -0.43264338 -0.14057298
-0.24767007 -0.25885952 -0.12237041 -0.3798763 -0.42892936 0.109531745 -0.1887592 -0.19310069
-0.10597076 0.30449453 0.12807219 -0.33434898 0.23236543 0.22046053 -0.08343799 -0.10977722
0.18232146 -0.5478198 0.074887134 0.13698953 0.039891094 -0.26656455 0.05443183 -0.48933163
0.1088318 -0.13734737 0.40477818 -0.15056904 -0.023387715 -0.39187852 -0.11156069 0.044251926
-0.060225006 0.14046082 0.15998806 0.07214361 -0.27642107 -0.12512462 -0.17808746 0.07675241
0.028737295 -0.03114684 -0.0127630625 -0.17213471 -0.03332052 -0.031458125 -0.19379404 0.036981143
-0.16112605 -0.12919027 -0.09450547 -0.26681918 0.14941806 -0.21591456 -0.049069423 -0.3843733
0.1367456 -0.060429957 -0.14943996 -0.05159968 -0.015737386 -0.2184642 0.04656206 0.10688166
-0.20139246 -0.07883531 -0.21057981 0.07557707 -0.24303976 -0.18222299 -0.064430475 -0.11129879
-0.2756049 -0.16743244 -0.26277512 -0.21396016 -0.35053933 -0.05284836 -0.113953315 -0.21944222
-0.3883229 -0.15067948 -0.22512254 -0.19106756 -0.021189002 -0.089046404 -0.20159788 -0.4209338
-0.27132085 -0.10039858 -0.20555247 -0.25079915 -0.21048413 -0.32172117 -0.15235722 -0.112035796
-0.30028075 -0.26065126 -0.1486756 -0.13178226 -0.18087023 -0.23022147 -0.36146134 -0.035776895

lstm_actuator.bias_hh_l1 f4 [128]
00000000: da8f 9fbe c504 12be 8f39 8bbe 0ce2 2fbe
00000010: 8d19 43be 2388 713d fd14 6bbd 11a1 95be
00000020: 2ab1 e6bd 97ee c63d 2fb4 87be 40c0 b9bd
00000030: a47c 72be aca1 93be 55c3 cbbc 7d3f ccbd
00000040: ffba 013c 3bb5 3abd 1aa5 42be e1e7 e2be
00000050: 98d4 5fbe ff77 2bbe 0ca3 a9be 5d33 dabd
00000060: 5566 3c3c d945 0cbf 1dc8 c33c 7f91 58be
00000070: 31b6 62be ecb5 1abd 4bf9 9bbe b984 e23c
00000080: 4458 ebbd cd8b 1e3e 2530 3c3c 13d2 66be
00000090: e0c7 44bb 4eee 7e3e 3ece a03d 4664 49be
000000a0: a171 533e 6bf7 24bf d445 483d c419 243e
000000b0: cbb3 7fbe 3a6e b1be 1b64 813e 6fb4 efbe
000000c0: 1bfb e93c fe94 67be 612c 823e 269f a3bd
000000d0: ddb0 f5bd 9ef9 79be ffcb f93c 6b18 7b3d
000000e0: c045 8dbc 80e5 fb3c 7213 a53d d73e 813b
000000f0: 64f3 e5be b346 a43c 030a 95be 3763 6ebe
00000100: e2d3 ebbd 052a 32be c6b5 80be a5ff 82bd
00000110: 1942 33be a63c 30bd 76e7 acbd e468 72be
00000120: b3ac c33d 2b04 823d eb78 d1bd 73ab d4bc
00000130: ba10 0c3e 4822 8bbd 1770 59be 0b5a 73bd
00000140: 4ce2 f43d 605b 173e 8230 6fbe 366a 123e
00000150: 4a03 46be 24a9 33be 719a 6a3d ea48 27bd
00000160: 847a b9bd ba0b 14be e277 56be e769 2d3d
00000170: f2b5 14be d955 6abe 7616 5bbd 6edc debc
00000180: 5abc 90bd efca 12be f94f 88be 70a6 9ebe
00000190: 0e6b b2be 1e28 eabd 70f2 e3bd 78ae d3bd
000001a0: 558f 17be c14f 9fbd a744 70be 446e a8bd
000001b0: 0e63 14be de61 2b3c 4ec2 02bd 46d8 c8be
000001c0: b8bd a7be d020 dcbd 0d47 61bd d09c b6be
000001d0: 6230 89be 4f5e b9be ab03 9fbe f27d b5be
000001e0: 0ae7 d7bd dd8d debe e12f c13a 9ed3 45be
000001f0: f404 dabd f824 19be 2faf f1be d91e 32bd
-0.31164438 -0.14259632 -0.2719235 -0.17176074 -0.19052716 0.05896772 -0.057393063 -0.29224446
-0.1126426 0.09713476 -0.26504657 -0.09069872 -0.23680359 -0.28834283 -0.024873415 -0.09973047
0.0079181185 -0.04558299 -0.19008294 -0.44317535 -0.21858442 -0.16744994 -0.33132207 -0.10654328
0.011499007 -0.5479408 0.023899132 -0.21149252 -0.22139813 -0.03777115 -0.30463633 0.027651178
-0.11491445 0.15483017 0.011486088 -0.22541074 -0.0030026361 0.24895594 0.078518376 -0.19667158
0.20648815 -0.6444003 0.04889472 0.16025454 -0.2497093 -0.3465441 0.25271687 -0.46817347
0.02856212 -0.2261543 0.25424483 -0.079893395 -0.119966246 -0.24411628 0.03049278 0.061302584
-0.017245173 0.030749083 0.080603495 0.0039442587 -0.44912255 0.020053243 -0.291092 -0.23280035
-0.11515023 -0.17398842 -0.25138682 -0.063964166 -0.17505683 -0.04302659 -0.08442585 -0.23672825
0.09554424 0.06348451 -0.102281414 -0.02596066 0.13678256 -0.06793648 -0.21234165 -0.059412044
0.11957225 0.1478095 -0.23358348 0.14298329 -0.19337192 -0.17544991 0.057276193 -0.04084102
-0.09056571 -0.14457598 -0.20944169 0.042337324 -0.14522532 -0.22884311 -0.053488217 -0.027204718
-0.07067175 -0.14335226 -0.26623514 -0.30986357 -0.348473 -0.11433433 -0.11130226 -0.10336012
-0.1480077 -0.07778884 -0.23463689 -0.082241565 -0.14490911 0.010460345 -0.031923585 -0.39227504
-0.3276193 -0.10748446 -0.0549994 -0.35666513 -0.26794726 -0.36204764 -0.31057486 -0.3544765
-0.10542114 -0.43467608 0.0014739 -0.19319007 -0.10645476 -0.14955509 -0.47203967 -0.04348645

fc_ratio.0.weight f4 [16, 1]
00000000: 900d b2be 79ff 72bf 48ff d23e 708a b23e
00000010: 4831 183f 4d87 613f 46f6 4cbf 80e9 57be
00000020: b480 1ebf 1ce3 ba3e 28b0 02be 9833 1b3e
00000030: 7042 823e 957f 6e3f 27d3 5dbf 803a 783f
-0.34775972 -0.9492107 0.4121039 0.34871244 0.594502 0.8809708 -0.80063283 -0.21085167
-0.61915135 0.36501396 -0.12762511 0.151564 0.25441313 0.93163425 -0.8665032 0.96964264

fc_ratio.0.bias f4 [16]
00000000: a054 dfbe 183f 6d3f ec0b 73bf 384e b9be
00000010: 9e1c 61bf ac12 63bf c802 c23e 70ea 38bf
00000020: a53a 2a3f 3211 71bf 50b9 68bf 72c2 6dbf
00000030: aa3b 73bf 5055 36be 0ef1 75bb eb45 c8bd
-0.4361925 0.926744 -0.94940066 -0.3619249 -0.8793429 -0.88700366 0.37892747 -0.72232723
0.66495734 -0.9416686 -0.90907764 -0.92874825 -0.95012915 -0.17805982 -0.0037527713 -0.09778961

fc1.0.weight f4 [64, 64]
00000000: 9285 febd b0ca 883b 0017 6fba 8e45 763d
00000010: 6343 9fbd be93 c7bd 1356 72bb da4c 813d
00000020: d635 03be 94c1 47bd 5678 10be 9c06 efbd
00000030: e403 80bd e8a0 b4bd 262d efbd 4630 e03d
00000040: 4114 e0bd e93f a0bd 9c9b 0ebe 2a8c c3bd
00000050: 24bf 4c3d 94f5 193d ce3e 083e 9bc5 5cbd
00000060: dd84 d53d 94f1 94bd 634b c1bc 9bab b5bd
00000070: 0eff 6cbd 6263 25bd 1130 a43d 56a6 c53d
00000080: 7569 9bbd 69d5 19bb 7114 15bd eac9 cebc
00000090: 0752 a43d f626 463c 721e adbd f390 5fbd
000000a0: 9d5f 13be 3c69 cdbd 4a04 c8bd d742 4d3a
000000b0: 0773 09be 553d dcbb 909f 06be 358f e1bc
000000c0: 005d 49bb c956 f4bd baa7 e6bd 10ab fcbc
000000d0: 48ea bebc 24bb 17bd 1b70 10be 6207 f0bd
000000e0: 2b02 f83c 2000 e73b 10bd cabd 5285 b63d
000000f0: 8250 f3bd 6d79 803d 2c18 dd3d 5354 b1bd
00000100: 5569 43bd d446 2abe 5bf4 f5bc d19f 393b
00000110: 0379 7f3d 41dc 0bbd 0a3c 9b3d 6dc7 79bd
00000120: 067b 8d3d 1ac4 163d e814 4e3c f178 53bd
00000130: 5778 aabd 0160 23bd 92c0 2d3d bcf3 17bd
00000140: 131f d2bd f244 d8bd 0987 bfbd 9cad d4bd
00000150: ae4b f3bc 023b 71bc 64f0 3cbd ea16 493d
00000160: 87de 873c 484e 1d3d 0766 e3bd 86ee a3bd
00000170: 516e ed3d 39fa d03c e590 ecbd bbd4 a3bd
00000180: 5eb9 ed3b cbec a9bb 5857 643c 7d0a 663d
00000190: 4ce0 823d 0f78 b8bb 12ff 0b3d b971 6d3d
000001a0: 13f3 f4b9 79ff 963c 7b27 dabd b1be 19bc
000001b0: ea5a d4bd d3da d4bd ab69 b93d bf6f 9bbd
000001c0: 0060 ed37 d53c ecbd f08c 7abd d6cc e23d
000001d0: 64e2 66bd fb39 9abd 701f 14be 0855 9ebc
000001e0: 3c8a 04bb 58d4 64bd 1834 7f3d 50b0 623c
000001f0: 0c10 f6bd f874 86bd bc00 b5bd 6715 08be
00000200: 2a75 29bd 0b95 6cbd caf4 963c a3c2 db3d
00000210: 08b5 3a3d 7a69 b8bc c0fa 503d c96f 45bd
00000220: 741e d9bd 200b be3d 34f4 4dbd 9083 df3c
00000230: c8b5 b63d ccb1 09be fc4e c2bd f070 833c
00000240: 53d0 9fbb 0b45 44bd f940 18bd 5190 afbd
00000250: 78de a73d 3722 823d 338a b2bc 7d52 813d
00000260: d2f8 a2bd 34a9 bd3d 91eb 803d b77c 7cbc
00000270: 024a 1dbd 6b8f 8dbd 9547 c63d eb09 c0bd
00000280: 2903 adbd 2fa0 a2bd 6d64 9cbc 8c88 79bd
00000290: 4390 143e 330f d6bd 9a05 163d eff6 efbd
000002a0: 9f4e 15be 1d8e ecbd 944f cbbc 3770 e0bc
000002b0: 8b85 dcbd 89af 8f3d 01ae d9bc ab75 d6bd
000002c0: 285b 87bd f6d7 833d 5064 a53d f800 a4bd
000002d0: da68 b03d ec0c f73d 8e76 cdbd 52d2 a73d
000002e0: 72e7 03be 6069 413d b040 433d a83e f23c
000002f0: 30e9 a2bc 1812 dfbd 2c08 96bd 1dff 98bc
00000300: 8d41 dfbd 9232 25bd d7d2 17b8 f21d 07be
00000310: b25f debd 4fee a03c 5efa 17be 12b1 ae3d
00000320: dcb8 82bd 9960 edbc 8181 9c3d 74d0 07bd
00000330: dcf3 6bbd 3332 843d f68d 8abd 16ee fbbd
00000340: ed55 9bbd 95bd ecbd 7bf7 843c 09a8 ed3b
00000350: b31a f83b 5a1e 073c 9298 a0bd b085 8a3c
00000360: 7564 2dbd f708 a8bd 8ea6 d0bd 0c25 0cbd
00000370: 48dc 8d3d 402f e43c 5a1a f8bb ac1b c0bc
00000380: 872e 003d 7927 993d e4b4 a13d d83f 163d
00000390: bba0 85bd 678c 8ebd 87b3 323d 03b2 66bc
000003a0: d440 0e3d f5c2 f7bc d4d7 c3bd 21b0 78bd
000003b0: f3fb ed3d 4dcb 863d ad37 82bd f705 ce3d
000003c0: 5c12 b93d 9533 febd 10a8 a1bc 7887 d6bd
000003d0: 8017 46bb e65d 92bd 1fdc bf3d 5420 083d
000003e0: a736 1ebe d049 453d 38b2 91bd e0f8 d8bb
000003f0: 0050 0f38 ff48 f7bd 0258 a63b 38d5 f73c
-0.1242782 0.004174553 -0.0009120554 0.060124926 -0.07776525 -0.097449765 -0.0036977574 0.063134864
-0.12813506 -0.048768595 -0.14108405 -0.116711825 -0.06250742 -0.08819753 -0.11678533 0.109467074
-0.10941363 -0.0782469 -0.13926548 -0.095482185 0.049986973 0.037587717 0.13305208 -0.05389939
0.10425732 -0.0727264 -0.023595518 -0.08870622 -0.057860427 -0.040377982 0.080169804 0.09650867
-0.07588474 -0.002347315 -0.036396448 -0.025242765 0.08023458 0.01209425 -0.084530726 -0.054581594
-0.14391942 -0.100298375 -0.09766443 0.00078300893 -0.13422786 -0.0067211785 -0.13146806 -0.027534107
-0.0030725598 -0.119306155 -0.1126246 -0.030843288 -0.023305073 -0.037043706 -0.14105265 -0.11720158
0.030274471 0.0070495754 -0.09899342 0.089121476 -0.1188059 0.0627316 0.10795626 -0.08658662
-0.047707874 -0.16628581 -0.030023744 0.0028324018 0.062371265 -0.034145597 0.07579811 -0.060981203
0.069082305 0.03680811 0.012578227 -0.05162901 -0.08323734 -0.03988648 0.042419977 -0.037097678
-0.10259833 -0.10560025 -0.09351928 -0.10384676 -0.029699173 -0.014723541 -0.046127692 0.04909412
0.016585601 0.038404733 -0.111034445 -0.08004479 0.11593307 0.02550994 -0.11551074 -0.079995595
0.0072547635 -0.0051856986 0.01393684 0.056162346 0.063904375 -0.0056295465 0.0341788 0.057969783
-0.0004672041 0.018432366 -0.106520616 -0.009383843 -0.10368903 -0.103933 0.09053358 -0.07589673
2.8297305e-05 -0.1153504 -0.061169565 0.110742256 -0.056368247 -0.0753059 -0.14465117 -0.019327655
-0.0020223996 -0.05586657 0.06230554 0.0138359815 -0.120147794 -0.06565279 -0.08838031 -0.13289414
-0.041371502 -0.057759326 0.018427271 0.107304834 0.0455828 -0.022511233 0.051020384 -0.04820231
-0.106015116 0.09279466 -0.05028172 0.027284414 0.08921391 -0.1344673 -0.09487721 0.016045064
-0.004877129 -0.047917407 -0.037171338 -0.08572448 0.081967294 0.06354182 -0.021794414 0.063145615
-0.07957615 0.092607886 0.06294931 -0.015410594 -0.038400657 -0.069121204 0.09681622 -0.09376892
-0.084478684 -0.07940709 -0.019090855 -0.060921237 0.14508156 -0.10452118 0.036626436 -0.11717021
-0.14580773 -0.115505435 -0.02481822 -0.027397258 -0.10767659 0.070159025 -0.02657223 -0.10471662
-0.066091835 0.06437676 0.08075774 -0.08007997 0.08613749 0.120630115 -0.10032378 0.08194412
-0.12881258 0.047219634 0.047669113 0.029570892 -0.019886583 -0.10892123 -0.073257774 -0.018676335
-0.10901175 -0.04033143 -3.6197565e-05 -0.13195017 -0.10858096 0.019644884 -0.14841601 0.08529867
-0.063829154 -0.028976725 0.076418884 -0.03315778 -0.05760561 0.06454887 -0.06765358 -0.12301271
-0.075847484 -0.115595974 0.01623129 0.0072526974 0.007571542 0.0082469825 -0.078416005 0.01690945
-0.04233213 -0.08204835 -0.10188018 -0.03421502 0.06926781 0.027854562 -0.0075715007 -0.023450695
0.031294372 0.07478232 0.0789583 0.03668198 -0.065247975 -0.06960373 0.043628242 -0.014080527
0.034729794 -0.03024433 -0.0956265 -0.060714845 0.11620321 0.06581745 -0.063582756 0.100597315
0.09036705 -0.12412182 -0.019733459 -0.10475057 -0.003022641 -0.07146816 0.09368157 0.033233956
-0.15450536 0.048166096 -0.07114071 -0.006621465 3.4168363e-05 -0.1207447 0.0050764093 0.030253038

fc1.0.bias f4 [64]
00000000: f144 cdbd 37b9 193d 194f a1bd 9b34 3ebd
00000010: 58a6 85bd af5c 44bc ee05 97bd 75d6 883d
00000020: 7f68 65bd e3f5 4a3c c877 d63c 8f7d 26bd
00000030: 4312 143d 4afd 28bd 3648 fbbd fa8a 77be
00000040: 9d8e e63d 3594 7d3d e2f1 9b3d a2ea bbbd
00000050: d27d 4dbe 1275 633c 827f dcbd f0c7 12be
00000060: 6a7b 36bb 3551 e13c 954e 7fbd 272c ba3d
00000070: 022b 2bbd ff0e 32bd 9957 19bd 6996 a23c
00000080: 367a 0bbe 86fa 8fbd a2bc 303d 8518 8abd
00000090: 7d41 0bbc 5a64 1dbd e728 88bd 9912 563d
000000a0: 0218 07be c58a 4fbc afb4 9d3d cc73 c63d
000000b0: 9b51 343d 12b8 c3bd 3050 27be d426 bf38
000000c0: f730 26be fab2 c1bc 6869 92bd 5383 ea3d
000000d0: 0717 0dbe dc69 87bb 9ce3 25bd ce0d d3bd
000000e0: 05ed 1dbe 869a 18be dbac 81bd 26c5 8c3d
000000f0: 28ce 13be d3d3 29be 1f8c 91bd 5648 b23d
-0.10022915 0.03753015 -0.07876415 -0.046436887 -0.06525868 -0.011984988 -0.07374178 0.066815294
-0.05600786 0.0123877255 0.026180163 -0.040647086 0.03615023 -0.04125718 -0.122696325 -0.24174109
0.1125767 0.06190892 0.07614495 -0.09175612 -0.20067528 0.013882892 -0.10766508 -0.14334083
-0.0027844557 0.027504543 -0.0623308 0.09090453 -0.041789062 -0.043471333 -0.037437055 0.019847112
-0.13620839 -0.070302054 0.043148644 -0.06742958 -0.0084995 -0.03842578 -0.066484265 0.05226383
-0.13192752 -0.012667363 0.07700478 0.09690055 0.044023138 -0.09556593 -0.16339183 9.114822e-05
-0.16229616 -0.023644913 -0.07149011 0.11450829 -0.13778315 -0.0041324925 -0.04050027 -0.103053674
-0.15422447 -0.14902696 -0.06331798 0.068735406 -0.14434111 -0.16584711 -0.07106804 0.08705203

fc2.weight f4 [1, 64]
00000000: 79b5 dabb 39d0 503b db37 f6ba 95b9 1d3c
00000010: 74b8 d83b 6d91 6f3d e020 373d e34d febe
00000020: b68a 79bc 2cba 27bd 4e89 5f3d 5775 eebb
00000030: c2dd 253d 5418 143d e43c 34bd ced8 cd3e
00000040: f947 9dbe 2448 6c3d 4a4b 9fbe fb5a 84be
00000050: e332 033f a03f c23c c102 6cbe f40d 6dbe
00000060: d91d 073d 2908 b2bc bba0 76be f8c8 543d
00000070: 4f18 39bd 4d90 3d3d eb53 46be 9ea6 9dbe
00000080: ed0f 153f ec79 563d c3e6 8abe 2286 2d3d
00000090: 14df 2d3d 521e 61be 7975 5a3d c72f e33c
000000a0: cad9 4cbd fd10 573d 6512 98be ebf8 4a3d
000000b0: 0fc4 703d 7344 903c 0c6e 873c 55fb 643c
000000c0: 6c5d a7bb df4f 863c 08e7 59be 218f 203d
000000d0: 3c07 24bd 0b95 67be 7d8e 073f 04fd 6b3d
000000e0: 60b9 ffbc 3c7d b73b 9772 423d 0e2d 313d
000000f0: efc3 133b 6e8f 8abd 29c0 823c 8339 433d
-0.0066744653 0.0031862392 -0.0018784957 0.009626766 0.0066137854 0.0584883 0.044709086 -0.49668798
-0.015230825 -0.04094903 0.054574303 -0.0072771716 0.040494688 0.036156014 -0.044003382 0.4020447
-0.30718973 0.057685986 -0.31112128 -0.25850663 0.5124952 0.02371198 -0.23047926 -0.23149854
0.03298745 -0.021732407 -0.24084751 0.05194947 -0.045189198 0.046280194 -0.1936795 -0.3079118
0.58227426 0.052362368 -0.27129182 0.042364247 0.042449072 -0.21984223 0.053334687 0.027732743
-0.050012387 0.052506436 -0.29701534 0.049553793 0.058780726 0.017610764 0.016531967 0.013975938
-0.0051075723 0.016395507 -0.21279538 0.039199 -0.04004596 -0.22615449 0.52951795 0.05761434
-0.031216323 0.005599646 0.047472563 0.043255858 0.0022547205 -0.06765638 0.01596077 0.04766227
