Source/Baseline/Deep_learning_method/logs/td3-ur5-ComGrasp/td3-ur5-ComGrasp_s0/pyt_save/model.pt (torch_old, 21436 bytes, 45 tensors)

pi.pi.0.weight f4 [16, 4]
0.007878527 0.18422113 -0.12253513 -0.16024992 -0.15642866 -0.33165348 0.17284998 0.16399345
-0.055045307 0.47879094 0.02746669 -0.068657905 -0.44776964 -0.044170186 -0.024785373 0.29943815
0.17589115 0.2686378 -0.043795537 0.07102678 0.13069743 0.37155652 0.02277837 0.6501068
-0.23763365 0.07475757 0.4823031 -0.38580343 -0.49458766 0.020443104 -0.06421445 0.36926705
-0.47864977 -0.17864798 -0.20244354 -0.64304286 -0.16280417 0.5690036 0.1816896 -0.073853284
-0.102282725 -0.10030554 0.15963142 -0.6712732 -0.36328194 0.031829633 0.4958624 0.25532472
-0.25905934 0.10860051 0.41817832 0.5930412 0.08327827 0.05663409 0.392424 -0.22435082
0.30491424 -0.31582004 0.088584766 -0.08905152 0.27213407 0.0013713513 -0.3666228 0.13932575
00000000: f014 013c 77a4 3c3e b3f3 fabd 8e18 24be
00000010: d62e 20be 7cce a9be 96ff 303e e6ed 273e
00000020: 3077 61bd 1624 f53e d301 e13c 849c 8cbd
00000030: 1042 e5be cceb 34bd b20a cbbc f54f 993e
00000040: cf1c 343e e58a 893e f362 33bd 7d76 913d
00000050: 8cd5 053e a83c be3e b499 ba3c 666d 263f
00000060: 3c56 73be 7f1a 993d 6ff0 f63e 0788 c5be
00000070: 983a fdbe 4c78 a73c de82 83bd 9210 bd3e
00000080: 9511 f5be 7fef 36be 5c4d 4fbe 759e 24bf
00000090: 23b6 26be 38aa 113f d70c 3a3e 6440 97bd
000000a0: 9b79 d1bd fe6c cdbd 6b76 233e 8fd8 2bbf
000000b0: 1700 babe ca5f 023d ade1 fd3e ecb9 823e
000000c0: 6da3 84be f269 de3d 781b d63e 8cd1 173f
000000d0: cc8d aa3d 26f9 673d cceb c83e 39bc 65be
000000e0: b81d 9c3e 2ab3 a1be ee6b b53d a560 b6bd
000000f0: 2855 8b3e eabe b33a fcb5 bbbe 69ab 0e3e

pi.pi.0.bias f4 [16]
0.35044256 -0.43560734 0.18766922 0.23706098 0.4809351 0.61639357 -0.3923638 -0.008623118
0.2924875 0.44691628 0.42201054 0.577316 0.081489556 -0.45248535 0.09667208 -0.4621412
00000000: 356d b33e ed07 dfbe 5c2c 403e 1dc0 723e
00000010: 203d f63e f8cb 1d3f e8e3 c8be fa47 0dbc
00000020: ecc0 953e 36d2 e43e c411 d83e fbca 133f
00000030: ffe3 a63d 29ac e7be 03fc c53d c59d ecbe

pi.pi.2.weight f4 [16, 16]
-0.14126079 0.0037549 -0.04961232 -0.2690906 0.20235698 0.065688334 -0.10017901 -0.49957862
0.029946858 -0.3594662 -0.0060850102 -0.0736854 0.3262888 -0.104337394 -0.10879806 0.43156657
0.14827548 0.052325338 -0.44675684 0.07826989 0.2999624 0.24304415 -0.109006286 -0.20379113
-0.066444665 -0.22077097 -0.39597687 -0.4274554 0.33094954 0.0105682975 0.019196814 0.78253776
-0.15428604 0.81570154 0.30457723 -0.15059535 -0.09252387 0.062037755 0.22859904 0.09217946
0.07639326 0.14077593 -0.01803267 0.25092584 -0.13504699 0.050184153 0.13898365 -0.1101361
-0.0922724 0.35786885 0.0822432 0.11309486 -0.20389844 0.033105828 0.3677104 0.007724461
-0.011140268 0.10666412 0.15639313 0.29172322 0.33919007 0.3527679 0.34921393 -0.23453343
-0.22458038 -0.118519306 0.1702263 -0.0016206205 -0.12426159 -0.19157794 -0.23396301 -0.21100205
-0.050709188 0.1371015 0.13516027 -0.24110797 0.15594551 -0.19562736 -0.05285257 -0.10136816
-0.057099275 -0.049085677 -0.2342463 -0.21585947 -0.054247674 -0.010907772 -0.11356872 0.0941748
-0.2250146 -0.030493105 0.20493388 -0.11514632 0.21360445 0.09053844 -0.22561523 0.15817434
0.053804543 -0.6808441 0.16283058 -0.15215346 0.1207665 0.069084994 0.18194534 0.15948041
0.22139005 0.11896782 0.054614052 -0.057919618 -0.19705708 0.0870744 0.28114763 0.71223146
-0.19696067 0.011149973 -0.17623353 -0.13762105 -0.16656542 0.06446236 -0.1489783 -0.005454302
0.010517031 0.13984811 -0.20991237 -0.19286792 -0.16754873 0.17498335 -0.109209985 0.21087217
0.09040189 0.031656504 -0.001861006 -0.049420387 0.031366587 -0.05708617 -0.0017566085 0.03189826
-0.19555128 -0.13103285 0.20187318 -0.20288667 -0.017951548 0.24730968 0.09030926 0.00707826
-0.17705633 -0.37934756 -0.22655605 -0.057156324 -0.0022342463 0.008391756 0.048107784 0.26366863
0.06466395 0.19176082 0.15878852 -0.17753093 0.15071614 -0.11331132 -0.024478225 0.6128193
0.060115647 0.1552393 -0.10508399 -0.04066696 0.10866619 -0.28714636 0.124238476 -0.23614308
-0.021390747 -0.09028431 -0.17976435 -0.016669147 0.1557636 -0.073079884 -0.14842352 -0.09245971
-0.23586094 0.6607868 0.010143438 -0.107390165 -0.13288715 0.2090181 0.318536 0.22549662
0.074628115 0.03979042 0.043066073 0.20124915 0.30447897 0.26306468 0.1503105 -0.11002417
-0.23636726 0.054012 -0.14029562 -0.22289395 0.21921912 -0.1623528 -0.028440386 0.071623385
0.007964581 -0.16822043 -0.20208043 0.1992706 0.040709674 0.20740613 -0.08381015 0.07363886
-0.10348504 -0.011117786 -0.15226105 0.08455023 0.032976914 -0.047027566 -0.05622554 -0.15410745
0.1728862 -0.22420816 0.061513517 -0.11759756 -0.14981946 0.07185866 -0.16793647 0.08461994
0.06384703 0.3654442 0.17607988 0.1671487 0.05458668 0.031844944 -0.022415547 -0.0048661097
0.073355615 0.035506744 0.21436556 0.29675412 -0.031691577 0.19244963 0.24324949 -0.085175365
0.09818353 -0.51195884 -0.2293788 0.07417163 0.26640943 0.34676403 0.14243738 0.13133197
0.23371817 -0.10231694 -0.10146414 -0.24395321 0.23829527 0.09930022 -0.086204745 0.63602746
00000000: aba6 10be c514 763b 4a36 4bbd 3ec6 89be
00000010: ab36 4f3e 9b87 863d a72a cdbd c5c8 ffbe
00000020: 1d53 f53c f40b b8be c464 c7bb 5fe8 96bd
00000030: 530f a73e d8ae d5bd 84d1 debd 4bf6 dc3e
00000040: 87d5 173e 1853 563d 50bd e4be f74b a03d
00000050: ac94 993e 91e0 783e b03e dfbd 9fae 50be
00000060: 2414 88bd c911 62be 7bbd cabe 6fdb dabe
00000070: 3872 a93e a726 2d3c a342 9d3c 6554 483f
00000080: 29fd 1dbe d1d1 503f 8cf1 9b3e ab35 1abe
00000090: 287d bdbd 4d1b 7e3d de15 6a3e 96c8 bc3d
000000a0: 1274 9c3d 9127 103e 40b9 93bc 5a79 803e
000000b0: c249 0abe e68d 4d3d bb51 0e3e 098f e1bd
000000c0: 50f9 bcbd 963a b73e 1f6f a83d 479e e73d
000000d0: c1ca 50be fa99 073d 8a44 bc3e 7a1d fd3b
000000e0: ac85 36bc b872 da3d 8525 203e bf5c 953e
000000f0: 52aa ad3e ff9d b43e 2bcc b23e 8829 70be
00000100: 66f8 65be 40ba f2bd ce4f 2e3e 006b d4ba
00000110: dc7c febd 022d 44be 0094 6fbe ec10 58be
00000120: 70b4 4fbd 5664 0c3e 7467 0a3e 02e5 76be
00000130: 2eb0 1f3e 8a52 48be f07b 58bd 1c9a cfbd
00000140: eee0 69bd 100e 49bd 43de 6fbe 440a 5dbe
00000150: cf32 5ebd 83b6 32bc b896 e8bd b8de c03d
00000160: 3a6a 66be adcc f9bc 30da 513e d5d1 ebbd
00000170: 20bb 5a3e 386c b93d ae07 67be 74f8 213e
00000180: 2762 5c3d cd4b 2ebf 0fbd 263e 1ece 1bbe
00000190: 6d54 f73d 6f7c 8d3d e14f 3a3e d54e 233e
000001a0: 13b4 623e 67a5 f33d fcb2 5f3d 1f3d 6dbd
000001b0: 55c9 49be 1054 b23d 95f2 8f3e cd54 363f
000001c0: 0fb0 49be 60ae 363c 9076 34be 88ec 0cbe
000001d0: 2090 2abe d804 843d c48d 18be 00ba b2bb
000001e0: a04f 2c3c 5834 0f3e 45f3 56be 2b7f 45be
000001f0: e591 2bbe d62e 333e 7ca9 dfbd e0ee 573e
00000200: a024 b93d 40aa 013d 00ed f3ba 086d 4abd
00000210: 407a 003d 30d3 69bd 003e e6ba c0a7 023d
00000220: 983e 48be 7a2d 06be d8b7 4e3e 86c1 4fbe
00000230: 200f 93bc c03e 7d3e 10f4 b83d c0f0 e73b
00000240: 414e 35be d839 c2be 4ffe 67be c01c 6abd
00000250: 6f6c 12bb 937d 093c ab0c 453d 93ff 863e
00000260: 886e 843d f35c 443e 7599 223e abca 35be
00000270: 5555 1a3e c40f e8bd 8f86 c8bc bae1 1c3f
00000280: d33b 763d 0df7 1e3e 4636 d7bd 6692 26bd
00000290: 618c de3d d904 93be be70 fe3d 7ecf 71be
000002a0: a63b afbc fbe6 b8bd 2514 38be bc8d 88bc
000002b0: 7e80 1f3e e8aa 95bd 56fc 17be 845b bdbd
000002c0: 8885 71be 5329 293f aa30 263c 60ef dbbd
000002d0: 9213 08be d708 563e 2717 a33e 96e8 663e
000002e0: a0d6 983d 48fb 223d 0d66 303d 4214 4e3e
000002f0: abe4 9b3e 6ab0 863e ffea 193e 5a54 e1bd
00000300: 420a 72be b03b 5d3d a8a9 0fbe 503e 64be
00000310: fa7a 603e d03f 26be d0fb e8bc 48af 923d
00000320: e07d 023c fa41 2cbe 2cee 4ebe 980d 4c3e
00000330: 30bf 263d 4662 543e a8a4 abbd f8cf 963d
00000340: f7ef d3bd 6027 36bc 52ea 1bbe ac28 ad3d
00000350: cd12 073d fa9f 40bd c04c 66bd 58ce 1dbe
00000360: 1409 313e d396 65be 99f5 7b3d fdd6 f0bd
00000370: 466a 19be a22a 933d 8af7 2bbe 384d ad3d
00000380: 3bc2 823d 811b bb3e 494e 343e 0729 2b3e
00000390: 4896 5f3d d86f 023d cfa0 b7bc e373 9fbb
000003a0: 783b 963d 856f 113d a582 5b3e 28f0 973e
000003b0: 07cf 01bd 8411 453e 6516 793e 6c70 aebd
000003c0: 7214 c93d bc0f 03bf 47e2 6abe 4ce7 973d
000003d0: d166 883e 0e8b b13e 1bdb 113e e37b 063e
000003e0: d153 6f3e 8b8b d1bd 6ecc cfbd dfce 79be
000003f0: ad03 743e ea5d cb3d 1d8c b0bd b2d2 223f

pi.pi.2.bias f4 [16]
0.1980975 0.26502582 0.2962853 0.2709263 -0.057314813 -0.10214258 0.32583484 0.119149186
-0.15044475 0.22673313 0.07561292 0.22796023 -0.15669408 0.030312542 0.0026746697 0.30545276
00000000: 12da 4a3e 77b1 873e b5b2 973e dab6 8a3e
00000010: f0c2 6abd 2130 d1bd d3d3 a63e 7d04 f43d
00000020: 300e 1abe bb2c 683e f2da 9a3d 686e 693e
00000030: 6a74 20be 0252 f83c 8349 2f3b 4e64 9c3e

pi.pi.4.weight f4 [1, 16]
-0.16380727 -0.2779672 0.15474796 0.23135667 -0.084956884 0.1072861 -0.29304883 0.039506298
-0.16914797 -0.22572555 -0.16502663 0.31930065 0.13525891 0.20650087 0.3054263 -0.35791606
00000000: 18bd 27be b851 8ebe 4076 1e3e c3e8 6c3e
00000010: e0fd adbd d1b8 db3d 7f0a 96be 5bd1 213d
00000020: 2035 2dbe 9924 67be befc 28be 607b a33e
00000030: 5081 0a3e f774 533e d660 9c3e c640 b7be

q1.q.0.weight f4 [16, 5]
-0.27868107 0.55022097 0.91827404 -0.9602232 -1.9634644 -1.298121 1.1439298 1.568
2.2294724 0.7041029 0.49102405 -0.092850864 -0.78109646 -0.22826885 2.670967 0.6837438
1.8585684 -0.2647885 0.009046624 0.7109189 0.7365345 0.23664838 1.0042249 1.3211426
-2.412631 -0.32541922 1.12263 0.9579891 -0.83268607 -2.1118531 0.5152351 -0.21778178
-0.5991321 -1.117466 2.6458342 0.39234915 -0.20774761 0.88921523 1.0182898 -2.0879817
0.40564758 -0.6783422 -1.0988488 0.13718328 2.0738769 -1.8559206 0.024625747 0.5114284
1.1529557 0.22262423 0.44481003 -0.03900683 -0.5955671 -0.6465706 2.3973694 1.8236344
1.3235754 0.9711957 1.252049 -1.5023949 -0.39594617 -0.5719899 0.6714679 1.0482024
2.4091396 -1.4708719 -0.19499077 0.83692974 0.87405944 0.38449866 -1.900855 -0.13833688
0.39752203 1.203034 0.5713298 -1.7616153 0.33224425 0.50889564 1.3782187 0.27425832
00000000: 49af 8ebe 48db 0c3f 0214 6b3f 30d1 75bf
00000010: cd52 fbbf d428 a6bf 4b6c 923f 39b4 c83f
00000020: adaf 0e40 1640 343f 8167 fb3e 9828 bebd
00000030: f0f5 47bf 4fbf 69be 20f1 2a40 d509 2f3f
00000040: 92e5 ed3f 5c92 87be 4b38 143c c8fe 353f
00000050: 868d 3c3f f453 723e 718a 803f 331b a93f
00000060: 8c68 1ac0 599d a6be 57b2 8f3f c63e 753f
00000070: ea2a 55bf 9a28 07c0 73e6 033f 3002 5fbe
00000080: b960 19bf 2009 8fbf 5955 2940 fde1 c83e
00000090: cabb 54be 9ca3 633f 5257 823f 7ea1 05c0
000000a0: 0ab1 cf3e d6a7 2dbf 14a7 8cbf c679 0c3e
000000b0: 66ba 0440 ce8e edbf efbb c93c f9ec 023f
000000c0: 0d94 933f 9bf7 633e 24be e33e a0c5 1fbd
000000d0: 1677 18bf a785 25bf 806e 1940 da6c e93f
000000e0: eb6a a93f 48a0 783f 2443 a03f 7a4e c0bf
000000f0: 75b9 cabe ee6d 12bf 52e5 2b3f 7f2b 863f
00000100: 582f 1a40 8845 bcbf a9ab 47be 0741 563f
00000110: 5cc2 5f3f 02dd c43e 374f f3bf 2fa8 0dbe
00000120: 0288 cb3e 05fd 993f ab42 123f 9c7c e1bf
00000130: eb1b aa3e fc46 023f 7869 b03f 966b 8c3e

q1.q.0.bias f4 [16]
-0.08460855 1.9936974 0.12491393 1.394064 0.5972897 -0.12205893 0.19900994 0.33511153
0.07110925 0.30205485 0.13504867 0.97303915 0.33401242 0.43235877 0.33987665 0.55729264
00000000: 3f47 adbd 7a31 ff3f e0d2 ff3d b070 b23f
00000010: fae7 183f 08fa f9bd 43c9 4b3e bd93 ab3e
00000020: baa1 913d efa6 9a3e 334a 0a3e 1819 793f
00000030: ad03 ab3e 215e dd3e 5004 ae3e bbaa 0e3f

q1.q.2.weight f4 [16, 16]
1.9759138 0.15656218 1.9070506 0.04057004 -0.107147016 2.0005205 2.2858946 0.18705358
1.763106 0.025975905 1.6972724 -1.7158952 0.8251499 -0.3219034 -0.043288853 -0.28103814
-0.3327778 0.8437159 0.41911045 2.7308855 2.0136833 -0.14925095 0.5520715 1.6846449
0.6132893 -0.6342933 0.3050949 2.3916762 -0.7030505 -0.012125581 -0.3755674 -0.52412224
1.7150369 0.30562255 2.2793527 -0.1535511 0.0050827116 1.8082002 2.124875 0.16646986
1.5899523 -0.22156653 2.0610063 -1.6994215 0.86045206 -0.31583875 -0.03079064 -0.22005065
2.420454 0.31430814 -0.7447639 -0.48673132 0.9153047 2.4159749 -0.19957076 0.70620215
-0.9739605 -0.084868394 -0.26445034 -0.9964462 -0.46009234 0.251597 -0.40686327 0.045736775
-3.629318 1.4027187 -2.78501 -0.68045163 -2.7043574 -3.510325 -2.5472603 -3.187665
-3.0238888 1.6608332 -2.3941722 0.72481793 0.6606283 1.334048 1.4467072 1.4988858
-0.08068467 0.82829493 0.1655108 2.5341918 1.9843352 -0.724869 0.00015766353 1.8550094
0.40012208 -0.4484952 0.116821215 2.264569 -0.45860505 -0.1828964 -0.25481266 -0.7902959
1.6328133 0.16717872 2.2222974 -0.06227175 0.06940729 1.7709725 1.9812925 0.17690548
1.871143 -0.080135696 2.12346 -1.7496426 0.7501862 -0.26863605 0.027129348 -0.20874012
-4.008412 1.0376182 -2.7039058 -0.65054065 -2.9110944 -3.7722356 -2.60124 -3.5616899
-2.9604821 1.3167629 -2.6171741 -0.12820911 0.70581484 1.0980986 0.78901654 0.8873568
-3.3664596 1.0620137 -2.7435203 -0.8139289 -2.3265367 -3.0853882 -2.3067305 -3.435226
-2.8503625 1.1343117 -2.3483648 0.24629591 0.40185058 1.3053081 0.94463325 1.0326911
-3.622512 0.95737165 -3.0564013 -0.3895034 -2.5922086 -3.2988586 -2.336453 -3.161767
-2.689376 1.5469631 -2.611637 0.31747508 0.72486895 1.2678115 0.8819027 1.1236609
1.7364386 0.35165405 2.0481353 -0.23193434 -0.15677053 1.9159905 2.081864 0.10508546
1.7856275 -0.16822265 1.9364443 -1.7033397 0.61911786 -0.37065056 -0.05853089 -0.25503096
0.699241 -3.1296198 -0.9466346 -0.34278536 0.6139872 0.4599334 -0.67910767 0.14824244
-0.6224426 0.1359922 -1.1576806 0.68650883 0.80388 -0.22702442 -0.13031727 0.022804765
2.0934343 0.13749504 2.1875024 -0.009050149 -0.22816679 1.9970478 1.8299364 -0.0009227333
1.9941648 -0.24056925 2.1890464 -1.7133721 1.0825561 -0.34821722 -0.13375494 -0.04730314
2.1355615 0.17653085 2.061244 -0.05021716 0.011766765 2.1434898 1.7333988 0.29304752
1.3865403 -0.08873158 1.8284159 -1.2608945 0.89539367 -0.2943191 -0.22314398 0.02458673
1.9583902 0.28178197 1.9331611 0.013783085 0.0074869944 1.8039477 1.775957 0.089105695
1.5314997 -0.23000798 2.0216396 -1.7970512 0.94219846 -0.39001876 -0.11350332 -0.22390099
-3.2914762 1.1053311 -2.6509118 -0.5939581 -2.1939764 -3.07249 -2.5376396 -3.0948064
-2.9676511 1.8452111 -2.4541047 0.94158643 0.66275585 1.4675978 1.6529349 1.5391155
00000000: beea fc3f d651 203e 3c1a f43f c52c 263d
00000010: e56f dbbd 8708 0040 194c 1240 f98a 3f3e
00000020: 75ad e13f 6ccb d43c 3940 d93f 74a2 dbbf
00000030: 063d 533f 86d0 a4be a74f 31bd 3be4 8fbe
00000040: da61 aabe c4fd 573f a595 d63e d4c6 2e40
00000050: 30e0 0040 3ed5 18be 8f54 0d3f 72a2 d73f
00000060: 8700 1d3f 0c61 22bf 6635 9c3e 3911 1940
00000070: 1efb 33bf 5faa 46bc 5f4a c0be e02c 06bf
00000080: 5486 db3f 8f7a 9c3e eae0 1140 803c 1dbe
00000090: e08c a63b 1b73 e73f f4fd 0740 1377 2a3e
000000a0: 8f83 cb3f 56e2 62be 87e7 0340 a586 d9bf
000000b0: 9646 5c3f 9eb5 a1be a73c fcbc f554 61be
000000c0: b8e8 1a40 ffec a03e d9a8 3ebf d934 f9be
000000d0: 6951 6a3f 559f 1a40 475c 4cbe aac9 343f
000000e0: 7a55 79bf 7bcf adbd 0966 87be 1917 7fbf
000000f0: 3991 ebbe 52d1 803e 6250 d0be 7c56 3b3d
00000100: bf46 68c0 498c b33f 9b3d 32c0 1432 2ebf
00000110: 3114 2dc0 2aa9 60c0 5006 23c0 b402 4cc0
00000120: 6587 41c0 2f96 d43f 1e3a 19c0 ab8d 393f
00000130: f01e 293f 16c2 aa3f b42d b93f 7ddb bf3f
00000140: 013e a5bd 230b 543f aa7b 293e 3330 2240
00000150: b2fe fd3f 0491 39bf 7b52 2539 f370 ed3f
00000160: cddc cc3e 2aa1 e5be f63f ef3d b3ee 1040
00000170: 48ce eabe 3249 3bbe ce76 82be d550 4abf
00000180: 0700 d13f e630 2b3e 1f3a 0e40 aa10 7fbd
00000190: 6925 8e3d 3aaf e23f fe9a fd3f b626 353e
000001a0: 9d81 ef3f 2f1e a4bd c5e6 0740 4af4 dfbf
000001b0: 340c 403f aa8a 89be 5e3e de3c f8bf 55be
000001c0: e944 80c0 acd0 843f cb0c 2dc0 d589 26bf
000001d0: 5f4f 3ac0 4f6c 71c0 b77a 26c0 baf2 63c0
000001e0: 8a78 3dc0 b08b a83f c87f 27c0 4049 03be
000001f0: 48b0 343f 7f8e 8c3f fdfc 493f d129 633f
00000200: 1374 57c0 11f0 873f d695 2fc0 a55d 50bf
00000210: fae5 14c0 0077 45c0 79a1 13c0 beda 5bc0
00000220: 576c 36c0 2031 913f 9c4b 16c0 ff34 7c3e
00000230: 5cbf cd3e 5614 a73f 7cd3 713f 392f 843f
00000240: 3dd7 67c0 4f16 753f 149c 43c0 fd6c c7be
00000250: bfe6 25c0 8020 53c0 7288 15c0 645a 4ac0
00000260: bd1e 2cc0 e302 c63f 1025 27c0 188c a23e
00000270: 0391 393f a647 a23f 60c4 613f 1fd4 8f3f
00000280: 9f43 de3f 000c b43e a614 0340 3280 6dbe
00000290: 7488 20be 2d3f f53f 433d 0540 0c37 d73d
000002a0: 718f e43f 8f42 2cbe 68dd f73f 0907 dabf
000002b0: 827e 1e3f e9c5 bdbe 16be 6fbd 6b93 82be
000002c0: 7501 333f b14b 48c0 a556 72bf 9081 afbe
000002d0: 442e 1d3f 647c eb3e 00da 2dbf decc 173e
000002e0: 6658 1fbf 8a41 0b3e e12e 94bf 0bbf 2f3f
000002f0: 14cb 4d3f 1779 68be e471 05be 0fd1 ba3c
00000300: d4fa 0540 80cb 0c3e 0a00 0c40 1347 14bc
00000310: 8ea4 69be 439f ff3f 5b3b ea3f 95e3 71ba
00000320: cb40 ff3f c957 76be 5619 0c40 c74f dbbf
00000330: 3391 8a3f 8749 b2be 0ef7 08be f0c0 41bd
00000340: 0aad 0840 81c4 343e 6ceb 0340 82b0 4dbd
00000350: 64c9 403c f02e 0940 03e0 dd3f 530a 963e
00000360: 277a b13f e7b8 b5bd 8809 ea3f fe64 a1bf
00000370: 8538 653f feb0 96be db7f 64be 1c6a c93c
00000380: 88ac fa3f ba45 903e d371 f73f 73d2 613c
00000390: 7655 f53b c2e7 e63f 8f52 e33f 0c7d b63d
000003a0: 2f08 c43f 3687 6bbe 8b62 0140 c605 e6bf
000003b0: eb33 713f 8ab0 c7be 6e74 e8bd 4d46 65be
000003c0: 8ca7 52c0 7d7b 8d3f 8aa8 29c0 a30d 18bf
000003d0: 1c6a 0cc0 ada3 44c0 b068 22c0 4f11 46c0
000003e0: ffed 3dc0 e12f ec3f 0d10 1dc0 cf0b 713f
000003f0: 5eaa 293f 3fda bb3f 5f93 d33f bd01 c53f

q1.q.2.bias f4 [16]
-0.16531864 2.6321573 -0.2158529 -0.03293317 0.85580796 2.7846599 -0.22715063 0.66828245
0.3867644 0.5141576 0.09581644 -0.77056146 -0.051351022 -0.3427068 -0.011943878 0.66824687
00000000: 4a49 29be 4475 2840 8b08 5dbe efe4 06bd
00000010: 3b16 5b3f de37 3240 2d9a 68be 8f14 2b3f
00000020: fc05 c63e d59f 033f 693b c43d 8443 45bf
00000030: 7355 52bd 4477 afbe 41b0 43bc 3a12 2b3f

q1.q.4.weight f4 [1, 16]
-2.5353796 2.355198 -2.110098 -3.0919292 2.1648395 2.688279 -1.9981151 2.417671
2.6136007 2.4326227 -2.1273699 -2.4901161 -2.1233692 -2.215176 -1.7111297 2.340576
00000000: a943 22c0 90bb 1640 d80b 07c0 2be2 45c0
00000010: bb8c 0a40 c30c 2c40 3cc2 ffbf 1fbb 1a40
00000020: 3c45 2740 17b0 1b40 d426 08c0 105e 1fc0
00000030: 48e5 07c0 72c5 0dc0 4c06 dbbf ffcb 1540

q2.q.0.weight f4 [16, 5]
0.041725338 0.10157251 -0.19360843 0.3375758 -0.18608937 -2.6957772 0.26142636 1.4685868
1.5083866 1.0289431 1.023891 0.7270784 1.365881 1.8757254 -2.9904647 -0.056996062
0.074445605 -0.44574383 0.16679804 0.15414809 0.52538276 -0.10938511 -0.691702 -1.3892497
3.2232795 -2.7370327 -0.17606069 1.3808438 1.9971989 0.74675673 -3.0253394 0.57879496
1.327424 1.841222 1.0155163 0.5384858 0.20628753 -0.32381222 -0.64139086 1.8002143
-2.68923 0.16955446 0.5585995 1.320955 0.6875485 0.9951952 1.1243567 1.3674469
1.8149482 -2.8819659 -0.6201724 1.0939133 0.7028295 -0.017918902 2.5822837 0.40434515
0.08849673 1.3776531 1.2829967 -2.9033432 0.47025287 -0.109931506 -1.7002325 0.27926403
2.9873214 1.0207149 1.0807439 -0.37676513 0.11594144 1.6353527 -2.4917867 0.18850592
1.131321 1.8375278 0.8403758 0.7666307 0.7056507 1.3761449 1.2587028 -2.6418593
00000000: 30e8 2a3d 4005 d03d 4a41 46be bcd6 ac3e
00000010: 368e 3ebe 9d87 2cc0 add9 853e a7fa bb3f
00000020: d012 c13f 68b4 833f dc0e 833f cf21 3a3f
00000030: 30d5 ae3f c517 f03f c663 3fc0 b474 69bd
00000040: f076 983d 8938 e4be 1bcd 2a3e ffd8 1d3e
00000050: 7c7f 063f 4d05 e0bd 6213 31bf efd2 b1bf
00000060: 364a 4e40 8b2b 2fc0 4149 34be 7dbf b03f
00000070: 37a4 ff3f 732b 3f3f 299f 41c0 e82b 143f
00000080: 08e9 a93f 2aad eb3f 70fc 813f 35da 093f
00000090: 0a3d 533e b7ca a5be 3132 24bf 6c6d e63f
000000a0: 581c 2cc0 af9f 2d3e 6000 0f3f 0e15 a93f
000000b0: 2e03 303f 1dc5 7e3f ecea 8f3f 8008 af3f
000000c0: 3950 e83f 2172 38c0 9ec3 1ebf 5a05 8c3f
000000d0: a2ec 333f a9ca 92bc 2344 2540 5406 cf3e
000000e0: c63d b53d f056 b03f 3c39 a43f 60d0 39c0
000000f0: fcc4 f03e c523 e1bd 38a1 d9bf b2fb 8e3e
00000100: 4630 3f40 c9a6 823f d155 8a3f 5ce7 c0be
00000110: b572 ed3d 3d53 d13f 6f79 1fc0 b207 413e
00000120: 20cf 903f 1c34 eb3f de22 573f e941 443f
00000130: 86a5 343f 8425 b03f 2c1d a13f 3914 29c0

q2.q.0.bias f4 [16]
-0.3745207 1.0697633 1.1424235 -0.254043 0.105448276 1.0028588 1.4163951 0.39311266
1.1155006 1.1010581 1.1518574 0.38714013 -0.010873918 0.7690425 1.0123847 0.67254734
00000000: 2dc1 bfbe 01ee 883f ef3a 923f ed11 82be
00000010: 44f5 d73d ad5d 803f 6f4c b53f 1046 c93e
00000020: b9c8 8e3f 79ef 8c3f 1070 933f 3b37 c63e
00000030: 8528 32bc f8df 443f d295 813f 102c 2c3f

q2.q.2.weight f4 [16, 16]
0.009083897 0.08747248 -0.20273377 -0.004618799 0.10637031 -0.31162792 -0.098425224 -0.14142951
0.0691736 -0.3320833 0.09547748 0.14831886 -0.017946642 -0.058765307 0.14453669 -0.22204469
-0.02003339 -0.10947624 -0.034510314 0.05433473 0.033390343 -0.04721874 -0.24996015 0.012801021
-0.0074054897 0.03760919 0.19156256 0.24300236 -0.14832062 -0.015588611 -0.10016841 -0.23041141
-0.18191478 0.18816163 -0.8794409 0.08929304 3.4097211 -0.29605696 -0.0129872225 1.5105495
-0.029459735 -0.8299096 0.85684603 -0.25792226 3.6738956 0.7962335 -0.3544327 -0.7705848
0.08338779 -0.07643936 -0.80328524 0.19247532 3.7014132 -0.045451283 -0.0014910877 1.4024476
-0.15228048 -1.1277018 0.84749186 -0.55660117 4.162367 0.9764608 -0.23043014 -0.66563976
0.21961308 -0.11744878 -1.1295248 -0.18771479 3.5208158 -0.23166843 -0.003016945 1.1379558
-0.052715134 -0.8845839 0.847529 -0.59432054 4.0628395 1.0404155 -0.060396444 -0.5271174
0.24719673 -0.29100463 -0.24066904 0.16902551 0.22195578 0.10887664 0.12169087 -0.23686072
0.13557816 -0.23603678 0.029557211 -0.1637587 -0.099298865 0.044267207 -0.14338367 -0.03955573
-0.23695609 -0.7048982 2.5616024 -0.10581961 -0.5304487 -0.6641727 -0.45103082 2.2770905
-0.3572054 2.59591 1.3980632 1.9307126 -0.4091374 3.3291216 -0.6878059 2.3584642
0.22763598 -0.33304352 -1.2455803 0.007834788 3.525907 -0.29039297 -0.007923454 1.5354279
0.08209907 -0.9746293 1.0514255 -0.23803419 3.708532 0.8757838 -0.047401875 -0.4774133
-0.24873322 0.13537633 -0.07258296 -0.2448053 0.024950799 -0.13610342 0.035428047 -0.19285446
-0.18813226 -0.021212757 -0.114524074 0.14621618 -0.008988172 0.16459692 0.04685074 -0.080390334
0.1693334 0.013661265 0.046922922 -0.08040565 0.0008971989 -0.048068285 -0.02125433 -0.19496983
-0.001537472 -0.20751107 -0.0537827 0.14488655 -0.17383757 -0.16851294 -0.061044127 -0.06853351
0.04232186 2.464548 -3.616562 -0.13031335 -2.9732463 2.662149 2.8369946 -0.71511054
2.7595413 -3.5090551 1.452557 -5.2530694 -4.5480485 -1.1981518 2.6363127 -4.4446173
-0.14414626 0.10138321 -0.14051615 0.17255726 0.17361242 0.036367476 -0.019768685 -0.11780182
-0.01264146 -0.010218123 -0.21498533 -0.1154664 -0.23197277 0.09780194 -0.15920907 0.17266607
-0.0644452 -0.31131828 -0.8968721 0.03726977 3.6362283 -0.12275578 -0.20982082 1.5733389
0.18127356 -1.1451046 0.9408133 -0.31278807 3.8171391 0.98539853 0.004822172 -0.63614064
0.21061733 -0.13489385 -0.1091597 0.20342837 0.067386016 0.191322 -0.14775743 -0.20171414
-0.060008347 -0.24569689 0.05024617 0.21314782 0.04503497 -0.028636113 0.06910065 -0.1432617
0.24456078 -0.2899443 -0.29068968 -0.059075415 0.16116387 -0.0010918466 0.07034184 -0.24351928
0.0614223 -0.1302575 0.026489401 0.15522198 0.051954176 -0.082969606 -0.056140874 -0.2362449
-0.09042552 0.13101853 -0.10348215 0.15525994 -0.11191061 -0.08966569 -0.026120452 -0.24153599
-0.03393723 -0.029956145 -0.03539858 -0.04997605 0.18458527 0.1745545 -0.20088027 0.103658155
00000000: a0d4 143c c624 b33d 7199 4fbe 4b59 97bb
00000010: add8 d93d b28d 9fbe 2a93 c9bd e6d2 10be
00000020: e3aa 8d3d d306 aabe b289 c33d e6e0 173e
00000030: d604 93bc e4b3 70bd 6d01 143e af5f 63be
00000040: 101d a4bc 1435 e0bd b05a 0dbd 188e 5e3d
00000050: 50c4 083d 7068 41bd 8ef5 7fbe 60bb 513c
00000060: c0a9 f2bb 180c 1a3d fa28 443e 9cd5 783e
00000070: 5ce1 17be 6067 7fbc 1825 cdbd f8f0 6bbe
00000080: de47 3abe 71ad 403e 0a23 61bf 45df b63d
00000090: df38 5a40 c794 97be 5cc8 54bc b059 c13f
000000a0: 8b55 f1bc f574 54bf 435a 5b3f 630e 84be
000000b0: 1b21 6b40 f5d5 4b3f 3478 b5be 0c45 45bf
000000c0: 38c7 aa3d 3d8c 9cbd 1aa4 4dbf 4018 453e
000000d0: f4e3 6c40 202b 3abd 9a70 c3ba 6783 b33f
000000e0: 6aef 1bbe 8858 90bf 3af5 583f 6a7d 0ebf
000000f0: 1c32 8540 56f9 793f e1f5 6bbe 5e67 2abf
00000100: 40e2 603e fc88 f0bd 4594 90bf 4e38 40be
00000110: 0c55 6140 7d3a 6dbe f0b7 45bb 89a8 913f
00000120: d3eb 57bd 1774 62bf a9f7 583f 6425 18bf
00000130: c802 8240 562c 853f 4362 77bd 2af1 06bf
00000140: 2421 7d3e 8ffe 94be f271 76be 0615 2d3e
00000150: 6048 633e b7fa de3d 1039 f93d 9e8b 72be
00000160: 00d5 0a3e a0b3 71be f721 f23c 5cb0 27be
00000170: 345d cbbd 8851 353d 2bd3 12be 3005 22bd
00000180: 9ea4 72be 3574 34bf 4bf1 2340 f4b7 d8bd
00000190: 7ccb 07bf 3907 2abf 83ed e6be dabb 1140
000001a0: a0e3 b6be 6423 2640 bcf3 b23f 9721 f73f
000001b0: 757a d1be 5410 5540 0c14 30bf 14f1 1640
000001c0: 6819 693e ae84 aabe 2d6f 9fbf 7c5d 003c
000001d0: 76a8 6140 63ae 94be 60d1 01bc e788 c43f
000001e0: 8f23 a83d 4e81 79bf 1c95 863f 3cbf 73be
000001f0: 9758 6d40 5e33 603f 7828 42bd 846f f4be
00000200: ecb3 7ebe 18a0 0a3e 60a6 94bd 3eae 7abe
00000210: 9e65 cc3c b25e 0bbe 001d 113d a47b 45be
00000220: bea5 40be 60c6 adbc 998b eabd b2b9 153e
00000230: 2043 13bc 188c 283e 90e6 3f3d b0a3 a4bd
00000240: bc65 2d3e 80d3 5f3c 4032 403d b8ab a4bd
00000250: 0032 6b3a 40e3 44bd 901d aebc 2ca6 47be
00000260: 0085 c9ba c87d 54be 404b 5cbd 245d 143e
00000270: 7a02 32be a88e 2cbe 6809 7abd 4c5b 8cbd
00000280: b059 2d3d 28bb 1d40 c075 67c0 dd70 05be
00000290: ab49 3ec0 a660 2a40 5291 3540 7c11 37bf
000002a0: 539c 3040 5c94 60c0 63ed b93f 2519 a8c0
000002b0: 9d89 91c0 0a5d 99bf 59b9 2840 4e3a 8ec0
000002c0: 149b 13be 00a2 cf3d 77e3 0fbe dab2 303e
000002d0: 74c7 313e 10f6 143d f0f1 a1bc 1542 f1bd
000002e0: 201e 4fbc ea69 27bc 1d25 5cbe a679 ecbd
000002f0: 458a 6dbe 624c c83d b407 23be 60cf 303e
00000300: d8fb 83bd 1c65 9fbe 6999 65bf 30a8 183d
00000310: f7b7 6840 6267 fbbd 45db 56be 2b63 c93f
00000320: c79f 393e ca92 92bf 24d9 703f c225 a0be
00000330: 024c 7440 1443 7c3f 5003 9e3b 1dda 22bf
00000340: 12ac 573e 9d21 0abe 1f8f dfbd 874f 503e
00000350: ae01 8a3d eae9 433e b94d 17be 278e 4ebe
00000360: 50cb 75bd f797 7bbe eece 4d3d 6c43 5a3e
00000370: 9776 383d 4896 eabc a484 8d3d 32b3 12be
00000380: 246e 7a3e 9473 94be 47d5 94be 10f9 71bd
00000390: 2408 253e 4b1c 8fba 620f 903d 1e5d 79be
000003a0: f395 7b3d 3962 05be 4d00 d93c 83f2 1e3e
000003b0: e7cd 543d f8eb a9bd f9f3 65bd 2fea 71be
000003c0: 0431 b9bd b929 063e 73ee d3bd 76fc 1e3e
000003d0: 6431 e5bd a5a2 b7bd 8ffa d5bc 3655 77be
000003e0: c401 0bbd 9766 f5bc 1afe 10bd b0b3 4cbd
000003f0: ec03 3d3e 6abe 323e 8fb3 4dbe ba4a d43d

q2.q.2.bias f4 [16]
-0.26359192 -0.21283033 -0.18795267 -0.14601997 -0.21516828 -0.2808924 3.2184002 -0.12980345
-0.26194295 -0.24286637 1.4106897 -0.23580731 -0.31917822 -0.13419177 -0.1167202 -0.23583527
00000000: 85f5 86be 32f0 59be aa76 40be 4286 15be
00000010: 1355 5cbe 21d1 8fbe 45fa 4d40 32eb 04be
00000020: 631d 86be f6b1 78be 7b91 b43f 7977 71be
00000030: 546b a3be 9169 09be 000b efbd cd7e 71be

q2.q.4.weight f4 [1, 16]
-0.17114112 0.016391963 -2.49301 -2.4947772 -2.8569553 -0.13407487 2.8821523 -2.6449614
-0.15892024 0.14257038 3.0739532 0.17222062 -2.5710487 -0.08822556 0.10633816 -0.008843643
00000000: 9e3f 2fbe 7048 863c 7a8d 1fc0 6eaa 1fc0
00000010: 5bd8 36c0 ec4a 09be 2f75 3840 0c47 29c0
00000020: fdbb 22be f8fd 113e a6bb 4440 9a5a 303e
00000030: 108c 24c0 9aaf b4bd d2c7 d93d ede4 10bc

exp_avg f4 [16, 4]
-0.073372394 0.0010663737 0.038927525 0.021202601 -0.56335485 -0.0018273857 -0.18020597 -0.07173625
0.16413099 -0.00024922378 -0.09310874 -0.026676401 0.019934237 -0.0025570586 -0.004215747 -0.018171296
-0.16791558 0.00079695135 0.094269335 0.031072741 -0.058836184 -0.00056179543 0.03523875 0.001496694
-0.030088767 -0.0003045774 -0.1005949 -0.017962318 -0.019211397 0.00012327917 0.0059098527 0.020306075
-0.044199735 0.004722496 0.011949867 0.0382776 0.053263374 0.0016532537 -0.034346838 0.009459604
0.09078804 0.0007543387 -0.053312115 -0.0060695633 0.20501101 -0.0032805894 -0.1556297 -0.06840719
-0.0073319077 -0.0018353295 -0.010756031 -0.028993495 0.116653234 -0.002365108 -0.14287435 -0.0036319946
0.057113215 0.0036246777 -0.016837033 0.02560419 -0.116321556 -0.0010435119 -0.0029719411 -0.00062664115
00000000: 4444 96bd 90c5 8b3a 7872 1f3d 14b1 ad3c
00000010: 0638 10bf e484 efba ea87 38be 74ea 92bd
00000020: f411 283e 40aa 82b9 ccaf bebd 7888 dabc
00000030: 204d a33c 5394 27bb 4024 8abb f8db 94bc
00000040: 10f2 2bbe 80ea 503a 4810 c13d 438c fe3c
00000050: 36fe 70bd 7445 13ba 8256 103d b82c c43a
00000060: b87c f6bc b0af 9fb9 b304 cebd b625 93bc
00000070: 3861 9dbc 8044 0139 70a7 c13b ed58 a63c
00000080: c80a 35bd 2bbf 9a3b 60c9 433c f9c8 1c3d
00000090: b22a 5a3d fdb1 d83a 45af 0cbd 74fc 1a3c
000000a0: 14ef b93d d0be 453a ce5d 5abd 30e3 c6bb
000000b0: 68ee 513e 28ff 56bb 645d 1fbe 1219 8cbd
000000c0: 8040 f0bb 708f f0ba 103a 30bc c483 edbc
000000d0: e4e7 ee3d eeff 1abb a74d 12be c206 6ebb
000000e0: 8cef 693d 008c 6d3b d1ed 89bc e1bf d13c
000000f0: ff39 eebd 73c6 88ba e6c4 42bb 2d45 24ba

exp_avg_sq f4 [16, 4]
3.339271 0.0033647877 0.4879666 0.027646344 4.536253 0.0010071994 4.706487 0.08521003
10.689137 0.011080988 1.58265 0.09123058 0.67873263 0.0006500018 0.096369445 0.0053512705
13.849311 0.014348999 2.0458574 0.117627874 1.3522495 0.0014560467 0.20319891 0.011870935
0.33130908 0.00015857858 0.1642568 0.0044105155 0.9875317 0.0009451968 0.14247455 0.007872603
2.1808116 0.0020603691 0.3031685 0.017041536 0.28314677 0.00034639743 0.045077343 0.0029945571
2.825045 0.0029901601 0.4188036 0.024350025 39.372906 0.039876744 5.75129 0.32850698
1.9182365 0.0018163741 0.266131 0.014785134 0.70865697 0.00029231395 1.185847 0.024658918
0.029409736 3.6894755e-05 0.0026355952 0.00042110408 0.077575654 1.1843725e-05 0.0014069261 0.00011048884
00000000: 9eb6 5540 c583 5c3b c2d6 f93e 967a e23c
00000010: fc28 9140 0104 843a 8b9b 9640 9982 ae3d
00000020: b506 2b41 088d 353c 4694 ca3f 19d7 ba3d
00000030: 6cc1 2d3f e264 2a3a 585d c53d b659 af3b
00000040: c796 5d41 1018 6b3c 54ef 0240 e2e6 f03d
00000050: 8316 ad3f d2d8 be3a 6013 503e 4f7e 423c
00000060: 58a1 a93e 1d48 2639 ef32 283e 1686 903b
00000070: e1ce 7c3f 15c7 773a d9e4 113e 17fc 003c
00000080: 6b92 0b40 4207 073b e738 9b3e b19a 8b3c
00000090: 9df8 903e ad9c b539 05a3 383d 5540 443b
000000a0: 8acd 3440 90f6 433b 6d6d d63e b479 c73c
000000b0: db7d 1d42 cc55 233d 910a b840 1132 a83e
000000c0: c688 f53f 6713 ee3a 5342 883e 593d 723c
000000d0: 8b6a 353f b741 9939 d6c9 973f 8001 ca3c
000000e0: b0ec f03c 71bf 1a38 f3b9 2c3b a2c7 dc39
000000f0: fcdf 9e3d 69b4 4637 9b68 b83a 3fb6 e738

exp_avg f4 [16]
0.022316486 0.006639898 0.02262491 -0.07021967 -0.004062414 -0.027946591 -0.0153992325 0.015847832
0.13562645 0.06528186 0.04224977 -0.0745728 -0.068039685 -0.109776616 0.13156933 -0.064172044
00000000: 10d1 b63c 8093 d93b e057 b93c 55cf 8fbd
00000010: 001e 85bb 40f0 e4bc 104d 7cbc 50d3 813c
00000020: a9e1 0a3e 7fb2 853d 180e 2d3d a0b9 98bd
00000030: 6458 8bbd 90d2 e0bd 1cba 063e a26c 83bd

exp_avg_sq f4 [16]
4.87556 2.4155488 16.083979 0.9397992 20.756887 2.0933058 0.28636903 1.3686442
2.988451 0.49752373 4.32005 57.863216 2.6298783 0.5917184 0.04349511 0.032402653
00000000: 9604 9c40 5a98 1a40 fdab 8041 ae96 703f
00000010: 1b0e a641 b9f8 0540 f69e 923e bc2f af3f
00000020: c842 3f40 6ebb fe3e d93d 8a40 ef73 6742
00000030: ed4f 2840 db7a 173f ee27 323d a5b8 043d

exp_avg f4 [16, 16]
-0.03440608 6e-45 -0.013207532 0.026029197 -0.05747927 -0.07714458 -2.2027212e-38 0.0035030954
0.026464798 -0.025983673 -0.013733644 -0.02162787 0.010173663 6e-45 -0.020428244 -0.000111649446
-0.061831087 0.0 -0.024574596 0.041791108 -0.10237934 -0.13770384 0.0 0.0057212883
0.042734716 -0.049202364 -0.027352232 -0.043638207 0.01552037 -6e-45 -0.035227418 -0.0001893919
-0.0043602437 0.0072859004 -0.012269512 -0.08782765 -0.0060825646 -0.03791012 -0.046432555 -0.040791765
-0.046672165 -0.040506005 -0.0123717785 -0.088018 -0.06617108 0.0032431344 0.020059098 0.00010674739
-0.006694168 0.010881507 -0.018497393 -0.13164264 -0.009267777 -0.056972384 -0.06942174 -0.061233073
-0.07012847 -0.060958058 -0.018832237 -0.1322397 -0.09920585 0.0048390804 0.029988624 0.00015950314
0.0 0.0 0.0 0.0 0.0 0.0 0.0 0.0
0.0 0.0 0.0 0.0 0.0 0.0 0.0 0.0
6e-45 0.0 6e-45 0.0 6e-45 6e-45 0.0 0.0
0.0 6e-45 6e-45 6e-45 6e-45 0.0 0.0 0.0
0.009257525 -0.01376495 0.024176642 0.1687034 0.012626141 0.07380977 0.08835009 0.07896447
0.0905385 0.0792321 0.025416285 0.17094946 0.12740245 -0.0061053354 -0.037896495 -0.00020161587
6e-45 0.0 0.0 0.0 6e-45 6e-45 0.0 0.0
0.0 6e-45 6e-45 6e-45 6e-45 0.0 6e-45 0.0
0.0 0.0 0.0 0.0 0.0 0.0 0.0 0.0
0.0 0.0 0.0 0.0 0.0 0.0 0.0 0.0
0.0072160214 -0.010603952 0.0187155 0.13023338 0.009824589 0.057062566 0.06814393 0.06102851
0.06996474 0.061290205 0.019765377 0.13214284 0.098395884 -0.0047018165 -0.029181266 -0.00015527141
6e-45 6e-45 6e-45 6e-45 6e-45 6e-45 6e-45 6e-45
6e-45 6e-45 6e-45 6e-45 6e-45 0.0 0.0 0.0
-0.00937137 0.015014713 -0.025658026 -0.18202579 -0.012939841 -0.078909785 -0.095886126 -0.0847559
-0.0970847 -0.08448058 -0.026261687 -0.18310893 -0.1372228 0.006674019 0.041374594 0.00022006805
0.0 0.0 0.0 0.0 0.0 0.0 0.0 0.0
0.0 0.0 0.0 0.0 0.0 0.0 0.0 0.0
6e-45 0.0 0.0 0.0 6e-45 6e-45 0.0 0.0
0.0 6e-45 6e-45 6e-45 6e-45 6e-45 6e-45 -6e-45
-0.008948952 0.0143684475 -0.024542347 -0.17416775 -0.012391061 -0.07552859 -0.091800146 -0.081104636
-0.092852116 -0.080824256 -0.025107324 -0.17521024 -0.13133869 0.006387824 0.03955431 0.00021048888
0.011218488 -0.016822802 0.02945739 0.20593727 0.015354514 0.09005308 0.10795632 0.09635171
0.11041236 0.0965969 0.030874312 0.20852983 0.15552974 -0.007466945 -0.046275284 -0.0002462884
00000000: 64ed 0cbd 0400 0000 6864 58bc 2f3b d53c
00000010: 626f 6bbd fafd 9dbd e8da ef80 3094 653b
00000020: b4cc d83c b6db d4bc 1403 61bc ee2c b1bc
00000030: 6faf 263c 0400 0000 2259 a7bc 5725 eab8
00000040: 9842 7dbd 0000 0000 aa50 c9bc 272d 2b3d
00000050: 42ac d1bd 3c02 0dbe 0000 0000 a579 bb3b
00000060: 990a 2f3d 6b88 49bd ca11 e0bc fabd 32bd
00000070: 2649 7e3c 0400 0080 a04a 10bd 8097 46b9
00000080: 60e0 8ebb 90be ee3b 1006 49bc fcde b3bd
00000090: 4050 c7bb a447 1bbd 1030 3ebd 4415 27bd
000000a0: 502b 3fbd a0e9 25bd 00b3 4abc c842 b4bd
000000b0: b484 87bd c48a 543b fa52 a43c 92dd df38
000000c0: c05a dbbb 5948 323c d887 97bc 54cd 06be
000000d0: e0d7 17bc e05b 69bd fc2c 8ebd 88cf 7abd
000000e0: 849f 8fbd 28af 79bd 1046 9abc d869 07be
000000f0: 702c cbbd 2691 9e3b b4aa f53c 4c40 2739
00000100: 0000 0000 0000 0000 0000 0000 0000 0000
00000110: 0000 0000 0000 0000 0000 0000 0000 0000
00000120: 0000 0000 0000 0000 0000 0000 0000 0000
00000130: 0000 0000 0000 0000 0000 0000 0000 0000
00000140: 0400 0000 0000 0000 0400 0000 0000 0000
00000150: 0400 0000 0400 0000 0000 0000 0000 0000
00000160: 0000 0000 0400 0000 0400 0000 0400 0000
00000170: 0400 0000 0000 0000 0000 0000 0000 0000
00000180: e0ac 173c 6386 61bc 180e c63c 96c0 2c3e
00000190: e0dd 4e3c 9429 973d e4f0 b43d 20b8 a13d
000001a0: 406c b93d 7044 a23d d035 d03c 600d 2f3e
000001b0: ca75 023e 440f c8bb 5b39 1bbd d968 53b9
000001c0: 0400 0000 0000 0000 0000 0000 0000 0000
000001d0: 0400 0000 0400 0000 0000 0000 0000 0000
000001e0: 0000 0000 0400 0000 0400 0000 0400 0000
000001f0: 0400 0000 0000 0000 0400 0000 0000 0000
00000200: 0000 0000 0000 0000 0000 0000 0000 0000
00000210: 0000 0000 0000 0000 0000 0000 0000 0000
00000220: 0000 0000 0000 0000 0000 0000 0000 0000
00000230: 0000 0000 0000 0000 0000 0000 0000 0000
00000240: 6074 ec3b 33bc 2dbc 4051 993c e65b 053e
00000250: 50f7 203c 70ba 693d 0b8f 8b3d 08f9 793d
00000260: ac49 8f3d 700b 7b3d 00eb a13c 7450 073e
00000270: c883 c93d b211 9abb 8d0d efbc 5ad0 22b9
00000280: 0400 0000 0400 0000 0400 0000 0400 0000
00000290: 0400 0000 0400 0000 0400 0000 0400 0000
000002a0: 0400 0000 0400 0000 0400 0000 0400 0000
000002b0: 0400 0000 0000 0000 0000 0000 0000 0000
000002c0: 608a 19bc 4500 763c c830 d2bc f864 3abe
000002d0: a001 54bc 749b a1bd f25f c4bd 8094 adbd
000002e0: 58d4 c6bd 2804 adbd c022 d7bc e880 3bbe
000002f0: 2284 0cbe bbb1 da3b 6878 293d 11c2 6639
00000300: 0000 0000 0000 0000 0000 0000 0000 0000
00000310: 0000 0000 0000 0000 0000 0000 0000 0000
00000320: 0000 0000 0000 0000 0000 0000 0000 0000
00000330: 0000 0000 0000 0000 0000 0000 0000 0000
00000340: 0400 0000 0000 0000 0000 0000 0000 0000
00000350: 0400 0000 0400 0000 0000 0000 0000 0000
00000360: 0000 0000 0400 0000 0400 0000 0400 0000
00000370: 0400 0000 0400 0000 0400 0000 0400 0080
00000380: a09e 12bc a369 6b3c 080d c9bc 0859 32be
00000390: e003 4bbc bcae 9abd b701 bcbd 301a a6bd
000003a0: 4029 bebd 3087 a5bd e0ad cdbc 506a 33be
000003b0: a67d 06be f450 d13b b303 223d aeb6 5c39
000003c0: c0cd 373c f9cf 89bc a050 f13c 38e1 523e
000003d0: 8091 7b3c c06d b83d 3418 dd3d 0c54 c53d
000003e0: e01f e23d 98d4 c53d 20ec fc3c d888 553e
000003f0: 3043 1f3e 46ad f4bb 278b 3dbd 4520 81b9

exp_avg_sq f4 [16, 16]
0.007828714 2.4073893e-06 0.002157766 0.0051853796 0.024620395 0.04139936 0.00040546333 0.0016846023
0.004190597 0.013988682 0.009521651 0.026849512 0.004517945 3.0227375e-05 0.005274779 7.975986e-06
0.014938228 0.0 0.0022177363 0.0011184413 0.05392558 0.082376204 0.0 0.00013878154
0.0011480729 0.012785079 0.01025885 0.017016372 0.0004547817 1.7188022e-11 0.0139486715 1.689494e-05
0.7093827 7.222792e-05 0.5552825 3.1641645 0.8665992 2.5759885 0.042421985 1.3723284
2.762724 3.693887 2.1506484 8.783922 1.8009883 0.0016194737 0.004336654 4.3986634e-06
1.5790913 0.00015932911 1.2353966 7.0417714 1.9287751 5.7315817 0.094238184 3.05451
6.1502647 8.216845 4.7847986 19.543007 4.005825 0.0036005573 0.009634096 9.818476e-06
0.0 0.0 0.0 0.0 0.0 0.0 0.0 0.0
0.0 0.0 0.0 0.0 0.0 0.0 0.0 0.0
1.4749681e-16 0.0 2.5019023e-18 0.0 3.6458365e-14 2.7122025e-13 0.0 0.0
0.0 6.978208e-14 4.2706737e-14 1.2702625e-13 6.473778e-14 0.0 0.0 0.0
2.5347314 0.00025711546 1.9830204 11.306947 3.0960896 9.202739 0.15121348 4.9060388
9.874479 13.191956 7.681152 31.381498 6.434125 0.005768086 0.01549147 1.6694621e-05
4.4473136e-12 0.0 0.0 0.0 3.2905397e-11 8.81557e-11 0.0 0.0
0.0 8.22495e-12 3.1175288e-11 5.275901e-12 5.3596105e-14 0.0 2.749076e-13 0.0
0.0 0.0 0.0 0.0 0.0 0.0 0.0 0.0
0.0 0.0 0.0 0.0 0.0 0.0 0.0 0.0
1.4934455 0.00015369704 1.1693377 6.664456 1.8246118 5.425866 0.0895259 2.8912985
5.817517 7.7810426 4.529206 18.503428 3.7954588 0.0034090816 0.009169941 1.0120395e-05
3.8698076e-11 1.0496229e-10 3.2597818e-12 1.4625472e-09 1.978453e-12 7.646344e-10 3.855134e-10 4.598115e-11
3.5055145e-10 6.6532726e-09 1.6513692e-09 1.0912441e-08 3.3382055e-09 0.0 0.0 0.0
2.9553812 0.00029761967 2.3107278 13.186666 3.609086 10.726506 0.1758023 5.7236457
11.518614 15.3707 8.953012 36.592766 7.502785 0.00668403 0.018013868 1.7872566e-05
0.0 0.0 0.0 0.0 0.0 0.0 0.0 0.0
0.0 0.0 0.0 0.0 0.0 0.0 0.0 0.0
3.377462e-10 0.0 0.0 0.0 2.2641746e-09 5.1290665e-09 0.0 0.0
0.0 4.384221e-10 1.8159121e-09 2.3518576e-10 1.7752262e-12 4.442523e-14 2.3337898e-11 2.0805087e-16
2.7324884 0.00027629614 2.1368723 12.189266 3.337341 9.918743 0.16272925 5.289582
10.646531 14.214503 8.278487 33.827896 6.9355693 0.0061977757 0.016676176 1.6743628e-05
3.8667967 0.00039192277 3.0260425 17.23818 4.723911 14.0384865 0.23097843 7.4756665
15.05404 20.128487 11.717867 47.846436 9.806643 0.008846507 0.02361095 2.5673678e-05
00000000: 0244 003c a28e 2136 4e69 0d3b 1eea a93b
00000010: b6b0 c93c 6092 293d 5e94 d439 e0cd dc3a
00000020: 4751 893b c930 653c b300 1c3c 82f3 db3c
00000030: 450b 943b cb90 fd37 0ed8 ac3b 99d0 0537
00000040: 78bf 743c 0000 0000 7157 113b aa98 923a
00000050: 12e1 5c3d dbb4 a83d 0000 0000 e385 1139
00000060: ef7a 963a 8278 513c bc14 283c eb65 8b3c
00000070: c46f ee39 fc2f 972d f888 643c 9bb9 8d37
00000080: 1b9a 353f 1279 9738 fe26 0e3f ac81 4a40
00000090: 72d9 5d3f ffdc 2440 adc2 2d3d 75a8 af3f
000000a0: 78d0 3040 a568 6c40 39a4 0940 f28a 0c41
000000b0: c986 e63f 8544 d43a 7e1a 8e3b 3b98 9336
000000c0: aa1f ca3f 9511 2739 7a21 9e3f 3156 e140
000000d0: 1ae2 f63f 1e69 b740 f3ff c03d 187d 4340
000000e0: f8ce c440 3278 0341 121d 9940 1458 9c41
000000f0: b82f 8040 54f7 6b3b 54d8 1d3c 09ba 2437
00000100: 0000 0000 0000 0000 0000 0000 0000 0000
00000110: 0000 0000 0000 0000 0000 0000 0000 0000
00000120: 0000 0000 0000 0000 0000 0000 0000 0000
00000130: 0000 0000 0000 0000 0000 0000 0000 0000
00000140: 600d 2a25 0000 0000 999b 3822 0000 0000
00000150: a231 2429 f5ae 982a 0000 0000 0000 0000
00000160: 0000 0000 a122 9d29 8455 4029 d304 0f2a
00000170: cac6 9129 0000 0000 0000 0000 0000 0000
00000180: 0a39 2240 74cd 8639 9dd3 fd3f 41e9 3441
00000190: 5526 4640 6b3e 1341 b5d7 1a3e 45fe 9c40
000001a0: defd 1d41 4012 5341 ffcb f540 4f0d fb41
000001b0: 5ae4 cd40 3602 bd3b efcf 7d3c 6d0b 8c37
000001c0: d779 9c2c 0000 0000 0000 0000 0000 0000
000001d0: 2fb8 102e 3fdb c12e 0000 0000 0000 0000
000001e0: 0000 0000 e2b1 102d 411c 092e 17a1 b92c
000001f0: 1a60 7129 0000 0000 5cc2 9a2a 0000 0000
00000200: 0000 0000 0000 0000 0000 0000 0000 0000
00000210: 0000 0000 0000 0000 0000 0000 0000 0000
00000220: 0000 0000 0000 0000 0000 0000 0000 0000
00000230: 0000 0000 0000 0000 0000 0000 0000 0000
00000240: 3929 bf3f bc29 2139 dcac 953f 3943 d540
00000250: e18c e93f b2a0 ad40 5b59 b73d 090b 3940
00000260: 1929 ba40 4dfe f840 41ef 9040 0507 9441
00000270: cce8 7240 e66a 5f3b 853d 163c c4ca 2937
00000280: 2932 2a2e 84d0 e62e 0263 652c ce02 c930
00000290: a438 0b2c 5d2e 5230 30f0 d32f 2c3a 4a2e
000002a0: bbb7 c02f ce9a e431 63f6 e230 6c79 3b32
000002b0: 5566 6531 0000 0000 0000 0000 0000 0000
000002c0: f724 3d40 d609 9c39 f7e2 1340 95fc 5241
000002d0: 44fb 6640 c59f 2b41 8505 343e 1b28 b740
000002e0: 3e4c 3841 63ee 7541 8a3f 0f41 fe5e 1242
000002f0: d116 f040 b505 db3b d291 933c 0bed 9537
00000300: 0000 0000 0000 0000 0000 0000 0000 0000
00000310: 0000 0000 0000 0000 0000 0000 0000 0000
00000320: 0000 0000 0000 0000 0000 0000 0000 0000
00000330: 0000 0000 0000 0000 0000 0000 0000 0000
00000340: 8dad b92f 0000 0000 0000 0000 0000 0000
00000350: c897 1b31 bf3b b031 0000 0000 0000 0000
00000360: 0000 0000 6d06 f12f ba93 f930 744b 812f
00000370: 44d7 f92b ce12 4829 4648 cd2d c7dd 6f25
00000380: 17e1 2e40 d7db 9039 84c2 0840 3c07 4341
00000390: ff96 5540 2cb3 1e41 7fa2 263e 4144 a940
000003a0: 3158 2a41 9b6e 6341 af74 0441 c44f 0742
000003b0: 2ff0 dd40 b616 cb3b 7a9c 883c ab74 8c37
000003c0: 9979 7740 fc7a cd39 aeaa 4140 cbe7 8941
000003d0: 472a 9740 a49d 6041 9c85 6c3e a938 ef40
000003e0: 59dd 7041 2407 a141 627c 3b41 c062 3f42
000003f0: 02e8 1c41 f1f0 103c c06b c13c ce5d d737

exp_avg f4 [16]
-0.0922599 -0.16680342 -0.04290116 -0.06472206 0.0 6e-45 0.08486438 6e-45
0.0 0.06571925 6e-45 -0.08981961 0.0 6e-45 -0.08592975 0.10339677
00000000: c2f2 bcbd 84ce 2abe 20b9 2fbd 008d 84bd
00000010: 0000 0000 0400 0000 60cd ad3d 0400 0000
00000020: 0000 0000 d097 863d 0400 0000 58f3 b7bd
00000030: 0000 0000 0400 0000 f0fb afbd b0c1 d33d

exp_avg_sq f4 [16]
0.070583455 0.12291843 8.031529 17.872824 0.0 3.561325e-13 28.69235 1.8009663e-10
0.0 16.912529 7.6639335e-09 33.449696 0.0 1.0270701e-08 30.927628 43.767483
00000000: 0f8e 903d a8bc fb3d 2581 0041 8bfb 8e41
00000010: 0000 0000 1a7c c82a ef89 e541 b204 462f
00000020: 0000 0000 dc4c 8741 56aa 0332 7dcc 0542
00000030: 0000 0000 0573 3032 c86b f741 e711 2f42

exp_avg f4 [1, 16]
0.12415915 0.21831492 -0.20046794 -0.5310633 0.0 6e-45 -0.13149977 6e-45
0.0 -0.17727482 -6e-45 -0.41717744 0.0 6e-45 -0.25835228 -0.3320316
00000000: 2747 fe3d f28d 5f3e 7847 4dbe c4f3 07bf
00000010: 0000 0000 0400 0000 e0a7 06be 0400 0000
00000020: 0000 0000 8887 35be 0400 0080 4898 d5be
00000030: 0000 0000 0400 0000 c046 84be 0c00 aabe

exp_avg_sq f4 [1, 16]
0.065214954 0.100832336 126.19102 277.24915 0.0 4.639998e-15 89.39854 2.0518507e-11
0.0 34.231552 9.935764e-10 170.86719 0.0 4.4778872e-10 150.80241 91.17317
00000000: 6b8f 853d 2f81 ce3d cd61 fc42 e49f 8a43
00000010: 0000 0000 6e2c a727 0dcc b242 927b b42d
00000020: 0000 0000 1ced 0842 5d8e 8830 00de 2a43
00000030: 0000 0000 a92c f62f 6bcd 1643 aa58 b642

exp_avg f4 [16, 5]
219.73389 -8.713161 77.743416 -2.2546597 67.35584 -216.70686 -10.350798 -45.845947
-34.674965 56.544914 175.56111 4.891745 151.91382 24.927456 -52.104633 -420.0488
-16.056547 -34.029133 -48.975372 83.303444 -215.51846 -6.8583803 -76.66914 -42.001106
48.127155 273.80573 -8.535706 -11.787048 -6.6271973 18.02993 151.1576 4.265877
344.06946 56.61751 16.945831 -132.47629 -6.3677015 -111.351906 -42.42267 34.21769
-83.43197 11.1385145 -32.42935 31.006872 -47.077194 44.47895 -3.4491055 -43.737415
-17.042828 -12.38048 -18.602814 7.0477257 408.8768 75.5237 62.097675 -480.4451
-13.981325 231.27818 18.527573 132.90727 118.15185 -1.3293056 2.9166222 2.5965908
-19.742739 8.126518 -3.0972705 -39.80453 -17.859598 -3.7689342 29.228233 -2.52088
-33.990005 -12.927585 -9.874516 47.17674 -2.0176327 -36.143013 -12.53849 -13.404016
00000000: e0bb 5b43 1c69 0bc1 a17c 9b42 584c 10c0
00000010: 31b6 8642 f5b4 58c3 de9c 25c1 4062 37c2
00000020: 2ab3 0ac2 fe2d 6242 a58f 2f43 2d89 9c40
00000030: f0e9 1743 6e6b c741 256b 50c2 3f06 d2c3
00000040: cf73 80c1 d51d 08c2 c8e6 43c2 5d9b a642
00000050: ba84 57c3 da77 dbc0 9a56 99c2 2201 28c2
00000060: 3582 4042 22e7 8843 4092 08c1 c097 3cc1
00000070: 0012 d4c0 4c3d 9041 5828 1743 1082 8840
00000080: e408 ac43 5578 6242 1091 8741 ee79 04c3
00000090: 36c4 cbc0 2db4 dec2 d0b0 29c2 eade 0842
000000a0: 2bdd a6c2 5b37 3241 a8b7 01c2 130e f841
000000b0: 0c4f 3cc2 72ea 3142 25be 5cc0 1df3 2ec2
000000c0: b657 88c1 7216 46c1 90d2 94c1 f886 e140
000000d0: 3b70 cc43 220c 9742 0564 7842 f938 f0c3
000000e0: 82b3 5fc1 3747 6743 7838 9441 43e8 0443
000000f0: bf4d ec42 b026 aabf f0a9 3a40 8b2e 2640
00000100: 21f1 9dc1 3806 0241 ae39 46c0 d737 1fc2
00000110: 75e0 8ec1 3836 71c0 6cd3 e941 1956 21c0
00000120: c4f5 07c2 63d7 4ec1 04fe 1dc1 fbb4 3c42
00000130: e520 01c0 7292 10c2 a89d 48c1 d976 56c1

exp_avg_sq f4 [16, 5]
3.5000395e+06 1830.5688 1.6901029e+06 29692.455 382240.44 205058.22 153.95714 47456.855
1942.1233 23900.912 3.4942645e+06 1669.2819 1.1504185e+06 25421.887 652476.44 298448.16
160.0901 73147.65 2462.6045 44435.72 170073.33 162.08981 76821.7 2367.8984
13958.337 3.2845915e+06 1742.3849 1.5365036e+06 27454.283 345269.97 3.5103128e+06 1605.4891
1.2480512e+06 26696.72 620486.3 386201.0 345.1539 261613.72 6235.119 46041.906
1.497193e+06 859.4053 168917.17 8060.439 258851.16 599098.8 297.52957 191708.69
4958.336 84635.195 3.4634902e+06 1524.8778 1.2419859e+06 27531.217 617200.8 245026.89
260.4736 220797.23 3369.0852 70793.15 82626.97 46.229015 18577.482 560.5023
10012.845 636938.94 339.71848 207150.8 5338.7676 92491.164 353023.38 178.63979
114783.08 2917.1074 48941.305 383836.0 180.4813 122334.6 3159.3115 54678.13
00000000: 1ea0 554a 34d2 e444 b74f ce49 e9f8 e746
00000010: 0ea4 ba48 8e40 4848 07f5 1943 db60 3947
00000020: f2c3 f244 d3b9 ba46 e245 554a 05a9 d044
00000030: 946e 8c49 c69b c646 c74b 1f49 05ba 9148
00000040: 1117 2043 d3dd 8e47 ace9 1945 b893 2d47
00000050: 5516 2648 fe16 2243 da0a 9647 60fe 1345
00000060: 5919 5a46 be79 484a 51cc d944 bd8f bb49
00000070: 917c d646 bf96 a848 a340 564a a7af c844
00000080: 9a59 9849 7191 d046 657c 1749 2093 bc48
00000090: b393 ac43 6e7b 7f48 f4d8 c245 e8d9 3347
000000a0: 48c3 b649 f0d9 5644 4bf5 2448 83e3 fb45
000000b0: cac8 7c48 ad43 1249 c9c3 9443 2c37 3b48
000000c0: b0f2 9a45 994d a547 0965 534a 179c be44
000000d0: 0f9c 9749 6f16 d746 0daf 1649 b948 6f48
000000e0: 9f3c 8243 4f9f 5748 5d91 5245 9344 8a47
000000f0: 7c61 a147 83ea 3842 f722 9146 2620 0c44
00000100: 6173 1c46 af80 1b49 f7db a943 b34b 4a48
00000110: 24d6 a645 95a5 b447 ec5f ac48 c9a3 3243
00000120: 8a2f e047 b851 3645 4e2d 3f47 806b bb48
00000130: 367b 3443 4def ee47 fc74 4545 2196 5547

exp_avg f4 [16]
-313.3733 -352.0075 5.345627 -499.1789 -277.94812 -311.5121 0.79548645 -282.86566
292.98053 -91.8999 140.2427 -383.85428 -74.2341 -69.5477 -65.81284 -55.010612
00000000: c8af 9cc3 f600 b0c3 600f ab40 e696 f9c3
00000010: 5cf9 8ac3 8cc1 9bc3 00a5 4b3f ce6e 8dc3
00000020: 827d 9243 c0cc b7c2 223e 0c43 59ed bfc3
00000030: dc77 94c2 6c18 8bc2 2da0 83c2 de0a 5cc2

exp_avg_sq f4 [16]
3.028128e+06 233310.17 2.683962e+06 247587.38 226287.89 2.8645545e+06 2.6087242e+06 497736.47
1.2559564e+06 486473.44 2.534647e+06 302154.03 69881.42 542915.4 290655.66 300365.97
00000000: 80d2 384a 8bd7 6348 e8d0 234a d8c8 7148
00000010: f9fb 5c48 aad6 2e4a 5139 1f4a 0f09 f348
00000020: a350 9949 2e89 ed48 dcb3 1a4a 4189 9348
00000030: b67c 8847 368c 0449 f5eb 8d48 bfa9 9248
